models/ae_conv_conn4.pth (torch, 203766 bytes, 32 tensors)

encoder.0.weight f4 [16, 3, 3, 3]
0	0x3cdefe1d	0.02722078
1	0xbdb85ac8	-0.0900169
2	0x3d6a7be9	0.057247076
3	0x3dba8825	0.09107999
4	0x3d890c82	0.06691839
5	0x3d92a1f9	0.071598
6	0xbdbfbfbe	-0.09362744
7	0x3d51632f	0.05111998
8	0xbcd8ab08	-0.026448742
9	0x3dfce3e5	0.12348155
10	0x3e259606	0.1617051
11	0x3dab1a1d	0.0835459
12	0x3db6a748	0.08918625
13	0x3e845b6d	0.25851002
14	0xbdbbbc7c	-0.0916681
15	0x3de961c3	0.113956
16	0x3dc3c8b4	0.095597655
17	0xbe0ef707	-0.13961421
18	0xbe5d90d2	-0.21637276
19	0x3c17c707	0.00926376
20	0x3e2446b3	0.16042595
21	0x3d874c79	0.06606383
22	0x3e0ea126	0.13928661
23	0x3e075443	0.13215737
24	0x3e335f8f	0.17516921
25	0x3e64910e	0.22320959
26	0xbd8deb3b	-0.06929632
27	0x3b9373e2	0.0044998983
28	0x3dda425d	0.10657189
29	0xbc8c9e48	-0.017165318
30	0x3d838e00	0.06423569
31	0x3c832e03	0.016013151
32	0xbd6a4929	-0.057198677
33	0x3cfd9dc7	0.030959023
34	0x3e14c0a3	0.1452661
35	0x3dd02879	0.101639695
36	0x3d639c73	0.055569123
37	0x3e067493	0.13130407
38	0x3d3bf3d4	0.04588683
39	0xbddf3284	-0.10898307
40	0x3e2aab12	0.1666682
41	0x3cb8ecf3	0.022573924
42	0xbd2c6256	-0.042085968
43	0xbe33324d	-0.17499657
44	0x3d699d63	0.05703486
45	0x3cacf365	0.021112153
46	0xbe3d5ff3	-0.18493633
47	0x3e80526e	0.2506289
48	0xbe05bee3	-0.13061099
49	0xbcf47594	-0.029841222
50	0x3da2e8b9	0.079545446
51	0xbe28bd6e	-0.16478512
52	0x3c2ad726	0.010427272
53	0x3dcf69c1	0.10127593
54	0xbd30a4f0	-0.043126047
55	0x3e2af9c9	0.16696848
56	0xbdab5c7d	-0.0836725
57	0xbda21a34	-0.07915154
58	0x3e1edbbd	0.15513511
59	0xbcc7e426	-0.024400782
60	0x3e114743	0.1418734
61	0x3e4d27e8	0.20034754
62	0x3d6a8f6d	0.057265688
63	0x3bc609ec	0.0060436632
64	0x3d9996bd	0.07499454
65	0x3ac163a4	0.0014754427
66	0xbc2e82d8	-0.010651313
67	0x3e0ac713	0.13552503
68	0xbc4f0f80	-0.012637973
69	0xbe2104f1	-0.15724541
70	0x3d937e92	0.07201876
71	0x3ce302a0	0.027711213
72	0x3d94adce	0.07259713
73	0xbde2d73b	-0.11076208
74	0x3deb8f75	0.11501972
75	0x3c982fc6	0.018577468
76	0x3e204708	0.15652096
77	0xbe11dfb7	-0.14245497
78	0xbdc3a4e8	-0.09552938
79	0x3d2e4333	0.042544555
80	0x3e1fbb27	0.15598737
81	0xbdcdcd3f	-0.10048913
82	0xbdb3e2d1	-0.08783496
83	0x3d242244	0.04007174
84	0xbd8cd9c9	-0.06877477
85	0x3e2e85ba	0.170432
86	0xbd8ed322	-0.06973864
87	0xbe017511	-0.12642314
88	0x3dfae425	0.12250546
89	0x3c69b045	0.014263217
90	0xbd18320e	-0.03715711
91	0x3dbb5055	0.091461815
92	0xbdcd968b	-0.100384794
93	0xbde9e3bc	-0.1142039
94	0x3e0a5d44	0.1351214
95	0x3e475d1e	0.19469115
96	0x3d25f547	0.040517118
97	0x3e10162f	0.14070962
98	0x3e3ac7df	0.18240307
99	0x3e1e03f8	0.15431201
100	0x3d339f53	0.043853115
101	0xbd3c47d8	-0.045966953
102	0xbe33d63f	-0.17562197
103	0x3e4f8b40	0.20267963
104	0xbc2760a3	-0.010215911
105	0x3debcc4e	0.115135774
106	0x3e31afb0	0.17352176
107	0xbdc8ff1c	-0.09814283
108	0xbe08cf32	-0.13360289
109	0xbe45a0d6	-0.19299635
110	0xbca5532f	-0.020181267
111	0x3c672760	0.014108509
112	0xbe178368	-0.14796221
113	0x3e43dd46	0.19127378
114	0x3e03b444	0.12861735
115	0xbd91d02f	-0.07119786
116	0x3e1905cb	0.14943616
117	0xbd199846	-0.037498735
118	0xbe47024e	-0.19434473
119	0xbdb59a25	-0.08867291
120	0xbe2e3e20	-0.17015886
121	0xbe5d02aa	-0.21583048
122	0xbe2ed1a0	-0.17072153
123	0xbccfcb75	-0.02536557
124	0xbdaa0b4b	-0.08302935
125	0xbdfa81a2	-0.12231757
126	0xbe230234	-0.15918809
127	0xbe4f0427	-0.20216428
128	0xbdb1f176	-0.08688633
129	0x3e20f938	0.1572007
130	0xbd9fbbde	-0.07799505
131	0xbce9733b	-0.028497329
132	0x3dcf3847	0.10118156
133	0xbdea3554	-0.11435953
134	0xbe2758a1	-0.16342403
135	0x3e080268	0.13282168
136	0xbe07dedc	-0.13268608
137	0xbe42997f	-0.19003867
138	0x3dd785b7	0.10523551
139	0xbdfe032c	-0.12402949
140	0xbdf9200f	-0.12164318
141	0xbd27944a	-0.040912904
142	0x3e1c99a5	0.15292986
143	0xbe499ebb	-0.19689457
144	0x3e1c19f9	0.15244283
145	0xbe34fd62	-0.17674783
146	0x3db88464	0.090096265
147	0x3dfb17c9	0.12260396
148	0xbc990aed	-0.018681968
149	0xbe3f94af	-0.18709062
150	0xbdce0a5a	-0.10060568
151	0x3d97abd6	0.07405822
152	0x3df7af7b	0.12094017
153	0x3e311e64	0.1729675
154	0x3e27d2b7	0.16388975
155	0xbe0eea37	-0.13956533
156	0xbb846f14	-0.004041562
157	0xbc7d04c8	-0.0154430345
158	0xbe094600	-0.13405609
159	0xbe166c55	-0.14689763
160	0xbdff5831	-0.12467993
161	0xbdd95b3f	-0.10613107
162	0x3d64472a	0.05573193
163	0xbd2eaf04	-0.042647377
164	0x3c8af692	0.016963277
165	0x3de0a412	0.10968794
166	0xbda0c35f	-0.07849764
167	0x3e3dd37a	0.18537703
168	0x3dbf9e41	0.093563564
169	0xbe12ab7d	-0.1432323
170	0xbd12c242	-0.03582979
171	0xbe170be2	-0.14750627
172	0x3ce0951b	0.027414849
173	0xbe3d5781	-0.18490411
174	0x3e010883	0.12600903
175	0x3e2bd334	0.16779786
176	0x3ce5a644	0.028033383
177	0x3cbc8da7	0.023016764
178	0x3d9c4fa0	0.07632375
179	0x3bcc315a	0.006231469
180	0x3deea3d3	0.11652341
181	0xbd11ec15	-0.035625536
182	0x3d8e638e	0.06952582
183	0xbd2f28bb	-0.042763453
184	0x3e229b7d	0.15879627
185	0x3de92d50	0.11385596
186	0x3dd1b7b6	0.10240118
187	0x3cb7c3b6	0.02243219
188	0xbdef1119	-0.11673183
189	0x3e0a3092	0.1349509
190	0x3e249a78	0.1607455
191	0x3dd0efae	0.10201965
192	0x3d84fc25	0.06493405
193	0xbdc27712	-0.09495367
194	0x3e2f0b2b	0.17094104
195	0xbdf6066f	-0.12012946
196	0x3deb6dfa	0.11495586
197	0x3d9d1609	0.076702185
198	0xbcdf20b7	-0.02723728
199	0xbdfcf87a	-0.12352081
200	0x3e006c43	0.12541299
201	0xbd880f4f	-0.06643545
202	0xbdd1882a	-0.10231049
203	0x3e22a30a	0.15882507
204	0x3e140709	0.14455809
205	0x3dbdd482	0.09269048
206	0xbdfa9ee1	-0.12237335
207	0x3c8d3fee	0.017242398
208	0x3e3c7a96	0.18406138
209	0xbe06061d	-0.1308827
210	0x3d12d46e	0.03584712
211	0x3e03d99c	0.1287598
212	0x3e2fa79f	0.17153786
213	0xbdf1c711	-0.11805547
214	0xbe13f3ca	-0.14448467
215	0x3e129b33	0.14317016
216	0x3dbe8047	0.09301811
217	0x3d19799e	0.0374695
218	0xbe01080a	-0.12600723
219	0xbe2b9fd1	-0.16760184
220	0xbccd383c	-0.025051229
221	0x3e584418	0.21119726
222	0x3d89870c	0.06715211
223	0x3d5790b4	0.052628234
224	0xbdb9441f	-0.09046196
225	0x3e06bbaf	0.13157533
226	0xbd7c57ab	-0.061607044
227	0xbe1767f4	-0.14785749
228	0xbc4d8128	-0.012543
229	0xbcaec50e	-0.021334197
230	0x3de51d88	0.11187273
231	0x3e25756a	0.16158071
232	0x3e2f1088	0.1709615
233	0x3e1cc970	0.15311217
234	0x3dbd8e2d	0.092556335
235	0xbb56928c	-0.0032741157
236	0x3e3c67ed	0.1839902
237	0x3bc3c568	0.0059744604
238	0x3e16439a	0.14674225
239	0xbc516ef1	-0.012782798
240	0x3c988cd4	0.01862184
241	0x3e56a3a1	0.20960857
242	0x3e396a68	0.18106997
243	0x3d52fa49	0.05150822
244	0x3c4b0cd0	0.012393191
245	0x3df1da99	0.11809272
246	0x3e1989ff	0.14994048
247	0xbdcb49ab	-0.099261604
248	0xba876667	-0.0010330201
249	0x3e4fae81	0.20281412
250	0x3e4a1f0c	0.19738406
251	0x3db097e8	0.08622724
252	0x3dc74b3f	0.09731149
253	0x3d5ec0bd	0.05438303
254	0x3d5773e5	0.05260076
255	0x3e2f3d66	0.17113265

encoder.0.bias f4 [16]
0	0x3e0de3af	0.13856386
1	0x3e061f8a	0.13097969
2	0xbdc77193	-0.097384594
3	0xbe3b7312	-0.18305615
4	0xbe0137cb	-0.1261894
5	0xbdabfeb3	-0.083981894
6	0xbe3d7517	-0.18501697
7	0xbd2080df	-0.0391854
8	0xbe3fb4f8	-0.18721378
9	0x3e0bfa84	0.13669783
10	0xbd70b015	-0.058761675
11	0x3d9e82d3	0.077397965
12	0xbe210489	-0.15724386
13	0xbe2a0ba9	-0.1660601
14	0x3db89542	0.09012844
15	0xbe01017e	-0.12598225

encoder.1.weight f4 [16]
0	0x3f80cf8a	1.0063336
1	0x3f80789d	1.0036808
2	0x3f7f3f3d	0.9970587
3	0x3f80cc8e	1.0062425
4	0x3f80a878	1.0051413
5	0x3f7762c8	0.96635103
6	0x3f847cf7	1.0350636
7	0x3f7539b4	0.95791173
8	0x3f7c8605	0.98642
9	0x3f7b3c51	0.9813891
10	0x3f7944f5	0.97370845
11	0x3f75b356	0.9597677
12	0x3f7f75e0	0.9978924
13	0x3f835262	1.0259516
14	0x3f809e2e	1.0048273
15	0x3f849835	1.035895

encoder.1.bias f4 [16]
0	0x3ab78330	0.0014000889
1	0x3c9b297d	0.018940682
2	0x3bff0efa	0.007783768
3	0x3cb33a5d	0.021878416
4	0x3ce087e2	0.027408544
5	0x3dc83d57	0.09777325
6	0x3cbefd21	0.02331406
7	0xbc8d7962	-0.017269794
8	0x3ab593f9	0.0013853303
9	0xbc9661b4	-0.018357135
10	0x3d19369b	0.03740559
11	0xbbd53a67	-0.0065072062
12	0x3cbea820	0.023273528
13	0x3d528952	0.05140049
14	0x3cef7405	0.029230127
15	0x3d4947f5	0.04914089

encoder.1.running_mean f4 [16]
0	0x3f4b7396	0.79473245
1	0x3eb819f8	0.35957313
2	0x3e8d8764	0.27642357
3	0x3e2e4d20	0.17021608
4	0xbf68bcc2	-0.9091302
5	0xbec626d0	-0.38701487
6	0x3dec2697	0.11530798
7	0x3ec9d951	0.39423612
8	0x3ed50db9	0.41612032
9	0x3effe6e9	0.49980858
10	0xbe705ecf	-0.23473667
11	0xbdd12d8e	-0.10213767
12	0xbc02fd05	-0.007994895
13	0xbf058da4	-0.5216925
14	0x3ebdbdad	0.37058774
15	0xbecf99a1	-0.40546897

encoder.1.running_var f4 [16]
0	0x3d9fc794	0.078017384
1	0x3c4378aa	0.011930624
2	0x3cd6f920	0.026241839
3	0x3cd00bac	0.02539619
4	0x3dead1d2	0.11465801
5	0x3cb0e697	0.021594329
6	0x3c8e3486	0.01735903
7	0x3d0d0c46	0.034435533
8	0x3d8343c1	0.064094074
9	0x3cc06ea7	0.023490263
10	0x3bf3be57	0.0074384618
11	0x3bf30aaa	0.0074170427
12	0x3bbcf4d3	0.00576649
13	0x3cbd6fb9	0.023124563
14	0x3c745f1c	0.014915254
15	0x3c7df3e3	0.015500042

encoder.3.weight f4 [32, 16, 3, 3]
0	0xbd2e72dd	-0.04259001
1	0x3cf15fe3	0.029464668
2	0x3a13aa76	0.00056330056
3	0xbca919d0	-0.020642191
4	0xbc9a9fc6	-0.018875014
5	0xbd22117f	-0.039567467
6	0xbc2b5779	-0.010457867
7	0x3d67ae7d	0.05656289
8	0xbc68834c	-0.01419146
9	0xbc4aabc4	-0.012370054
10	0x3d7498fb	0.059716206
11	0xbd9b3cba	-0.07579942
12	0x3cb1b213	0.021691358
13	0x3d9add50	0.07561743
14	0x3d34fcc8	0.044186383
15	0x3c9fdd35	0.01951466
16	0x3d074fb5	0.033035
17	0xbc664519	-0.01405456
18	0xbd5d066c	-0.053961203
19	0xbcb24cfb	-0.021765223
20	0xbdca74b4	-0.098855406
21	0xbcc12fd0	-0.02358237
22	0x3c29486c	0.010332208
23	0x3d80a1ab	0.06280836
24	0xbdb7907d	-0.08963106
25	0x3d369816	0.044578634
26	0x3d6916ff	0.056906696
27	0x3bfc8557	0.007706325
28	0x3daed655	0.08536974
29	0x3c2b9670	0.010472879
30	0x3d3c7243	0.046007406
31	0x3dbd4d0a	0.0924321
32	0xbcb6b08f	-0.022300987
33	0x3d33ba16	0.043878637
34	0x3d36d9a3	0.04464115
35	0xbdb91e8f	-0.09039032
36	0xbdabee11	-0.08395017
37	0x3d1f19d4	0.03884299
38	0xbd846782	-0.06465055
39	0xbb16a670	-0.0022987388
40	0xbd15d193	-0.03657682
41	0x3d0a9b02	0.033839233
42	0xbd8f5f84	-0.0700064
43	0xbcb869c5	-0.022511372
44	0x3c113d23	0.008864674
45	0xbdd08596	-0.101817295
46	0xbc014fb6	-0.00789254
47	0x3d6d8089	0.05798391
48	0xbcc23b4c	-0.023709916
49	0xbd93e0c9	-0.07220609
50	0x3d0fd671	0.035116617
51	0xbc1fd415	-0.009755154
52	0xbc8aa231	-0.016923042
53	0x3c0daa6e	0.008646591
54	0x3cfb40af	0.030670492
55	0x3cd61c2d	0.026136482
56	0xbd7fed2d	-0.062482048
57	0x3d90bf03	0.070676826
58	0xbc9cbb5c	-0.019132309
59	0x3d58daa1	0.052942876
60	0x3d0343b1	0.032046977
61	0x3d3116ca	0.043234624
62	0x3d431a94	0.04763277
63	0xbd89788d	-0.06712446
64	0xbda5d348	-0.08096939
65	0xbd23e42c	-0.040012524
66	0x3a6014e0	0.00085480325
67	0xba579d3a	-0.00082250277
68	0xbd38e3c6	-0.045139097
69	0xbd5ed484	-0.05440189
70	0x3dcf8dfa	0.10134502
71	0xbdaa2ed0	-0.0830971
72	0x3c6b7df6	0.014373293
73	0x3d447812	0.04796607
74	0x3ce66795	0.028125564
75	0xbd4b096b	-0.04956953
76	0xbbd254b3	-0.0064187883
77	0x3d5e8e8c	0.054335162
78	0x3d6d255d	0.05789696
79	0xbd88a5c3	-0.066722415
80	0x3d734b04	0.059397712
81	0x3da1cfe7	0.07900982
82	0x3d2d321a	0.04228411
83	0xbbfa42ae	-0.0076373434
84	0xbcc06da9	-0.02348979
85	0x3c8ff802	0.017574314
86	0xbba4d0fe	-0.0050297966
87	0xbd0f73c1	-0.0350225
88	0xbd2d6764	-0.04233493
89	0x3da1f769	0.07908518
90	0xbd79267f	-0.06082773
91	0xbd9003f5	-0.07032005
92	0x3cb8d6e8	0.022563413
93	0x3dab6302	0.083684936
94	0x3cbab026	0.022789072
95	0x3cdffcb3	0.027342176
96	0x3b8f657d	0.004376112
97	0x3ccd1f78	0.02503942
98	0xbd66f427	-0.056385186
99	0xbd81b351	-0.0633303
100	0xbd077aed	-0.033076216
101	0xbca41f9d	-0.020034606
102	0xbcc9312c	-0.02455958
103	0xbc22c926	-0.009935653
104	0xbd04f957	-0.03246435
105	0x3ccec6fc	0.025241368
106	0x3d9449d6	0.072406456
107	0xbd263aab	-0.040583294
108	0x3bf9d389	0.007624094
109	0x3d55f57c	0.052236065
110	0x3d91ae10	0.07113278
111	0x3d01a52b	0.031651657
112	0xbc98b04f	-0.018638758
113	0x3d33d1f8	0.043901414
114	0xbdb6762d	-0.08909259
115	0xbd80e4e3	-0.06293657
116	0xbb8f9c69	-0.004382659
117	0xbd22bc35	-0.03973027
118	0xbd049252	-0.032366104
119	0xbd521449	-0.051288877
120	0x3cd50a57	0.026005907
121	0xbd91adc5	-0.07113222
122	0x3d52c8e6	0.051461123
123	0xbc094d82	-0.008380296
124	0x3c543b9c	0.012953665
125	0x3c2a47b8	0.010393076
126	0xbdb3a187	-0.08771043
127	0xbc5a0285	-0.013306265
128	0x3bed2f23	0.007238285
129	0x3bddf257	0.006773274
130	0xbcbe9a77	-0.023267014
131	0x3d9321ed	0.07184205
132	0x3bfe21ea	0.0077555077
133	0x3cfe8110	0.031067401
134	0xbd8b3944	-0.06798032
135	0xbdac7d52	-0.084223405
136	0xbdc4678e	-0.09590064
137	0xbd7f34b7	-0.062306132
138	0xbd4a2cc6	-0.049359106
139	0xbd6fe762	-0.058570273
140	0xbd984120	-0.074342966
141	0x3d9329b1	0.071856864
142	0xbb90179b	-0.0043973452
143	0xbc143aa0	-0.00904718
144	0xbc8da25b	-0.017289331
145	0x3d87fe77	0.06640332
146	0xbd7c6eb9	-0.06162903
147	0xbc4a16e8	-0.012334563
148	0x3d8e0037	0.06933635
149	0x3d1aff43	0.037841093
150	0xbd7a8420	-0.06116116
151	0x3c54366a	0.012952426
152	0xbce32c3b	-0.027731052
153	0x3ca5b7df	0.020229278
154	0x3d90a69b	0.070630275
155	0x3d887df9	0.066646524
156	0xbd9ee6db	-0.07758876
157	0x3d17878a	0.036994494
158	0x3d1b001e	0.03784191
159	0x3d106e7a	0.03526161
160	0x3d820e4d	0.06350384
161	0xbd9a2765	-0.07527045
162	0x3d8d0a3e	0.06886719
163	0xbcc054a0	-0.023477852
164	0xbd60d139	-0.05488703
165	0x3d43e3b5	0.04782458
166	0x3ce73b10	0.028226405
167	0x3d3f92dc	0.046770915
168	0xbd9042f9	-0.07044024
169	0x3d9700c1	0.07373191
170	0x3ca8ae57	0.020590944
171	0x3cd456e5	0.02592034
172	0x3da3c4e0	0.07996535
173	0xbd37f08b	-0.044907134
174	0xbdb95886	-0.09050088
175	0xbd87c481	-0.06629277
176	0xbd3d439c	-0.046207055
177	0x3d58beb6	0.05291625
178	0x3d005837	0.03133413
179	0xbc9f5430	-0.019449323
180	0x3cb48f1e	0.0220409
181	0xbb960a6a	-0.004578878
182	0xbcf564a3	-0.029955214
183	0x3cd0bef9	0.025481688
184	0xbd8efea2	-0.06982161
185	0x3daa1230	0.0830425
186	0x3d2d2ca5	0.042278904
187	0x3cdf428f	0.027253417
188	0x3dc05756	0.09391658
189	0xbd94422e	-0.07239185
190	0x3be9e0b5	0.007137383
191	0x3c591ee3	0.013251993
192	0x3d0d945f	0.034565326
193	0xbd10a8cd	-0.03531723
194	0x3d495a37	0.0491583
195	0xbd89c11c	-0.06726286
196	0x3d60771b	0.054801088
197	0xbcbf0290	-0.023316652
198	0xbd47fa03	-0.048822414
199	0xbdbd2f08	-0.09237486
200	0xbd9f1915	-0.07768456
201	0xbd03e515	-0.03220089
202	0x3cb8d7ea	0.022563893
203	0xbd36ac9b	-0.044598203
204	0x3ce9a063	0.028518861
205	0xba04d053	-0.0005066443
206	0x3d6021f8	0.054719895
207	0x3d23877f	0.03992414
208	0xbd6a9ddc	-0.057279453
209	0xbce30491	-0.027712138
210	0xbd63a0e1	-0.055573348
211	0xbd0c22d5	-0.034212906
212	0x3cb453d1	0.022012623
213	0x3b28de40	0.0025767237
214	0xbd439603	-0.047750484
215	0xbdaf1fca	-0.08550985
216	0x3c951df7	0.018202765
217	0x3d74fa89	0.05980924
218	0x3c6b546c	0.014363389
219	0xbc52bbbc	-0.012862142
220	0xbd3a01f3	-0.045412015
221	0xbd61171a	-0.054953672
222	0x3c90011a	0.01757865
223	0xbd39222e	-0.045198612
224	0x3d915123	0.07095554
225	0xbca559fb	-0.020184508
226	0x3cb5018f	0.02209547
227	0x3ce87fc0	0.028381228
228	0xbdaf9f9a	-0.085753635
229	0xbc70e6a9	-0.014703431
230	0xbdb33844	-0.08750966
231	0xbcb2ad67	-0.0218112
232	0xbd64f28d	-0.055895377
233	0xbc61de25	-0.013785874
234	0xbd1c6aed	-0.03818791
235	0xbc599c7b	-0.013281937
236	0x3d566401	0.052341465
237	0x3d41776b	0.047233026
238	0xbc5fc047	-0.013656682
239	0xbc6a34b6	-0.014294794
240	0x3b489ce1	0.0030611085
241	0xbc45ecf9	-0.012080424
242	0x3d8fcd09	0.07021529
243	0x3b9c08f2	0.0047618086
244	0xbbc7375f	-0.006079599
245	0x3da69ddc	0.08135578
246	0x3d82d60a	0.06388481
247	0x3ce2b923	0.02767617
248	0x3d11e928	0.035622746
249	0x3d8030f6	0.062593386
250	0xbd8ad46c	-0.067787975
251	0x3baedb9e	0.005336239
252	0xbcc9596a	-0.024578769
253	0x3d384a4a	0.044992723
254	0xbdaf9024	-0.085724145
255	0x3cd6f55c	0.026240043

encoder.3.bias f4 [32]
0	0x3d948aaa	0.072530106
1	0x3da027e4	0.078201085
2	0xbd1b3334	-0.037890628
3	0xbd8ffda5	-0.07030801
4	0xbc6de519	-0.014519953
5	0x3d0f5183	0.034989845
6	0x3d1f0168	0.0388197
7	0xbd8a148d	-0.06742201
8	0x3d5fefec	0.054672167
9	0xbda9d943	-0.082933925
10	0xbd22b607	-0.039724376
11	0x3bb0bdf3	0.0053937375
12	0x3d8857fb	0.06657406
13	0x3c7cce49	0.015430042
14	0x3ab70a0e	0.0013964789
15	0xbbed8063	-0.007247971
16	0xbda6f2cd	-0.08151779
17	0xbc597804	-0.013273243
18	0xbda9ccdc	-0.08291027
19	0x3cd00ad0	0.02539578
20	0x3d23931e	0.039935224
21	0xbd39c2e6	-0.045351885
22	0xbc01b669	-0.007917025
23	0x3d63feb9	0.055662844
24	0xbd8e369f	-0.06944012
25	0xbb07f9e2	-0.0020748307
26	0xbd0e0902	-0.03467656
27	0xbd86b2b2	-0.06577052
28	0xbc8e1b77	-0.01734708
29	0xbce82a3f	-0.028340457
30	0x3d96d722	0.07365252
31	0xbc6565e4	-0.014001343

encoder.4.weight f4 [32]
0	0x3f756e09	0.95871025
1	0x3f8195bb	1.0123819
2	0x3f8090dc	1.0044208
3	0x3f80292e	1.0012567
4	0x3f83e99d	1.0305668
5	0x3f7c562c	0.9856899
6	0x3f7aea60	0.9801388
7	0x3f808634	1.0040956
8	0x3f7bcc38	0.9835849
9	0x3f80db05	1.006684
10	0x3f7abc34	0.97943425
11	0x3f78b896	0.97156656
12	0x3f813480	1.0094147
13	0x3f82673b	1.0187753
14	0x3f815fbb	1.010734
15	0x3f83c7eb	1.0295385
16	0x3f702c0c	0.9381721
17	0x3f829c23	1.0203899
18	0x3f7820a3	0.969248
19	0x3f7ae322	0.9800283
20	0x3f806c72	1.0033095
21	0x3f81da97	1.0144833
22	0x3f7d7572	0.9900733
23	0x3f81532f	1.0103511
24	0x3f77153a	0.96516764
25	0x3f832fde	1.0248983
26	0x3f7fd9bd	0.9994162
27	0x3f820472	1.0157607
28	0x3f81e20b	1.0147108
29	0x3f7f19ec	0.9964893
30	0x3f748348	0.9551282
31	0x3f7d3be7	0.9891953

encoder.4.bias f4 [32]
0	0xbc9bd84b	-0.019024035
1	0x3d641a76	0.055689298
2	0x3d470d1a	0.04859648
3	0x3d20ef10	0.039290488
4	0x3d0fdbfc	0.035121903
5	0x3af85a95	0.0018947894
6	0xbd24fcf8	-0.040280312
7	0x3d045b05	0.032313365
8	0x3d02c0b7	0.03192207
9	0x3cc4c0fa	0.0240178
10	0x3dac2aa7	0.08406573
11	0x3df0bbff	0.117546074
12	0x3c0e688b	0.008691917
13	0x3d4d7a50	0.050165474
14	0x3d25c86c	0.04047434
15	0x3dd95c24	0.106132776
16	0x3d07687b	0.033058625
17	0x3d84d419	0.06485767
18	0x3d0a3ff1	0.033752386
19	0x3c6c9cdf	0.014441698
20	0x3da9afe3	0.08285501
21	0x3caab390	0.020837575
22	0x3da8d691	0.0824405
23	0x3d141633	0.036153983
24	0x3a93bbbb	0.0011271158
25	0x3cc290d3	0.023750698
26	0xbbc9cad3	-0.0061582117
27	0x3d827c47	0.0637136
28	0x3dac9638	0.084270895
29	0x3db8be85	0.09020714
30	0x3d0e9f30	0.03481978
31	0xbcf90e39	-0.03040229

encoder.4.running_mean f4 [32]
0	0xbdfd5b7e	-0.123709664
1	0x3ec248c6	0.37946147
2	0x3bdf7761	0.006819651
3	0xbe448e8c	-0.19195002
4	0xbd5031c8	-0.050828725
5	0xbf15970d	-0.5843361
6	0x3f17533c	0.5911138
7	0x3bddb4c4	0.0067659337
8	0xbd97b6df	-0.07407927
9	0xbed3e57b	-0.41386017
10	0x3ed084be	0.40726274
11	0xbda0571b	-0.07829114
12	0x3edf5429	0.43618897
13	0xbe34f82b	-0.17672794
14	0xbdf3c368	-0.11902505
15	0xbe7178a7	-0.23581181
16	0xbd8685f3	-0.065685175
17	0xbe20192c	-0.15634602
18	0xbe137444	-0.1439982
19	0x3e8815bf	0.2657909
20	0x3d3199b5	0.043359477
21	0x3f23670d	0.6382912
22	0xbcbe42ac	-0.023225151
23	0xbdee86f7	-0.11646836
24	0xbd0e3d0e	-0.034726195
25	0x3e6b00fd	0.22949596
26	0xbd8a8e0b	-0.06765374
27	0xbee04a51	-0.438067
28	0x3cae0124	0.021240778
29	0x3e53f872	0.20700243
30	0xbe975d8c	-0.29563558
31	0xbea9b02f	-0.3314223

encoder.4.running_var f4 [32]
0	0x3ee56579	0.4480398
1	0x3eb52609	0.3538058
2	0x3e77dd60	0.24205542
3	0x3e934173	0.2876087
4	0x3e715f1c	0.23571438
5	0x3ff25b33	1.8934082
6	0x3f3b2483	0.7310259
7	0x3ec80b4e	0.39071125
8	0x3e57d860	0.21078634
9	0x3f3ad7f3	0.7298576
10	0x3e8cc913	0.27497157
11	0x3dc40fe1	0.09573341
12	0x3f08fc3d	0.53509885
13	0x3f27ad82	0.65499127
14	0x3e48eca9	0.19621529
15	0x3eba8cd1	0.3643556
16	0x3e578e3f	0.21050356
17	0x3e8571a5	0.26063266
18	0x3f33c3ac	0.70220447
19	0x3f3dd210	0.74148655
20	0x3df06f0b	0.1173993
21	0x3eadb960	0.33930492
22	0x3e16b2e3	0.14716677
23	0x3ea67f95	0.32519212
24	0x3fa923d6	1.3214061
25	0x3f05eb4a	0.5231215
26	0x3f3384a4	0.7012427
27	0x3f2684e9	0.65046555
28	0x3e173fd0	0.14770436
29	0x3e5bcd66	0.21465072
30	0x3e9c08ee	0.30475563
31	0x3eabca5d	0.33552828

encoder.6.weight f4 [64, 32, 3, 3]
0	0x3bf5b5fb	0.0074985004
1	0x3cc5b226	0.0241328
2	0xbcb7506c	-0.022377215
3	0x3c880937	0.016605956
4	0xbc2b10a9	-0.010440984
5	0xbc7289f0	-0.014803395
6	0xbce2f4a9	-0.027704554
7	0x3d8580c5	0.065187015
8	0xbcb57e7b	-0.022155037
9	0x3d3d9049	0.04628018
10	0x3d7291dc	0.059221134
11	0xbd00d8ec	-0.031456873
12	0xbc0b0f33	-0.0084875105
13	0xbb8a4bad	-0.004220447
14	0x3c19502e	0.009357495
15	0x3ca46f95	0.020072738
16	0xbd1ab917	-0.03777417
17	0xbc5424e0	-0.012948245
18	0xbd3c7c89	-0.046017203
19	0xbd608047	-0.054809835
20	0xbca2d523	-0.019877022
21	0xbd59a201	-0.053133015
22	0x3c5201ae	0.012817783
23	0x3d21d0c2	0.039505728
24	0xbdc2ca5f	-0.095112555
25	0x3c2b7fd4	0.010467488
26	0xbc69efdb	-0.014278377
27	0xbd3a0906	-0.04541876
28	0xbcf96b3f	-0.030446647
29	0x3cec558d	0.028849388
30	0x3d52f3db	0.05150209
31	0x3a8579df	0.0010183415
32	0x3d20aa15	0.039224703
33	0xbcc5d37c	-0.024148695
34	0xbc73b278	-0.014874093
35	0xbccff37e	-0.02538466
36	0xbcaaf6cb	-0.020869633
37	0x3b4d6eb6	0.0031346506
38	0x3cc74001	0.024322512
39	0x3d7ab4f4	0.061207727
40	0xbb64ea99	-0.003492987
41	0x3d8b1927	0.06791907
42	0xbc6aaeac	-0.014323872
43	0xbdd07ece	-0.10180436
44	0xbd190d65	-0.03736629
45	0x3cc95049	0.024574416
46	0x3c65712c	0.014004033
47	0x3d7eb1a2	0.062181123
48	0xbd4666ea	-0.04843799
49	0x3cf0f19f	0.029412089
50	0x3ce462d1	0.02787915
51	0x3bb1847b	0.005417404
52	0xbd5faf05	-0.05461027
53	0xbd31f818	-0.04344949
54	0x3d6ebc80	0.058285236
55	0xbc8c757c	-0.017145865
56	0xbcbcc232	-0.023041818
57	0x3ce87556	0.028376263
58	0x3c8d2678	0.017230257
59	0x3d4d9d6d	0.05019896
60	0x3d40e751	0.0470956
61	0x3d8ffdf2	0.07030858
62	0xbc194a4f	-0.009356095
63	0xbc616281	-0.013756395
64	0xbc0890d4	-0.008335311
65	0xbcf266b9	-0.029589998
66	0x3cef95e0	0.02924627
67	0x3d1f6b37	0.038920607
68	0xbcbddd20	-0.02317673
69	0xbcec96bb	-0.028880468
70	0xbd222b62	-0.039592154
71	0xbcb6a14c	-0.02229371
72	0xbca07868	-0.019588664
73	0xbcd409fd	-0.025883669
74	0xbd2813e2	-0.041034587
75	0xbd2eb4fd	-0.042653073
76	0x3d51122e	0.051042728
77	0x3cc3a74c	0.023883484
78	0x3ccad3bb	0.024759164
79	0xbc86dd19	-0.01646285
80	0xbba0e4c1	-0.004910082
81	0xbc63e6df	-0.013910024
82	0xb9d4c4b7	-0.00040582355
83	0x3d19382e	0.037407093
84	0xbd5c9792	-0.053855486
85	0x3c877d6b	0.016539296
86	0x3cf3985e	0.02973574
87	0xbd84381a	-0.06456013
88	0xbd470e0f	-0.04859739
89	0xb928d2a4	-0.00016100198
90	0xbd506b6c	-0.050883695
91	0x3d4c3bf7	0.049861874
92	0x3bee0c7d	0.0072646723
93	0x3cc6d158	0.024269745
94	0x3d0f0405	0.034915943
95	0x3b419ace	0.0029541734
96	0x3ca5d0ac	0.020241104
97	0x3d238d12	0.039929457
98	0x3d13b76d	0.0360636
99	0xbc828304	-0.015931614
100	0x3d8fce56	0.07021777
101	0xbb759923	-0.003747531
102	0x3d1c8b67	0.038218882
103	0xbc7819d7	-0.015142879
104	0xbbb25f92	-0.005443522
105	0xbda3a68d	-0.079907514
106	0x3d37994a	0.044823922
107	0x3c573b3d	0.013136682
108	0xbc0518de	-0.008123605
109	0xbc538d80	-0.012912154
110	0xbd29a584	-0.041417614
111	0xbc5a8903	-0.01333833
112	0x3d8c842f	0.068611495
113	0x3d2b8759	0.041877124
114	0xbd5469ce	-0.051858716
115	0x3d15f06a	0.03660623
116	0x3d5757de	0.05257403
117	0x3d89f8aa	0.06736882
118	0xbd8b550e	-0.06803332
119	0xbbd7c98c	-0.0065853056
120	0xbb0b162a	-0.0021222928
121	0xbd8ae84c	-0.06782588
122	0xbd39323d	-0.045213927
123	0xbc7d3843	-0.015455308
124	0xbba7e8b6	-0.005124177
125	0xbc8e87f2	-0.017398808
126	0x3c164206	0.009171015
127	0xbd8a878f	-0.06764137
128	0xbc15b0c9	-0.009136387
129	0xbd67e1b3	-0.056611728
130	0x3cb45be4	0.022016473
131	0xbcb64ca6	-0.022253346
132	0xbd8e2c45	-0.069420375
133	0x3d20905f	0.039200183
134	0x3db3c81a	0.08778401
135	0x3ce802a6	0.028321575
136	0xbd842ace	-0.06453477
137	0xbd73dd3f	-0.05953717
138	0x3cb16143	0.021652823
139	0xbdbeac13	-0.09310164
140	0xbd0eddd0	-0.034879506
141	0x3c6a4ae7	0.014300085
142	0x3c7c979d	0.015417007
143	0x3c51ab13	0.012797135
144	0x3d6e4395	0.05816992
145	0xbb74e3f4	-0.0037367316
146	0x3b0a6f63	0.002112352
147	0x3cf7d6a4	0.030253716
148	0x38652071	5.4628068e-05
149	0xbcb6fed4	-0.022338308
150	0x3c96eb79	0.018422829
151	0xb94cac81	-0.00019519219
152	0xbd5b3ad0	-0.053522885
153	0xbd00ee53	-0.031477284
154	0xbd27966a	-0.04091493
155	0x3c26dee3	0.010184976
156	0x3cd47131	0.02593288
157	0x3cb5b463	0.022180742
158	0xbd8ecf3a	-0.06973119
159	0x3d181842	0.03713251
160	0x3cb5e57e	0.022204157
161	0xbc39298a	-0.011301408
162	0x3cde6c5d	0.027151281
163	0xbd4902e2	-0.049075015
164	0x3c895d6b	0.016768178
165	0xbd090997	-0.03345641
166	0x3c39c97d	0.011339542
167	0xbd445e08	-0.047941238
168	0x3bb9daeb	0.005671849
169	0x3b4d07d5	0.0031285186
170	0xbd2ed7b5	-0.042686183
171	0x3d312f7c	0.043258175
172	0x3cc246e2	0.02371544
173	0x3d1e6bb9	0.03867695
174	0xbcad1c73	-0.02113173
175	0x3d182a36	0.03714963
176	0x3d0f90fd	0.03505038
177	0xbd01f6c5	-0.03172948
178	0x3d4be42c	0.04977815
179	0xbd4b8c23	-0.04969419
180	0xbc1804c7	-0.009278483
181	0xbc4b0399	-0.0123909945
182	0xbc9b6518	-0.018969104
183	0x3b1fc0c7	0.002437638
184	0x3d9ee516	0.077585384
185	0x3cd2c377	0.02572797
186	0xbd102b7b	-0.035197716
187	0x3d4c3f3c	0.049864992
188	0x3c5419af	0.012945577
189	0x3cda8944	0.026676781
190	0x3c728903	0.014803174
191	0x3d10271a	0.03519354
192	0xbc5fb82e	-0.013654752
193	0xbcd6b7a4	-0.026210614
194	0xbc787512	-0.0151646305
195	0x39da3485	0.0004161933
196	0xbd182000	-0.037139893
197	0x3d209237	0.03920194
198	0xbd6cf665	-0.057852168
199	0xbcc5ac1f	-0.024129925
200	0xbd691e9a	-0.05691395
201	0xbaa57308	-0.0012622783
202	0x3ce174fb	0.027521601
203	0x3cbee4b9	0.023302423
204	0xbb790b1c	-0.0038001006
205	0xbae13512	-0.0017181954
206	0xbcfd099b	-0.03088837
207	0x3d94c382	0.07263853
208	0x3cf83dae	0.030302849
209	0x3d4c8e61	0.04994047
210	0xbc0d39e5	-0.00861976
211	0xbd000a31	-0.03125972
212	0x3d20cb59	0.039256427
213	0x3b8eb5eb	0.0043551824
214	0xbd6c79f1	-0.05773348
215	0x3c689473	0.014195549
216	0xbc7ce0e3	-0.015434477
217	0xbcdab0aa	-0.026695568
218	0xbb9ecc9c	-0.0048461687
219	0xbce9f0cc	-0.028557204
220	0x3ba3f05e	0.0050030192
221	0x3da2d82a	0.07951386
222	0xbd2be323	-0.04196466
223	0xbd1615b5	-0.036641795
224	0x3ccf37bd	0.025295133
225	0xbcc0d3eb	-0.02353855
226	0x3d3504f5	0.04419418
227	0xbc0167de	-0.007898299
228	0xbcbac2d1	-0.022797974
229	0x3c427dd1	0.011870817
230	0x3c669a73	0.0140749095
231	0xbcfa3253	-0.030541575
232	0xbcdaffb2	-0.026733253
233	0xbc6221a8	-0.01380197
234	0x3b995efa	0.0046805115
235	0xbc19238c	-0.009346854
236	0xbd36d06d	-0.044632364
237	0x3cd5da3e	0.026105043
238	0x3d92b650	0.071636796
239	0xbc2e7085	-0.010646944
240	0x3d1b6a9a	0.03794346
241	0x3c94cae1	0.018163146
242	0xbd4f4088	-0.05059865
243	0x3c192b28	0.009348668
244	0xbd6f4091	-0.058411185
245	0x3cda926a	0.026681144
246	0xbb338946	-0.0027395054
247	0xbd00e3a8	-0.03146711
248	0x3c1adba1	0.009451778
249	0x3cec0054	0.02880875
250	0xbcbc6a09	-0.02299978
251	0xbc6ccdd6	-0.014453372
252	0x3cf2a9e5	0.029622028
253	0xbc33f42f	-0.010983511
254	0xbd2db1f9	-0.042406056
255	0xbcdd318a	-0.027001161

encoder.6.bias f4 [64]
0	0x3d4ef5e4	0.05052747
1	0x3d34706d	0.04405253
2	0x3d6bcf3e	0.05757069
3	0x3cacc3e9	0.021089511
4	0x3d4fd6a8	0.05074182
5	0x3d205308	0.039141685
6	0xbc58954b	-0.013219188
7	0x3d275a9e	0.040857904
8	0x3d016e0f	0.0315991
9	0xbbe76a24	-0.0070622135
10	0xbd2f713f	-0.04283261
11	0xbcf54c04	-0.029943474
12	0x3d661070	0.05616802
13	0x3c4e694d	0.012598348
14	0x3c57eec3	0.013179484
15	0xbcb6c514	-0.022310771
16	0xbd5a0bb3	-0.053233813
17	0x3b2a2ffe	0.0025968547
18	0x3d1ef5d3	0.038808655
19	0xbd5403df	-0.051761504
20	0x3d65fa51	0.056146923
21	0x3d500762	0.05078829
22	0x3c09cabf	0.008410155
23	0x3cc523ef	0.024064986
24	0xbc9f08cc	-0.019413374
25	0xbccec10e	-0.02523854
26	0xbbb03972	-0.0053779418
27	0xbb381779	-0.0028090163
28	0xb91867f9	-0.00014534582
29	0x3c667b54	0.01406749
30	0xbcd56dda	-0.026053358
31	0x3c59e519	0.01329925
32	0x3d07632e	0.03305357
33	0x3d6ca746	0.057776712
34	0xbcd35916	-0.025799315
35	0xbd14c77b	-0.036323052
36	0xbd3202c1	-0.043459658
37	0xbc434e6b	-0.011920552
38	0x3d2d068b	0.042242568
39	0xbd3b6a69	-0.045755778
40	0xbd446058	-0.047943443
41	0xbbe9628a	-0.0071223425
42	0xbd70ce18	-0.058790296
43	0xbcbcc028	-0.023040846
44	0xbd6da57c	-0.058019146
45	0xbd3240a4	-0.043518677
46	0xbd28af1f	-0.041182633
47	0xbd09df77	-0.03366038
48	0x3b869969	0.0041076434
49	0x3c33091d	0.010927466
50	0x3d15ce9e	0.036574
51	0x390ff2d2	0.00013728
52	0xbd226c12	-0.039653845
53	0x3d43d072	0.04780621
54	0xbcad64b0	-0.021166176
55	0x3d6d0dca	0.05787448
56	0xbd234a4f	-0.039865788
57	0xbcb46309	-0.02201988
58	0xbcb95d7c	-0.022627585
59	0xbbf04dc6	-0.00733349
60	0x3cdf6252	0.027268562
61	0x3af58054	0.0018730261
62	0x3cb945ea	0.022616345
63	0x3d030c0d	0.031993914

encoder.7.weight f4 [64]
0	0x3f7c6f55	0.9860738
1	0x3f817cdc	1.0116229
2	0x3f7b7432	0.98224175
3	0x3f8208dd	1.0158955
4	0x3f7d4268	0.9892945
5	0x3f7fca22	0.99917805
6	0x3f804f25	1.0024153
7	0x3f8121b6	1.0088413
8	0x3f7eb8c6	0.9950069
9	0x3f7d37a8	0.9891305
10	0x3f7bb969	0.9832979
11	0x3f80d2e7	1.0064362
12	0x3f7d7320	0.9900379
13	0x3f80fd05	1.0077215
14	0x3f8336f7	1.0251149
15	0x3f7ee6d6	0.9957098
16	0x3f7b9106	0.98268163
17	0x3f811c05	1.0086676
18	0x3f80cc59	1.0062362
19	0x3f8401a8	1.0313005
20	0x3f82f0bf	1.022972
21	0x3f813560	1.0094414
22	0x3f833f2b	1.0253652
23	0x3f7e563d	0.9935034
24	0x3f7ff283	0.9997942
25	0x3f7f3247	0.9968609
26	0x3f80d57c	1.006515
27	0x3f7f2b51	0.9967547
28	0x3f7f7546	0.9978832
29	0x3f8335b1	1.025076
30	0x3f7d0206	0.9883121
31	0x3f7f6638	0.9976535
32	0x3f8055b0	1.002615
33	0x3f8213b7	1.0162266
34	0x3f7c7fa4	0.98632264
35	0x3f826ebc	1.0190043
36	0x3f7bcc2b	0.9835841
37	0x3f81d3fb	1.0142816
38	0x3f779ee9	0.9672685
39	0x3f7b3074	0.9812081
40	0x3f7c9d2f	0.98677343
41	0x3f83b281	1.028885
42	0x3f7efcf1	0.9960471
43	0x3f75dcac	0.96039844
44	0x3f8064c3	1.003075
45	0x3f8532c7	1.0406121
46	0x3f7b3c38	0.9813876
47	0x3f81da1d	1.0144688
48	0x3f7ea872	0.9947578
49	0x3f7b5ccd	0.9818848
50	0x3f7f28ef	0.99671835
51	0x3f7dfcdf	0.99213976
52	0x3f80ebb3	1.007193
53	0x3f7c57d2	0.98571503
54	0x3f7c63aa	0.98589575
55	0x3f7c3da7	0.98531574
56	0x3f7e7307	0.9939427
57	0x3f79134a	0.9729506
58	0x3f81ba69	1.0135013
59	0x3f7cd02c	0.98755145
60	0x3f7ba6d0	0.9830141
61	0x3f84dc4b	1.0379728
62	0x3f80b891	1.0056325
63	0x3f76f541	0.9646798

encoder.7.bias f4 [64]
0	0xbce99681	-0.028514149
1	0x3d269ae5	0.040675063
2	0x3cda4c1f	0.026647625
3	0x3dbed88e	0.09318648
4	0x3d37aacf	0.04484063
5	0x3d2c32f7	0.04204079
6	0x3d02142e	0.031757526
7	0x3dd50c78	0.10402769
8	0x3cb44e80	0.022010088
9	0x3d3078ec	0.04308407
10	0x3d84221f	0.064518206
11	0x3cb14a99	0.021642016
12	0x3b364092	0.0027809483
13	0x3d5878aa	0.05284945
14	0x3e05be99	0.13060988
15	0x3d44fa90	0.048090518
16	0x3d004055	0.03131135
17	0x3cb0fab1	0.021603914
18	0x3d853e3a	0.065060094
19	0x3d9a5997	0.07536619
20	0x3dccb9a8	0.099963486
21	0x3cbd30d6	0.023094576
22	0x3d5dffe0	0.0541991
23	0xba9b3d63	-0.0011843856
24	0x3d1f58e6	0.03890314
25	0xbacefa48	-0.0015791142
26	0x3a9414bb	0.0011297682
27	0x3d396c2e	0.045269184
28	0x3d2cad90	0.04215771
29	0x3d81ba57	0.0633437
30	0xbb505102	-0.0031786566
31	0x3e0da7bb	0.13833515
32	0x3c70af77	0.014690272
33	0x3d889593	0.06669154
34	0x3d945d2f	0.07244336
35	0x3c831369	0.016000466
36	0x3d729ddf	0.05923259
37	0x3d54d8ef	0.051964696
38	0xbd201bf5	-0.039089162
39	0x3d63bc04	0.055599228
40	0x3da6aa10	0.081379056
41	0x3e081bbf	0.13291834
42	0x3d60d8f5	0.054894406
43	0x3ca41fd1	0.020034702
44	0x3cfd66e3	0.03093285
45	0x3da5dce0	0.08098769
46	0x3bf801ff	0.0075685973
47	0x3d73e2d6	0.0595425
48	0x3cd67cb9	0.02618252
49	0xbcb5ea18	-0.022206351
50	0x3d5cc718	0.053900808
51	0x3cda7ea3	0.026671713
52	0x3db762f5	0.089544214
53	0x3b60fe08	0.0034331102
54	0x3b1f3d39	0.0024297966
55	0x3cd95c68	0.02653332
56	0x3c038cc5	0.008029168
57	0x3b9c1061	0.0047626947
58	0x3d38d3d9	0.04512391
59	0x3cd25bd3	0.02567855
60	0x3cb35137	0.021889312
61	0x3d92f2b3	0.071751975
62	0x3cfd0893	0.030887878
63	0x3d3a689b	0.045509916

encoder.7.running_mean f4 [64]
0	0xbd038184	-0.032105938
1	0x3ba67b3b	0.005080608
2	0x3e04a9b8	0.12955368
3	0x3dba7ab9	0.09105439
4	0x3ef3a8fa	0.47589856
5	0x3ea0406b	0.31299147
6	0x3e3b8f39	0.18316354
7	0x3cf2f1bf	0.02965629
8	0x3dcad465	0.09903792
9	0x3d8d0f56	0.06887691
10	0xbe8b6df3	-0.27232322
11	0x3ea40ea7	0.3204243
12	0x3e8d7f1f	0.27636048
13	0xbec19c00	-0.3781433
14	0x3e1218b5	0.14267237
15	0xbdfd4d5c	-0.12368271
16	0xbe96214b	-0.29322276
17	0x3e3c29aa	0.18375269
18	0xbe745eba	-0.2386426
19	0xbd79bfb4	-0.060973838
20	0x3e8dc036	0.27685708
21	0x3e8b4fc2	0.27209288
22	0xbe3d484b	-0.18484609
23	0x3ecdf0f4	0.40222895
24	0x3e3efd74	0.18651372
25	0x3ec1fab8	0.37886596
26	0x3f5ab405	0.8543094
27	0x3f3c5d01	0.7357941
28	0xbd0cdcb4	-0.034390166
29	0x3e800d18	0.2500999
30	0xbe463ec9	-0.19359888
31	0x3d4219d4	0.047387913
32	0xbe912921	-0.2835169
33	0x3cde2841	0.027118804
34	0x3ee5aa00	0.44856262
35	0xbe81e2dd	-0.25368395
36	0xbe94ed3d	-0.29087248
37	0x3e3eec9a	0.18644944
38	0xbe59ba0b	-0.21262376
39	0xbe5f11f6	-0.21784195
40	0x3d1dbada	0.038508274
41	0xbd89a4da	-0.06720896
42	0xbe9c4d55	-0.3052775
43	0xbdc483bf	-0.09595441
44	0xbd57fcb2	-0.052731223
45	0x3dbcdb28	0.09221488
46	0x3ee98ddc	0.45616043
47	0xbe914b49	-0.2837775
48	0xbec4b562	-0.38419634
49	0xbe09aec6	-0.13445577
50	0x3eba4ba0	0.36385822
51	0xbe69baaa	-0.22825113
52	0x3ef86759	0.48516348
53	0x3e4a8875	0.19778617
54	0xbe2dbdf4	-0.16966993
55	0x3db71c63	0.08940961
56	0xbe446f9f	-0.19183205
57	0xbe826afd	-0.2547225
58	0x3e902e46	0.28160304
59	0x3e46ae1f	0.1940236
60	0x3edf73ea	0.43643123
61	0xbcea644e	-0.028612282
62	0xbf04341d	-0.5164202
63	0x3e428f1f	0.18999909

encoder.7.running_var f4 [64]
0	0x3e87b1a7	0.26502725
1	0x3e9fe11f	0.3122644
2	0x3e6b2c5c	0.2296614
3	0x3e8029c3	0.25031862
4	0x3e9da7db	0.30792126
5	0x3ebba104	0.36646283
6	0x3ef945f5	0.48686185
7	0x3ed11016	0.40832585
8	0x3ea0c529	0.3140042
9	0x3e51273f	0.20425127
10	0x3e609b18	0.21934164
11	0x3edd10be	0.43176836
12	0x3f5f39bc	0.8719747
13	0x3f05b06f	0.5222234
14	0x3e612aa2	0.2198892
15	0x3e0238b7	0.12716947
16	0x3f04e8b8	0.519176
17	0x3f368c8b	0.713082
18	0x3ee7f95d	0.45307437
19	0x3ece09de	0.40241903
20	0x3e969483	0.2941018
21	0x3f488360	0.7832546
22	0x3f445c8e	0.7670373
23	0x3f6d0551	0.9258624
24	0x3ec117a6	0.37713355
25	0x3f98e5f2	1.1945174
26	0x3ebf57aa	0.3737157
27	0x3f10923f	0.56473154
28	0x3e84c477	0.2593114
29	0x3efd6d31	0.4949737
30	0x3f381d53	0.71919745
31	0x3eadc208	0.33937097
32	0x3f642282	0.89115155
33	0x3f45fb5e	0.7733668
34	0x3e89dcf9	0.269264
35	0x3f32fba2	0.6991521
36	0x3eca4a38	0.3950975
37	0x3f202c57	0.6256766
38	0x3edb26da	0.4280308
39	0x3f0b4ab7	0.5441088
40	0x3e82e394	0.25564253
41	0x3e8c4089	0.27392986
42	0x3f854def	1.0414408
43	0x3e717150	0.23578382
44	0x3f3df4e1	0.7420178
45	0x3f33f1f6	0.7029108
46	0x3e74477f	0.23855399
47	0x3eb1af4c	0.34704053
48	0x3e8ba37e	0.27273172
49	0x3eb1671b	0.34648976
50	0x3e46bd95	0.19408257
51	0x3f1d5df7	0.61471504
52	0x3eeb714f	0.45984885
53	0x3e1e17d5	0.15438779
54	0x3f1382a1	0.576212
55	0x3f0254c1	0.50910574
56	0x3f7fb856	0.9989065
57	0x3eb2768d	0.34856072
58	0x3ea385e9	0.31938103
59	0x3f3bf664	0.7342284
60	0x3ea0127e	0.31264108
61	0x3f3ca9d4	0.7369664
62	0x3ef66675	0.48125044
63	0x3e8d4df3	0.27598533

decoder.0.weight f4 [64, 32, 3, 3]
0	0xbd1b755e	-0.037953727
1	0xbc544789	-0.012956508
2	0xbd69c2d1	-0.057070557
3	0x3b050a29	0.0020300245
4	0x3bdd166c	0.0067470577
5	0x3ad9c216	0.0016613628
6	0x3d158660	0.036505103
7	0x3c00e4d4	0.007867057
8	0x3ca3105f	0.019905267
9	0x3cf7c6e4	0.030246206
10	0xbd877370	-0.06613815
11	0x3ba96ea0	0.005170658
12	0xbcb8f527	-0.022577835
13	0x3d3f5c3b	0.046718817
14	0x3d121efb	0.035674077
15	0x3d16af8e	0.036788516
16	0xbd5e5c3b	-0.054287177
17	0x3cb6a887	0.022297157
18	0x3c39bc6c	0.011336427
19	0xbcc6531f	-0.024209557
20	0xbd37f119	-0.044907663
21	0xbd026530	-0.03183478
22	0x3d20a42d	0.03921907
23	0xbd754580	-0.059880733
24	0xbd18c71d	-0.037299264
25	0x3c9518a6	0.01820023
26	0xbd617197	-0.05503997
27	0x3ced00cf	0.02893105
28	0xbd1bd541	-0.03804517
29	0x3cd28c03	0.025701528
30	0x3c3434c6	0.01099891
31	0x3d348132	0.044068523
32	0x3d121700	0.035666466
33	0xbd09cc9d	-0.0336424
34	0x3d96c3ab	0.073615395
35	0x3cec5829	0.028850632
36	0x3ca06019	0.019577073
37	0xbc87a797	-0.016559405
38	0xbc4a9361	-0.012364239
39	0x3c4986ff	0.012300252
40	0x3c0f5b6b	0.008749823
41	0xbcb1267b	-0.021624794
42	0xbb7dc612	-0.0038722795
43	0xbdce278b	-0.10066136
44	0xbc2ebb4c	-0.010664772
45	0x3cc295df	0.023753105
46	0xbd4ffe86	-0.05077984
47	0xbcdd95f4	-0.027049042
48	0x3ca51919	0.020153569
49	0xbbbee437	-0.005825545
50	0x3da9cf39	0.08291478
51	0x3d5fd67d	0.05464791
52	0x3d0cbffe	0.034362786
53	0xbcc595b7	-0.024119241
54	0xbcc40fb1	-0.023933263
55	0xbd6a3936	-0.057183467
56	0x3c9fb4f7	0.01949547
57	0xbd476868	-0.048683554
58	0x3baf94a2	0.0053582946
59	0xbd06a9ac	-0.032876655
60	0xbd662a67	-0.05619278
61	0xbd90b0dc	-0.07064983
62	0x3bcd4c32	0.0062651867
63	0x3d0b95b9	0.034078334
64	0x3d59bc21	0.05315793
65	0xbd24f9e2	-0.04027737
66	0xbd0e53dc	-0.034747943
67	0xbd00c799	-0.03144035
68	0x3c47967a	0.0121818725
69	0xbca2421e	-0.019806918
70	0xbbfb3b4a	-0.00766698
71	0x3d223ab9	0.039606784
72	0xbd51b059	-0.05119357
73	0x3c79cc7d	0.015246508
74	0xbc88c53c	-0.016695611
75	0xbb93db34	-0.004512215
76	0xbb396889	-0.0028291068
77	0x3d0a89d3	0.033822846
78	0x3c1be13a	0.009514147
79	0xba6b1870	-0.000896818
80	0x3d41a6a2	0.047278054
81	0x3d238e77	0.039930787
82	0x3d0c242f	0.034214195
83	0xbc0e06b4	-0.00866859
84	0xbd2deaee	-0.042460375
85	0x3d3485c2	0.044072874
86	0x3c0bd718	0.008535169
87	0xbd62562a	-0.055257954
88	0x3cda613f	0.026657699
89	0x3cb30846	0.021854531
90	0x3d481bb8	0.04885456
91	0x3cc1e665	0.023669431
92	0x3d3be7be	0.045875303
93	0x3c2c0cc6	0.010501092
94	0xbd17a228	-0.03701988
95	0x3c0a57c2	0.008443775
96	0xbd012b71	-0.03153557
97	0x3c18c568	0.009324409
98	0x3c6e9d8d	0.01456393
99	0x3c5e679b	0.013574506
100	0xbb92714c	-0.0044690724
101	0xbbc913af	-0.0061363797
102	0x3baf744a	0.005354439
103	0xbc9aa443	-0.018877154
104	0x3cf096f7	0.02936886
105	0xbce09548	-0.027414933
106	0xbc3453b2	-0.011006283
107	0x3c7938f1	0.01521133
108	0x3cd54ef4	0.026038624
109	0xbcb6c259	-0.022309469
110	0xbca9c42d	-0.020723427
111	0xbc980da5	-0.018561194
112	0xbd4f0fb1	-0.050552074
113	0xbd0bd25d	-0.034136165
114	0xbcc9255c	-0.024553947
115	0x3cffca92	0.031224523
116	0x3d795461	0.060871486
117	0x3d58a89b	0.05289517
118	0xbcb02deb	-0.02150627
119	0x3c9bce55	0.019019285
120	0xbcfb8e42	-0.030707482
121	0xbcf917f8	-0.030406937
122	0x3d866d54	0.065638214
123	0x3ca22cba	0.019796718
124	0x3ab96723	0.0014145117
125	0x3d457e8c	0.048216388
126	0xbd23d2bd	-0.039995898
127	0x3d727758	0.059195846
128	0xbc935199	-0.017983245
129	0xbda2535a	-0.07926054
130	0x3be04e84	0.0068452973
131	0xbce3c2f1	-0.027802916
132	0x3ce18ba3	0.027532404
133	0xbd07cebf	-0.033156153
134	0xbd842e3e	-0.064541325
135	0x3d16f551	0.036855046
136	0xbcf2fa15	-0.029660264
137	0xbd47bf7a	-0.04876659
138	0xbd6053c9	-0.054767404
139	0x3d816a31	0.063190825
140	0xbd509c9a	-0.050930597
141	0x3d64bd1f	0.055844422
142	0x3cfe6ede	0.031058725
143	0x3b393385	0.0028259468
144	0x3c54683e	0.012964306
145	0x3d09f1bb	0.033677798
146	0x3da9fb53	0.082998894
147	0xbba699b1	-0.0050842394
148	0x3c9e7a8a	0.01934554
149	0xbcf1a22e	-0.029496279
150	0xbcbf35fe	-0.023341175
151	0x3d9d9cd9	0.07695932
152	0x3d1bfef0	0.038084924
153	0xbd17ceef	-0.03706258
154	0x3c96840f	0.018373517
155	0xbd5a54d2	-0.053303547
156	0x3d3cbae8	0.046076685
157	0xbc9d41b9	-0.019196378
158	0x3c9115c5	0.017710576
159	0xbc1ce67d	-0.009576437
160	0x3d2413bd	0.040057886
161	0xbd0d1273	-0.034441423
162	0xbd4a574c	-0.04939966
163	0xbc1a824e	-0.009430481
164	0x3d18481e	0.03717815
165	0xbc1b1b27	-0.009466923
166	0x3d00ad28	0.031415135
167	0x3d43ddce	0.04781895
168	0x3c7d07f1	0.015443788
169	0xbbfc68fe	-0.0077029457
170	0xbd02fd4f	-0.031979855
171	0x3cca0023	0.024658268
172	0xbc130cd1	-0.008975224
173	0xbb30e2c3	-0.002699063
174	0x3c23c3dc	0.009995427
175	0xbcdc7613	-0.02691177
176	0x3cc2ed98	0.023794934
177	0x3c5a72f5	0.013333072
178	0x3d11fc29	0.03564087
179	0x3c9dce8e	0.019263532
180	0xbcb1193b	-0.021618476
181	0x3cbbfdc8	0.02294816
182	0x3c29d332	0.010365294
183	0xbd0f77f8	-0.03502652
184	0xbc1ad602	-0.0094504375
185	0xbd423a55	-0.04741891
186	0xbc4eef6c	-0.012630325
187	0x3ce975e7	0.028498603
188	0x39eb9723	0.00044935299
189	0x3ca03f34	0.019561388
190	0xbcf03573	-0.029322362
191	0x3cb2ae2c	0.021811567
192	0xbd723ab8	-0.05913803
193	0x3d9a83f3	0.075446986
194	0x3ce29b6d	0.027662003
195	0xbd4cd6b8	-0.05000946
196	0x3da1e3be	0.079047665
197	0xbd390364	-0.04516925
198	0xbcc46de4	-0.023978181
199	0xbcb6f042	-0.02233136
200	0xbc8231a3	-0.01589281
201	0xbc247f13	-0.0100400625
202	0xbb577c09	-0.0032880327
203	0xbd844657	-0.06458729
204	0x3d016d2e	0.031598262
205	0xbc41074e	-0.011781527
206	0xbd6d2bf4	-0.057903245
207	0xbd77e322	-0.060519345
208	0xbd634ee9	-0.055495176
209	0x3aa4572d	0.0012538187
210	0x3d150445	0.036381025
211	0x3db125b5	0.0864977
212	0x3d5ee612	0.05441863
213	0xbd266cdf	-0.04063117
214	0xbd0fcfef	-0.03511041
215	0x3c36d540	0.011159241
216	0xbc96dfea	-0.018417317
217	0xbc0b0ba2	-0.00848666
218	0x3ccba98e	0.024861123
219	0x3b20b373	0.0024521023
220	0x3d891382	0.06693174
221	0x3c7e6f55	0.015529473
222	0x3cf1018f	0.029419689
223	0x3cc49bba	0.024000037
224	0xbb525c05	-0.0032098305
225	0x3d61ba02	0.05510903
226	0xbd88eee8	-0.06686193
227	0x3cce3c9f	0.02517539
228	0xbd8a4e8a	-0.067532614
229	0x3c9fd569	0.019510942
230	0x3c7c7ced	0.015410644
231	0xbd47099a	-0.04859314
232	0xbc9d7af2	-0.019223664
233	0xbd1bb540	-0.03801465
234	0x3bf2f900	0.007414937
235	0x3c5a092e	0.013307853
236	0x3c046ed1	0.008083061
237	0x3b55d960	0.0032630786
238	0xbbe352cd	-0.006937361
239	0xbc0e08c1	-0.008669079
240	0x3c716421	0.014733345
241	0x3ca3e0a0	0.02000457
242	0x3d09cee8	0.033644587
243	0xbb9e2a27	-0.0048268023
244	0xbcbfd94a	-0.023419041
245	0xbc277b69	-0.010222294
246	0x3d3fb05b	0.046799045
247	0xbcb065e0	-0.021532953
248	0xbbe487ae	-0.006974182
249	0x3cb38055	0.02191178
250	0xbce89df7	-0.028395636
251	0xbd260385	-0.0405307
252	0x3d1cb9ae	0.038263015
253	0xbd530b9f	-0.051524755
254	0x3c39d4e9	0.011342266
255	0xbd784c8d	-0.06061988

decoder.0.bias f4 [32]
0	0xbd1ed914	-0.03878124
1	0x3cfad1e3	0.03061766
2	0xbcb8f023	-0.022575444
3	0x3d5a8b2e	0.05335539
4	0xb996c150	-0.00028754259
5	0x3ca05e98	0.019576356
6	0xbd4bdbb9	-0.04977009
7	0x3d0710a3	0.03297485
8	0x3ca66af9	0.02031468
9	0x3ac48782	0.0014993998
10	0x3d3dca65	0.046335597
11	0xbd25d48c	-0.040485904
12	0x3d0426c5	0.032263536
13	0xbd0fa5b8	-0.03507015
14	0xbd090418	-0.03345117
15	0x3d271ea3	0.0408007
16	0x3d3d7cde	0.04626166
17	0xbc3a4eb6	-0.011371305
18	0xbd0bc4a2	-0.03412307
19	0x3d0d50fc	0.03450106
20	0xbb2e10f6	-0.0026560402
21	0xbd63eb88	-0.055644542
22	0x3d117896	0.03551539
23	0x3ab886c8	0.0014078254
24	0x3d164f82	0.03669692
25	0x3d614540	0.054997683
26	0x3cfa2098	0.03053312
27	0x3c21652e	0.009850783
28	0x3bbdc26a	0.005790998
29	0x3cb177b3	0.021663522
30	0x3d6ba5a5	0.057531018
31	0xbce50695	-0.02795724

decoder.1.weight f4 [32]
0	0x3f7f07e0	0.9962139
1	0x3f703d63	0.9384367
2	0x3f80ed31	1.0072385
3	0x3f735b38	0.95061064
4	0x3f83efe6	1.0307586
5	0x3f7db996	0.99111307
6	0x3f765b8d	0.96233445
7	0x3f7a5dde	0.9779948
8	0x3f77566c	0.96616244
9	0x3f886156	1.0654705
10	0x3f7addf6	0.97994936
11	0x3f83b0a0	1.0288277
12	0x3f86f10b	1.054231
13	0x3f79879f	0.97472566
14	0x3f827760	1.019268
15	0x3f792529	0.97322327
16	0x3f718753	0.94347113
17	0x3f80de90	1.0067921
18	0x3f8447db	1.0334429
19	0x3f7c8bdc	0.9865091
20	0x3f81d322	1.0142558
21	0x3f7790a8	0.967051
22	0x3f796b4e	0.9742936
23	0x3f7dc92c	0.9913509
24	0x3f7a1f07	0.97703594
25	0x3f7d695c	0.9898889
26	0x3f809e52	1.0048316
27	0x3f771d3f	0.96529
28	0x3f7a81c2	0.97854245
29	0x3f8181ff	1.0117797
30	0x3f84f6d2	1.0387824
31	0x3f7ad5d9	0.97982556

decoder.1.bias f4 [32]
0	0x3c82d93a	0.015972722
1	0xbc8077b1	-0.015682073
2	0xbb1b8480	-0.00237301
3	0xbcbce9c7	-0.023060692
4	0x3d2dc612	0.042425223
5	0x3b4cfd71	0.0031278993
6	0xbcdb4c6d	-0.026769841
7	0xbbdf361d	-0.0068118707
8	0xbc599f4b	-0.013282607
9	0x3d9d33bf	0.076758854
10	0x3a30fdf1	0.00067517074
11	0x3d19469f	0.037420865
12	0x3d90b2da	0.07065363
13	0xbc3a0993	-0.011354822
14	0x3d45578a	0.048179187
15	0xbc4d445a	-0.012528503
16	0xbd858317	-0.06519144
17	0x3cf818a8	0.030285195
18	0x3d4bd871	0.04976696
19	0x3d4d0ba6	0.050059937
20	0x3c85e28d	0.01634338
21	0xbc80cca5	-0.015722582
22	0xbc382dcb	-0.011241387
23	0xbc0f029c	-0.0087286495
24	0xb94dc669	-0.00019624237
25	0x3cac2f9e	0.0210188
26	0x3c62da58	0.0138460025
27	0xbd260878	-0.04053542
28	0xbc792f90	-0.015209094
29	0x3d17f4bd	0.037098635
30	0x3d6c76d7	0.057730522
31	0x3b1841d3	0.0023232594

decoder.1.running_mean f4 [32]
0	0xbe419f88	-0.18908513
1	0xbeb48a82	-0.35261923
2	0xbd96b671	-0.07359017
3	0xbd125f81	-0.03573561
4	0x3db50613	0.08839049
5	0x3dd4821d	0.1037638
6	0x3d6ab02e	0.057296924
7	0xbec56428	-0.38552976
8	0xbeaf8fe1	-0.34289458
9	0xbdd9b2b6	-0.106297895
10	0x3d6f665a	0.05844722
11	0xbe121111	-0.14264323
12	0x3d9b7c61	0.07592083
13	0xbe4837c7	-0.19552527
14	0xbcd578bb	-0.026058545
15	0xbe25fa17	-0.16208683
16	0xbd2db7ff	-0.0424118
17	0x3ce7b350	0.028283745
18	0xbdb44cbc	-0.088036984
19	0xbddd20c0	-0.10797262
20	0xbda32f45	-0.07968
21	0x3e35b1bd	0.17743583
22	0xbe4785c7	-0.19484626
23	0x3e11ff87	0.14257632
24	0xbd8cbc8a	-0.068718985
25	0xbe045892	-0.12924412
26	0xbd4af785	-0.04955246
27	0xbd07397d	-0.03301381
28	0xbe45361d	-0.19258924
29	0xbdef5b5b	-0.116873465
30	0xbd756261	-0.059908275
31	0xbe7d4ffe	-0.24737546

decoder.1.running_var f4 [32]
0	0x3ed255b6	0.41081017
1	0x3f555fab	0.833491
2	0x3ec6f670	0.38859892
3	0x3f2c8d6c	0.6740329
4	0x3e341e64	0.17589718
5	0x3e7cab8e	0.24674818
6	0x3ea33893	0.318791
7	0x3f819d33	1.0126098
8	0x3f99d53c	1.2018199
9	0x3e5da31b	0.21644251
10	0x3e54fead	0.20800276
11	0x3ea9f780	0.3319664
12	0x3e159da7	0.14610921
13	0x3edddbc8	0.43331742
14	0x3e60b316	0.21943316
15	0x3ee92267	0.4553406
16	0x3f3bd756	0.7337545
17	0x3e36545f	0.17805623
18	0x3e6f8836	0.23391804
19	0x3e6adc37	0.22935568
20	0x3ec2bc9b	0.3803452
21	0x3e2a7de6	0.16649589
22	0x3e846cf5	0.25864378
23	0x3e6d4da3	0.23174147
24	0x3e966a71	0.29378083
25	0x3ed6c337	0.41945812
26	0x3e9c47d5	0.30523553
27	0x3f05c5b8	0.5225482
28	0x3e99a8a9	0.3001149
29	0x3e479393	0.19489889
30	0x3e05c1d4	0.13062221
31	0x3f03e754	0.51524854
