models/ae_conv.pth (torch, 202996 bytes, 32 tensors)

encoder.0.weight f4 [16, 3, 3, 3]
00000000: 7113 8a3d 0bec 9c3d 3033 6b3c 6b97 0a3e
00000010: 86be a7bc 004c 553e f9a3 8dbd 70cd df3d
00000020: f3cb 683e 6434 62be 1d5e ac3d 8580 c33d
00000030: 1d51 ce3d 2c99 433d ea46 863e fad1 2cbb
00000040: 7115 143e e466 b03d 05a1 2dbe 2e80 0bbd
00000050: c46e efbc f118 83bd 8c52 67bd 4e21 983e
00000060: 936f 02be 8d5e bdbd 4134 5b3b 34b6 aebd
00000070: deda 25bd e0e6 35be 0aa0 113e cda0 5dbe
00000080: 8dbe 153e 6fd1 6d3d bb8b 6b3a 96da 803e
00000090: d565 773d 5f52 c63d 2421 093d a1ff bcbd
000000a0: d632 a3ba 835b 5fbd 6831 db3d 37db 703e
000000b0: c7d8 793e 4711 5cbd dbc9 563d 9dff 3f3d
000000c0: 7975 873d ba56 2ebe 7b7a 45be b4ec 45bd
000000d0: 817e acbd d3d0 943e cd20 553d cc9d b03d
000000e0: 4391 1e3d 0669 d73c d9b4 103e af8a 4ebe
000000f0: b600 c53b c404 2cbe c447 8d3d a9b1 8ebd
00000100: 1f21 863d cbf6 7ebd 42cd 413e 19a6 fcbd
00000110: 9a0d 38be c994 f7bd b3bd 0b3e 1418 973d
00000120: 5f26 3a3e 02f5 1bbe b326 5abe 6da6 f7bd
00000130: 6016 0ebe b8c9 543c 8fa0 803d fb79 fc3d
00000140: 99cb b7bd 0446 d23b 3917 b83d 8444 dabc
00000150: 2381 973d a93b 3ebe a919 1b3e 0bb8 d3bd
00000160: 65c0 b8bd 1754 e23d c093 363e da09 7bbd
00000170: e7d6 293e 373b b43d 5430 8fbe 3c5d 7bbd
00000180: 78b4 633e 8fb0 6dbd e140 86bc ed11 47bd
00000190: 96bd fabd ec33 cb3d 13bb 8bbd 4d42 8fbe
000001a0: 43f6 3b3d e7b6 aebd 121e 20be 60be 5dbd
000001b0: dd4f 68be 999a aebd 6838 023e 6d7b 613d
000001c0: c823 243c e702 07be 0ead 4dbe edd3 fbbd
000001d0: 8e08 ed3d 6f3d 69be 10ee 3abd 1cc0 38be
000001e0: f58f 9d3c 8099 f7bd 0a8b 0c3d 37c9 51be
000001f0: ee95 43be d627 dabc ee94 febd 15ba eabd
00000200: e2ed c43d f3b1 9fbc d22c ee3d b563 dc3d
00000210: a21f 73be d61e 983d e8e9 053d b76b 92bd
00000220: 0d26 22be 8491 3ebe 892a bf3c 8130 093d
00000230: 72c1 b73d 4eee 0fbe 3881 393e 01e0 07be
00000240: 4b94 fdbc 8160 2a3d 7a2c d63d 4237 fd3d
00000250: 146f 803e 0f1b 0dbe 9cc8 863d 3847 36bd
00000260: 48fd 4cbc 4f2c 11be 32ef 343e 004a 0bbe
00000270: fbab 913d 969a 123e d862 9e3d 487f b1bd
00000280: 3752 5a3e 015c 503d fc73 033d c5e7 16be
00000290: eacf 863d 785c 2ebc 3a06 5cbd 9609 293e
000002a0: eb3e 6dbb 52ff 24be e100 30be 570e f3ba
000002b0: 5acc 043e 9a5b 83bd 2d8d bbbd c9d5 00bd
000002c0: 9d75 13be 931a b53c a626 c13d d2e4 82be
000002d0: 7120 553d 4b22 f93d 174e a33c 910e 4ebd
000002e0: 6a22 0a3e d3a7 ce3d a95e d03c a52f b5bd
000002f0: 8471 00be b75a f2bb 34b3 f9bc f650 65bd
00000300: 7569 d33d 71fc 293e 4d2a babc 1f5b 4fbd
00000310: 8f96 f2ba 047e 35bd 93c5 953c a14d 6b3d
00000320: 6897 31be b2f9 b9bd 2d95 263e 0a04 923d
00000330: df23 8cbc 772b f7bd 922c 1abe 2c2f 4dbe
00000340: f48b 72bd bce5 873d 82c9 d23d 1d39 b73d
00000350: 97f5 31be a373 fcbd 8c7c 0fbd 3a07 1d3e
00000360: e82e 163d d5fe 8abd 1a6c c23d 62b3 4abd
00000370: 4f29 22be 4d56 3e3e 633b bcbd f45d f3bd
00000380: 9abe 13be 44ee 0c3e ead7 023e 1801 af3d
00000390: 940d e2bd 431a 65be d01c e3bd 2772 0e3e
000003a0: d6fa 463c 8322 563e d38d e03d aa4f fb3c
000003b0: 3104 5c3c 95f9 fabd 5873 4bbe 41d4 09be
000003c0: 0954 983d b8ee 32be d53b 0a3c dea2 a9bd
000003d0: 8a84 12be 7369 02be 7a32 e5bd 315e 12be
000003e0: e698 0abe 842c fe3d ccc1 0bbd 8e20 90bd
000003f0: 4795 c5bb b722 4ebe 6bff 4fbd 8470 2dbe
0.067419894 0.07662209 0.014355466 0.13534324 -0.02047659 0.20829773 -0.06916041 0.10927856
0.2273405 -0.22090298 0.08416388 0.095459975 0.10074065 0.047753498 0.26225978 -0.0026370273
0.14461304 0.08613375 -0.16955955 -0.03405779 -0.029227622 -0.064012416 -0.056475207 0.2971291
-0.12737875 -0.0924655 0.0033447894 -0.08530846 -0.04049193 -0.17763853 0.14221206 -0.21643372
0.1462347 0.05806106 0.000898536 0.25166768 0.06039985 0.0968368 0.03347887 -0.09228445
-0.0012451063 -0.05453063 0.10702783 0.23521124 0.243991 -0.053727414 0.052438598 0.04687463
0.06614203 -0.17025271 -0.19285004 -0.04832144 -0.08422566 0.2906557 0.052033234 0.08623847
0.03871275 0.026295196 0.14131488 -0.20170091 0.0060120476 -0.16798693 0.06898454 -0.0696748
0.06549286 -0.06224708 0.18925956 -0.12336368 -0.17973939 -0.120889254 0.13646583 0.073776394
0.181787 -0.15230182 -0.21303825 -0.1209229 -0.13875723 0.012987547 0.06280624 0.123279534
-0.0897438 0.006417038 0.08988804 -0.026643999 0.07397678 -0.18577446 0.15146507 -0.10337838
-0.09021071 0.11051195 0.178298 -0.061288692 0.16585885 0.08800357 -0.2796656 -0.061368212
0.22236812 -0.058029708 -0.016388359 -0.04860108 -0.12243192 0.09922013 -0.06822791 -0.2798027
0.04588915 -0.085309796 -0.15636471 -0.054136634 -0.22686715 -0.08525581 0.1271683 0.05504935
0.010018297 -0.13184701 -0.20085546 -0.12296281 0.11573897 -0.22777341 -0.04563719 -0.18042034
0.019233683 -0.12089825 0.034312285 -0.20486914 -0.19100162 -0.026630323 -0.1243075 -0.114612736
0.09615685 -0.019494032 0.116296425 0.10761205 -0.23742536 0.074277565 0.032693774 -0.07149451
-0.15834828 -0.18610197 0.023335712 0.033493523 0.08972444 -0.1405575 0.181157 -0.13269044
-0.0309545 0.04159594 0.10457702 0.12364055 0.25084746 -0.13779853 0.06581232 -0.044501513
-0.012511559 -0.14177059 0.17669371 -0.13602448 0.07112881 0.14316782 0.07733697 -0.08666855
0.21320425 0.05086899 0.032093033 -0.1473685 0.06582625 -0.010642163 -0.053716876 0.16507563
-0.0036200832 -0.16113022 -0.17187835 -0.0018543702 0.12968579 -0.06413956 -0.091577865 -0.03145388
-0.14400335 0.022107398 0.094312 -0.255652 0.05203289 0.12164744 0.019934697 -0.05030686
0.1348969 0.10090604 0.025435762 -0.08846978 -0.12543303 -0.007396068 -0.030480959 -0.055985413
0.10322849 0.16600205 -0.022725249 -0.05062401 -0.0018508005 -0.04430963 0.018282687 0.05744708
-0.17342913 -0.09080829 0.16267844 0.07129677 -0.017106948 -0.12068837 -0.15056065 -0.20037526
-0.0592155 0.06635615 0.10292341 0.0894644 -0.17378841 -0.123267435 -0.035030887 0.15334788
0.036665827 -0.067868866 0.09493275 -0.04948748 -0.1583607 0.18587609 -0.091910146 -0.118831545
-0.14428177 0.13762766 0.12777677 0.085451305 -0.11037746 -0.223733 -0.1108948 0.13910733
0.012144765 0.20911603 0.10964551 0.030677635 0.013428734 -0.12254635 -0.19868219 -0.13459875
0.074379034 -0.17473876 0.008437117 -0.082830176 -0.14308372 -0.12735538 -0.11191268 -0.14293744
-0.13534889 0.124108344 -0.034120366 -0.07037459 -0.006029758 -0.2013043 -0.050780695 -0.16937453

encoder.0.bias f4 [16]
00000000: 9d29 9cbd e82e d93d af00 1dbe ae6d f93d
00000010: 4124 99bd 95f1 1b3b 0585 1abd 2b4d bc3c
00000020: fa4b 6ebd 7c4c 0f3e aedb 96bb f61b 193e
00000030: 1f8a 3d3e 0038 bfbd a054 0fbe bde8 1d3e
-0.076251246 0.1060465 -0.15332292 0.12179123 -0.07477618 0.0023795117 -0.037724514 0.022986015
-0.058177926 0.1399402 -0.0046038246 0.14952073 0.1850972 -0.09336853 -0.13997126 0.15420814

encoder.1.weight f4 [16]
00000000: d206 833f 2d06 823f 9415 813f 043a 7a3f
00000010: 859b 7d3f 2743 883f fef2 7b3f 9ebf 653f
00000020: 15e5 813f ed4a 753f 955a 813f 6edd 813f
00000030: 8c0d 733f f26a 443f 8cf2 823f 5883 7d3f
1.0236456 1.0158135 1.008471 0.97744775 0.9906543 1.0645493 0.9841765 0.8974551
1.0148035 0.9581745 1.0105768 1.01457 0.94942546 0.76725686 1.023027 0.9902854

encoder.1.bias f4 [16]
00000000: 013e f53c 7dea 6ebc 1cef f53c 1591 d83d
00000010: b5f3 45b9 978f bfbd 9622 183c a7da a9bd
00000020: 4550 753d b65c d3bd 083b 60bd e41d 4a3c
00000030: c209 4dbc ee40 f73e 1d04 c3bc 2ea9 33bd
0.029936792 -0.014582274 0.030021243 0.10574547 -0.00018878172 -0.093535595 0.00928559 -0.08293658
0.059891004 -0.103204176 -0.054743797 0.012336228 -0.0125145335 0.48291725 -0.023805672 -0.043862514

encoder.1.running_mean f4 [16]
00000000: 3ef3 e43e 2c30 ce3e d97b aabe 1bfd d9bd
00000010: 490e 43bf fbcf 3e3e 7a0d 7ebe 558f 14be
00000020: f855 8cbe 9b95 00bf b7b3 8cbe 9685 143f
00000030: 3a9d 5dbf 34bf c9bd 2545 c53d 75fb 7cbe
0.4471683 0.40271127 -0.33297613 -0.10643979 -0.7619367 0.18634026 -0.24809828 -0.14507802
-0.2740934 -0.5022828 -0.27480862 0.58016336 -0.86568034 -0.09850922 0.09632329 -0.24705298

encoder.1.running_var f4 [16]
00000000: 852e bb3d ba6b f33c 77b8 483c 5b64 a93c
00000010: ae13 1b3e 81c9 6a3c 8a57 833c 32b7 103c
00000020: 973c a43c 5d0d 063e 147c d83c 9cd8 783d
00000030: 2a6e ab3e 9706 833b 2c6b ae3c e79a 5f3d
0.09139732 0.029714454 0.012251011 0.020677736 0.15144226 0.014330269 0.016032953 0.00883274
0.020048423 0.13091035 0.026426353 0.06075345 0.33482486 0.0039985883 0.021291338 0.054591086

encoder.3.weight f4 [32, 16, 3, 3]
00000000: 8af3 713c e68b 8dbd 0717 ebbc 1afe f2bd
00000010: c680 f2bd eda8 71bd a6fa 09bd 9f77 e83b
00000020: 3ef4 8dbd 3eec 1239 e82e 89bd cf34 02be
00000030: 988b 18bd 0464 a93b c8cc 13bd b377 5b39
00000040: aebc 963d e7cc 8eba ae4d 8fbd 1f63 4bbd
00000050: fcb3 713d 16d9 c73c 220c 003e 5adb e63d
00000060: 2fd4 193d 6a4b 923b 9b2b adbc 9230 223d
00000070: 31f3 84bd a056 7e3c 028d b7bd 8dc9 243c
00000080: 7909 ee3d 01e3 45bd 7464 32bc a27b 7cbc
00000090: 1e13 3abd 76db 81bd ea12 523d f6fb dbbc
000000a0: c60f b63d 1727 e83d 3b64 893c 5e0f 1c3d
000000b0: c0fa 793c d2ab a0bc b763 07bd e363 02bd
000000c0: f50e 383d 9ba8 183b d874 edbd b1c3 093c
000000d0: 335d e6bd 820f 95bc b748 fcbb 54e1 b33d
000000e0: afd3 013e db0e 093d 4cda 13bd ac9a aebc
000000f0: 3c9f 05bd 7a0c 47bd a612 cdbc 97e2 9abd
00000100: b786 813c 6c1d 9cbd c8b4 29bd 9b4d 3abd
00000110: 6760 2e3d b220 90bd 75e6 293d 31e1 bfbb
00000120: fa20 96bc 5101 cb3c fc3e e93d 16a4 acbc
00000130: e2c8 3c3d f18e 0ebd 3b5a de3c 0a48 283d
00000140: f26a 1fbd 71e4 263c 277b 853c b208 3abd
00000150: 0e52 0dbd 2f8d d33d ecdf cc3d f419 09bc
00000160: ad0f 51bd 4b5f a93c 3653 8dbd 48b3 703d
00000170: 1c2a a1bc a921 7bbd 14ce 2b3d 6593 a33d
00000180: ced5 7f3d 2406 dd3c 9a4a 383d 32d8 a6bb
00000190: a493 303d 852f 89bd 9425 8cbd ca37 86b8
000001a0: 97e7 c8bd 54af abbb 62a4 cebc ded0 9ebd
000001b0: a5aa f13c 06a1 f43b 4e92 313d 2f99 763d
000001c0: 327e a33d 87b7 f93d dd56 3fbb b98b 43bd
000001d0: e356 5cbd 1d9d 363c e6ce ea3b 4784 1e3d
000001e0: 59e6 e3bb 63b2 613d d8d5 0fbe be08 03bd
000001f0: 1e24 053d d912 6dbd 4134 bc3d e3f7 883d
00000200: bf1d dcbb 7e9f 04bd 0bd9 e1bd ef58 ddbd
00000210: bac1 f9bc f96d d3bd c283 54bd 5ff7 763d
00000220: afb9 843c ecdf 813d a005 91bd 2cfb 0e3d
00000230: 9bed 7a3d ecfc 0f3c 68ef 193d 6773 8d3d
00000240: 4866 a1bd f465 71bc 478f 013a eeff 98bd
00000250: 2d66 a1bc 70f0 9b3c d994 0d3d 12be 33bc
00000260: a885 8ebd aa37 fe3b 370a 7dbd bf9f 8a3d
00000270: e90e d4bb 7b6f b0bd 8995 85bd 0bab 71bd
00000280: 6b47 2ebc b6a6 7c3c 64b3 8d3d 22de 1b3d
00000290: 7872 e33c dc4d c73c 759e a13d 6a60 7bbd
000002a0: ce51 2b3b c76a f2bb 18f3 2c3d 8ce6 dc3c
000002b0: ea20 83bc 42dd 44bd c34a b83a b2f8 b6bc
000002c0: 8746 55bd 2268 3f3d 804d 31bd b850 553d
000002d0: ccd3 8cbd 9387 af3b cec1 4abd 7607 523c
000002e0: 015b 85bc ee70 793d f4a4 153b a84f 25bd
000002f0: e604 2cbd 8698 e9bc cb97 97bd b574 eb3d
00000300: 626d d1ba 8925 1ebd a109 5e3e 344b 07bd
00000310: 55d7 8cbc 81e4 b9bc b580 59bd 02d2 31bd
00000320: da5a b6bd 34df ab3a d037 903d 3403 323d
00000330: f8d2 373d 96a6 1dbd 2467 9bbc 3a33 b23c
00000340: 9fdd 293d 51b7 2ebd c07d 653a 884e 833d
00000350: 4eb2 293d d733 52b9 4657 243d db6c fc3c
00000360: 74e5 9a3b 8d67 5e3d b0ea efbc dd07 a2bc
00000370: f83c 843c c1d6 27be 22d4 c2bb 89f3 fcbc
00000380: 328e 373d c62c f63c afb0 8bbd 56d2 b73d
00000390: a776 cf3c 169c bcbc c564 acbd 4421 e5ba
000003a0: 80c0 a03c 673b 403d d4d7 20bd 452d 493d
000003b0: e25b f3bc 9ba8 4c3d dbfd a0bd 1363 d1bd
000003c0: 03a7 96bd 84be 21bd c0cb 6639 329d 5c3d
000003d0: 322b a13c 6cc0 203e d696 193b b56e e03c
000003e0: e911 0a3e d18f 793c ecd4 74bd 3651 203d
000003f0: ea30 3c3d 5e02 36bd d9cd 17bd f748 20bd
0.014767537 -0.06911449 -0.028697504 -0.11864872 -0.11840968 -0.05899899 -0.033686303 0.007094338
-0.06931351 0.00014011652 -0.066984 -0.12715457 -0.037242502 0.0051693935 -0.036083966 0.00020930059
0.073602065 -0.0010894806 -0.06997238 -0.049655076 0.059009537 0.024395507 0.12504628 0.11272307
0.03755587 0.0044645565 -0.021138957 0.0395971 -0.064916976 0.015523583 -0.08962442 0.010057819
0.116229005 -0.04831219 -0.010888208 -0.015410336 -0.045428388 -0.06340687 0.05128757 -0.026853543
0.08889727 0.11335581 0.016771426 0.038100593 0.015257537 -0.01961318 -0.03305408 -0.03183354
0.04493614 0.0023293856 -0.11594552 0.008408473 -0.11248245 -0.018195871 -0.007699098 0.08783212
0.12678407 0.033461433 -0.036096856 -0.021313988 -0.03262256 -0.048595883 -0.025033306 -0.0756275
0.015811307 -0.07622799 -0.041432172 -0.045484167 0.042572405 -0.07037486 0.041479547 -0.0058557023
-0.018326271 0.024780901 0.113889664 -0.021074336 0.046090014 -0.03480429 0.027142635 0.041084327
-0.03892035 0.010186301 0.016294075 -0.04541845 -0.03450208 0.10329663 0.10003647 -0.008368004
-0.05104034 0.020675322 -0.06900637 0.058764726 -0.0196734 -0.061311398 0.04194458 0.07987098
0.06245976 0.026980467 0.04499302 -0.0050916905 0.04310955 -0.06698517 -0.06843105 -6.4000094e-05
-0.09809797 -0.0052394066 -0.025224868 -0.07754682 0.029500315 0.0074654846 0.043352418 0.06020468
0.07983054 0.12193208 -0.0029196062 -0.04774067 -0.0537938 0.011145857 0.0071657775 0.03870037
-0.00695495 0.055101763 -0.14046419 -0.03199076 0.032505147 -0.057879303 0.09189654 0.06687906
-0.006717413 -0.032378666 -0.11027726 -0.10807978 -0.030487884 -0.1032371 -0.051883467 0.060294505
0.016201822 0.06341538 -0.07081151 0.034907505 0.061261754 0.008788329 0.03758183 0.06906777
-0.07880837 -0.01473378 0.00049423095 -0.0747069 -0.019702042 0.019035548 0.03456578 -0.010970609
-0.06959087 0.0077581005 -0.06177732 0.067687504 -0.006471504 -0.08615013 -0.06522662 -0.05900101
-0.010637145 0.015420606 0.06918982 0.03805364 0.027764544 0.024329118 0.078915514 -0.061371244
0.0026141289 -0.0073979828 0.04222402 0.026965402 -0.016006906 -0.04806257 0.0014060367 -0.022335384
-0.052069213 0.04673017 -0.0432868 0.052078933 -0.068763345 0.005356738 -0.049501233 0.012819162
-0.016278746 0.060898714 0.0022833915 -0.04035917 -0.04199686 -0.028515112 -0.07401999 0.114968695
-0.0015978033 -0.038610015 0.2168336 -0.033030704 -0.017192522 -0.022691967 -0.05310126 -0.04341317
-0.08904047 0.0013112784 0.070418954 0.043460086 0.04487893 -0.038488947 -0.01897008 0.021752942
0.04147112 -0.042655293 0.0008754395 0.06411463 0.04142981 -0.00020046472 0.040122293 0.030813625
0.00472706 0.054297972 -0.029286712 -0.01977914 0.016142353 -0.16390516 -0.0059456984 -0.030877845
0.044813342 0.030050647 -0.06820809 0.08975665 0.025325133 -0.023023646 -0.08417658 -0.0017481227
0.019623041 0.04693165 -0.03926833 0.049115438 -0.0297069 0.049965482 -0.07860919 -0.10223975
-0.07356074 -0.03948833 0.00022010412 0.05386085 0.019673917 0.15698403 0.0023435852 0.02739654
0.13483395 0.015232042 -0.05977337 0.03913995 0.045945086 -0.04443585 -0.037061546 -0.039132085

encoder.3.bias f4 [32]
00000000: 64af 1dbd d063 5a3c 9660 1dbc 45f1 b5bc
00000010: 14f7 1fbd 3ac0 b13c 678d 8cbd f2ec a73d
00000020: 4eb9 53bc 4d63 7e3c 5aef e03c 38dc 04bd
00000030: 30a9 863d e406 22ba 4788 df3b 3f74 a2bd
00000040: 7b72 293c 2849 ea3c 5b78 3e3c a1b4 07bc
00000050: 26da 803d 31d7 863d 4d24 6b3d 956b 6dbc
00000060: ffaa 6b3c ea4a 6ebd 88b8 7fbd 23d3 6ebc
00000070: 5b97 173c 25ab 46bd 367c 8ebd 0939 1b3d
-0.038497344 0.013329461 -0.009605547 -0.022209773 -0.03905399 0.021698106 -0.06862908 0.081994906
-0.012922598 0.015526605 0.027457882 -0.03243658 0.06575239 -0.00061808364 0.0068216654 -0.079323284
0.010342236 0.028599337 0.011625375 -0.008282811 0.062916085 0.06584013 0.057407666 -0.014490982
0.01438403 -0.058176912 -0.062431842 -0.014576706 0.009252395 -0.04850306 -0.06957285 0.03789619

encoder.4.weight f4 [32]
00000000: aed3 7e3f fca7 883f c04c 723f 0d85 7b3f
00000010: ae2e 753f a455 703f cc4e 803f 81fd 733f
00000020: 1890 773f 3e96 813f 0d2f 7b3f fe91 803f
00000030: 4fe7 813f 908b 823f f7c4 783f e578 7e3f
00000040: d487 633f 5a10 823f dd9f 563f 5eb7 813f
00000050: 87cb 7e3f 3319 803f 84bb 803f 016b 823f
00000060: 6a5d 6b3f 39eb 803f c3bb 753f e1fa 813f
00000070: 2489 883f 5d4a 6f3f 549f 6c3f ddab 783f
0.9954175 1.0676265 0.9464836 0.98249894 0.9577435 0.9388068 1.0024047 0.9530869
0.96704245 1.0123975 0.9811867 1.0044553 1.0148715 1.0198841 0.97175545 0.9940322
0.8887913 1.016124 0.8383768 1.0134084 0.9952931 1.000769 1.0057225 1.0188905
0.91939414 1.0071784 0.95989627 1.0154687 1.0666852 0.93472844 0.92430615 0.9713724

encoder.4.bias f4 [32]
00000000: 779f 9b3c ef20 5a3e 4d0e e73e 9fab 4bbd
00000010: 0ac2 5cbe ef85 fb3c 2145 1a3b 1170 4cbf
00000020: 4602 5dbd 7612 ebbc e926 05bd 6186 56bd
00000030: 8707 c83d 62d0 8dbd c23b 4e3e c0b8 78bd
00000040: 0e6d 3a3f 81bf 243d 890a d83e 21a9 d43d
00000050: 46e4 d83c 19c2 bc3e b03f 5abd cb4e 1a3d
00000060: 9634 de3e 96b5 c8bc 18e3 b73c 3a6b 0e3c
00000070: 2190 c83e 682c 86bd 5b00 3c3e 5ed8 8abe
0.018996937 0.21301626 0.45128098 -0.049724218 -0.21558395 0.030703513 0.002353974 -0.798585
-0.053957246 -0.028695326 -0.03250781 -0.052374247 0.09767061 -0.069245115 0.20139983 -0.060723066
0.72822654 0.040221695 0.42195538 0.10383821 0.026476037 0.36866835 -0.053283393 0.0376728
0.43399495 -0.02450065 0.022447154 0.008692557 0.39172462 -0.065514386 0.1835951 -0.271182

encoder.4.running_mean f4 [32]
00000000: b2ce 7abe a970 92be f19e a6bd e680 9cbe
00000010: f869 773f 168e d33e 3fca 09be 2928 de3f
00000020: 4441 893e afca 62be 3e4d 86be 1a22 113e
00000030: 00e0 d5bd 2246 53be a0cc 6a3d 63f3 66bd
00000040: 026f 0a3e 83d3 07bd fc65 363e 2521 a73e
00000050: 885a 8b3c 1810 0c3e d0d1 48be 2b65 e4bd
00000060: 4ae9 653e fcce c4be 9c6c 073f 9154 75be
00000070: d529 603d 78c6 b03e 6493 433d d5e6 7a3f
-0.2449291 -0.28601578 -0.081357844 -0.30567092 0.9664607 0.4131934 -0.13456057 1.7356006
0.26807606 -0.2214763 -0.26230806 0.14173165 -0.10443115 -0.20632222 0.05732405 -0.056384455
0.13518909 -0.033160698 0.17812341 0.32642475 0.017010942 0.13678014 -0.19611287 -0.11152109
0.22452274 -0.38439167 0.529001 -0.23958041 0.054727394 0.3452642 0.047747985 0.9800847

encoder.4.running_var f4 [32]
00000000: 9f1d d33f db03 a33e 41f7 473e 4775 853f
00000010: 141d cb3e 74bb 643e aac0 ec3f d5e9 ed3e
00000020: 3e67 e33f a362 0b40 f125 c33f 590b 1a40
00000030: ece4 293f feb4 3b40 f420 0d3f 9bed c43f
00000040: 0b53 993d d25d 183f 1a12 9e3d 8ded 633e
00000050: 9e6c a03f b5dc 9e3e 83b9 783f 220d ba3f
00000060: 971f 1e3e 795b b53f e80d 8a3e 0578 bd3f
00000070: 561b 393e d4e4 223e 8295 f63d 7574 e83e
1.6493415 0.3183888 0.19527914 1.0426415 0.39670622 0.22337133 1.8496296 0.46467462
1.7765882 2.1778953 1.5245954 2.4069426 0.6636493 2.932922 0.5512841 1.5385011
0.07486542 0.5951816 0.07718296 0.22258587 1.2533147 0.3102776 0.9715807 1.4535258
0.15441738 1.416854 0.26963735 1.4802252 0.18076834 0.15907604 0.12040235 0.4540135

encoder.6.weight f4 [64, 32, 3, 3]
00000000: fa0b c13c 1e77 ccbc 80de 443d 329d b9bb
00000010: 7145 153d fde8 edbb d1cd 93bd 2792 2abc
00000020: 04c6 8fbd b4a2 cf3c f6b5 a93c 6e5c c3bc
00000030: fe89 5abd 31c8 92bd 29e2 9c3d f87e 8b3d
00000040: 1dc6 86bd e3e4 753b 2535 7abc 16b3 2a3d
00000050: 50ca a63b a2ed 943c 36e4 6ebc dc29 7c3d
00000060: 7de3 8d3d b6a4 1fbd 118b 033c 60d3 0e3d
00000070: 8f7d 113d 6621 d83c 4908 133d 2a5b 57bd
00000080: e283 7c3c 5019 f5bc d20c d8bc 2b20 81bb
00000090: 5b59 c6bb 286e c4bb 825a 513d 845b 993d
000000a0: 1c5d 093c f979 043e 6cc1 06bc 50ad 15bd
000000b0: 080d 393c 2b72 82bd bbd4 21bc 7f57 16bd
000000c0: 0a11 0b3d 0900 45bc e222 89bc 6cea 2f3d
000000d0: 7a70 673d bb2a aa3b 1180 7ebb 1681 bf3c
000000e0: 81ac 11bd d90b 58bd bbb8 92bb 5790 01be
000000f0: e47b 5ebc bf32 3bbc f8fc b83c 7015 9ebd
00000100: 2b1f b5bc 6a18 8e3c 922c bcbc 9cf8 4f3d
00000110: 839d ea3d ab60 643c 048d 883b 8534 0d3d
00000120: 3ec2 15bd 13ea b3bc 605b 24bc eb78 56bd
00000130: ee8d b1bb 8372 dbbc ac21 b6bd 2cf6 b6bd
00000140: 1b2c 32bc d8a9 223c 061f cd3b 3d67 503d
00000150: 45b1 a1bc 8f07 f3bd da0a c73d 92f1 1d3d
00000160: 0198 9c3d 574d 373d 4584 ee3c 5f75 83bd
00000170: f3f9 0b3c 67c7 a5bc f995 c63b c7f7 8abc
00000180: 6b5b 9a3c 8002 78bc a510 08bd 53de e7bc
00000190: 31f4 683c b34b 78bc 0aea e4bc 3333 30bd
000001a0: dd6a b0bd 6ac7 9cbc b715 b3bd 16a1 6abd
000001b0: 6789 e23c a6fd 3a3c b05c 463d 405b 083d
000001c0: e643 b9bd bc21 5abd 4f56 6aba a1ff 1a3d
000001d0: a039 5cbb f325 ebbc d26e 62bc 9993 78bc
000001e0: 6c60 93bc 868c 3bbc ff39 c83d 2534 e33c
000001f0: 0cc2 b03d d943 86bc de40 773c 65c7 5fbb
00000200: 14a5 a83c c4d4 9c3c 3188 5bbd ff4f a2bd
00000210: fa95 b73c 6e42 67bc d039 543d 9022 ffbc
00000220: 6f19 bcbb 13ae 69bc e53d e7bb 93da c4bd
00000230: 8cae 0dbd dcda 5dbd 8b60 c4bd bc9a 23bd
00000240: c41b c9bb 2345 8fbd b273 f03a f43c de3b
00000250: 400e a6bc f9fc 14bb 54c1 03bd 22e0 883d
00000260: 694e 783d 2629 123c 2fff 40bc c233 dfbc
00000270: e0b4 95bd a0a9 a6bc 0c0b 003e 026c 803d
00000280: a960 45bc 22fa cc3c 47b6 c73c 0f74 ce3c
00000290: 681c 173d 2571 e5bb 02c6 5f3d 51c2 403d
000002a0: a7ec 0d3d 1eb3 c2bc 2657 ad3d 2766 69bd
000002b0: 0607 31bc c141 033d e18d 32bc 6413 0f3c
000002c0: f021 203c b7c4 063d 414e 753c 61ef c93b
000002d0: 967f 39bb 029a d5bc 24a6 27bc 54eb 6b3c
000002e0: 8edb 7fbd 3962 5ebd 67ba 83bc 52e9 a0bc
000002f0: 5064 8bbc c32b 90bb f489 9b3d 1826 27bc
00000300: 9deb 103d 6bf6 a83d a6ac b43d 6abb 03bd
00000310: b719 75bc 0320 38bd d69e 333c 4e6f 7839
00000320: 75c0 0fbd 9f6e e83d 199b c6bb ec17 763d
00000330: e8fa 0e3c 7127 163b 084c 42bc be2c 6d3c
00000340: d03b 66bb 47b3 033d 1899 f3bc d261 5b3c
00000350: 91a1 c53d 7e6c 4d3c c5ff e2bc 71de 813b
00000360: bd69 4b3d 2cd0 5c3d 8c7a df3c 2681 0a3d
00000370: 2783 5d3d 18b2 a13d 8037 353c e843 63bd
00000380: ffa6 7b3c a2a7 ac3c 6844 c23b 532b 35bd
00000390: d041 1d3d 3577 a8bb e595 ed3c 6fd9 593c
000003a0: bfaf 2a3d 2b6e 63bd 76fb 623c 584d 19bc
000003b0: 2ea4 56bd 0596 1c3d b18e 71bd 038a c7bd
000003c0: 5535 41bd 8b47 ebba a3d0 753d 1465 f6bc
000003d0: 5714 803c 8a31 c4bc 6d08 c13c 0602 1cbd
000003e0: 1bee 2a3d 16d2 853d ecbe 363d 0459 533d
000003f0: 5e76 9b3b f668 d83c d699 4c3d a234 e1bc
0.023565281 -0.024959143 0.048063755 -0.005664491 0.036443178 -0.0072604404 -0.07216991 -0.010410822
-0.0702019 0.025346138 0.020716649 -0.023847785 -0.053354256 -0.0716709 0.07660324 0.06811327
-0.06580756 0.003752046 -0.01527146 0.041674696 0.0050900355 0.018179718 -0.014580777 0.061563358
0.069281556 -0.03897544 0.0080287615 0.03486955 0.035520133 0.026383113 0.035896573 -0.052577175
0.015412303 -0.029919297 -0.0263733 -0.0039406023 -0.0060531325 -0.005994577 0.051111706 0.07488158
0.008384015 0.12937154 -0.008224826 -0.036542237 0.011294611 -0.06369432 -0.009877379 -0.036704537
0.033951797 -0.012023934 -0.016740266 0.04294817 0.05650375 0.005193082 -0.0038833658 0.023376983
-0.035564903 -0.052745674 -0.004477588 -0.12652718 -0.0135793425 -0.011425673 0.022581562 -0.07718933
-0.022109589 0.017345626 -0.022970472 0.0507742 0.11455824 0.013939063 0.004167201 0.034473915
-0.036562197 -0.021962201 -0.010031551 -0.05236141 -0.0054185307 -0.026788002 -0.08893141 -0.08933672
-0.010874773 0.009928189 0.006259802 0.050879706 -0.019737849 -0.11866676 0.09718867 0.038560458
0.0764618 0.04475149 0.029115805 -0.06418871 0.008543479 -0.020236684 0.0060603586 -0.016963853
0.01884242 -0.015137315 -0.033219 -0.028304255 0.014218376 -0.015154767 -0.02794363 -0.043017577
-0.086141326 -0.019138057 -0.08744376 -0.05728253 0.02765341 0.011413014 0.048428237 0.033290148
-0.09046154 -0.053254828 -0.00089392526 0.037841443 -0.0033603683 -0.028704619 -0.013820367 -0.015171909
-0.017990313 -0.011447078 0.09776687 0.027734825 0.086307615 -0.016389774 0.015091149 -0.0034145948
0.020586528 0.019144423 -0.05359668 -0.07925414 0.022410382 -0.014114959 0.051812947 -0.03114441
-0.0057403366 -0.014262694 -0.007056939 -0.09612002 -0.03459029 -0.0541638 -0.095887266 -0.039942488
-0.006137343 -0.06995609 0.0018345027 0.0067821685 -0.020270467 -0.0022733791 -0.032166794 0.06683375
0.060621653 0.008920943 -0.0117795905 -0.02724636 -0.0730989 -0.020344555 0.12504214 0.06270601
-0.012046971 0.025021616 0.024378909 0.025201825 0.036892325 -0.0070020133 0.054632194 0.047060315
0.034649517 -0.02376705 0.08463888 -0.056982186 -0.010804897 0.03204513 -0.010898084 0.00873265
0.009773716 0.032902446 0.0149722705 0.0061625694 -0.0028304807 -0.026074413 -0.010232482 0.014399368
-0.062465243 -0.05429289 -0.016080095 -0.019642506 -0.017015606 -0.004399748 0.07594672 -0.010201953
0.03538095 0.082501255 0.088219926 -0.032161154 -0.014959744 -0.044952404 0.010963162 0.00023692587
-0.03509565 0.11349224 -0.0060609696 0.060081407 0.008726813 0.0022911693 -0.011858948 0.014475999
-0.0035130866 0.032153394 -0.029736087 0.013390021 0.09649957 0.012538074 -0.027709851 0.0039632847
0.049661387 0.053909466 0.027280115 0.03381457 0.054080155 0.07895297 0.0110605955 -0.055484682
0.015359639 0.021076027 0.005928565 -0.04423077 0.03839284 -0.0051411637 0.02900214 0.013296469
0.04167151 -0.055524986 0.013853898 -0.009356819 -0.052402668 0.038229007 -0.05897397 -0.097431205
-0.047170002 -0.0017950399 0.060013425 -0.030077495 0.015634699 -0.023949403 0.023563588 -0.038087867
0.04173098 0.06534211 0.04461567 0.051598564 0.004744335 0.026417237 0.049951397 -0.027490918

encoder.6.bias f4 [64]
00000000: 061b e23c 9245 5bbd 244c 693c 5d66 5cbd
00000010: 269d ce3c c6c3 9cbc 2580 9f3c 98fd b93c
00000020: b322 163b 7a88 f03b 80cf b0bc 24a9 ff3a
00000030: f439 0b3d 966e 463d 41c8 87bc 804a 5f3c
00000040: fd82 673c b5a0 c13c 00e6 a63c a48b a03c
00000050: 43f4 2ebd 69b0 24bc 2b7b f0bc 5d13 483d
00000060: f98c b8bc 02af d23c a63c 803c ca7b aa3c
00000070: ca15 673c 72d0 aebb 80cb 9cbc 3793 6c3d
00000080: e73e 673c 46dd 343d 725e 9e3c 6cf3 693d
00000090: 4c68 843c cbe1 a0bc 5b47 213c a09f 31bd
000000a0: 9655 0f3d ab64 2bbd 0220 043d 4f1f a93c
000000b0: 13da 6fbd 0447 a6bc 6a76 4bbc 7e95 acbc
000000c0: b52f 813c f5a1 fbbc 7351 4e3d 64fd 1fbc
000000d0: 8290 ee3c fcc1 dbbc 2119 0dbd 0794 3e3d
000000e0: 7175 5cbd f497 1cbb 363d f9bc dabb c3bc
000000f0: 4671 91bb a894 8d3c b4c0 ccbb f896 0a3c
0.027600776 -0.053533144 0.014239345 -0.05380856 0.025221419 -0.01913632 0.019470284 0.02270393
0.0022908866 0.007340488 -0.021583319 0.0019505364 0.033990815 0.048445307 -0.01657498 0.013628602
0.014130351 0.023636201 0.020373344 0.019597836 -0.042713415 -0.010051825 -0.029355606 0.04884659
-0.022528159 0.025718216 0.01565392 0.02081098 0.014104316 -0.005334907 -0.019140005 0.057757583
0.014114118 0.044156335 0.019332144 0.05711691 0.016163014 -0.019638916 0.009843673 -0.04336512
0.03499373 -0.04184405 0.032257088 0.020644812 -0.05855758 -0.020297535 -0.012418369 -0.021067377
0.015769819 -0.030716876 0.050370645 -0.009765003 0.029121641 -0.026825897 -0.034447793 0.04652789
-0.05382294 -0.0023894282 -0.030424695 -0.023893286 -0.004438552 0.017282799 -0.006248558 0.008458845

encoder.7.weight f4 [64]
00000000: a98b 7f3f bbf3 843f 16a0 7f3f ceb6 733f
00000010: 4589 833f 4f0a 7b3f f526 7d3f 739c 6b3f
00000020: 7405 5f3f 63f5 7a3f 0639 653f 1afa 773f
00000030: 6c8b 833f a4ee 5e3f c91c 893f e2d6 6f3f
00000040: 0310 8a3f e040 723f 03e5 7c3f 1729 673f
00000050: a214 5d3f 4e02 5e3f bd62 563f 2755 7a3f
00000060: 441a 5c3f 3e4c 3e3f f92f 5f3f f379 843f
00000070: 2f5a 7e3f a88a 7d3f 2b0c 833f 07db 753f
00000080: 031a 823f 415a 583f 5225 763f a055 813f
00000090: 432d 6f3f 7ae4 6c3f 7340 7b3f d604 7b3f
000000a0: 8a72 833f 0c48 823f a10a 863f 0b25 4c3f
000000b0: 4a70 663f 44b3 803f d1a3 753f aa93 703f
000000c0: 6afa 823f a3ec 803f 3ed6 873f c958 643f
000000d0: 1b93 583f e13f 7f3f cdd3 873f 0213 873f
000000e0: d800 803f def7 853f 22ca 7e3f 2436 803f
000000f0: 71b9 703f 9e93 863f b69b 883f a66b 813f
0.9982248 1.0386881 0.99853647 0.9520081 1.0276266 0.98062605 0.9888757 0.920356
0.87117696 0.9803068 0.89540136 0.96866 1.0276923 0.87082887 1.071191 0.9368726
1.0786136 0.9463024 0.98786944 0.90297073 0.8635961 0.86722267 0.8374441 0.9778618
0.8597758 0.74335086 0.87182575 1.0349716 0.9935636 0.990397 1.0238088 0.96037334
1.0164188 0.84512717 0.96150696 1.0104256 0.9342844 0.9253613 0.98145217 0.98054254
1.026933 1.0178237 1.0471994 0.79744023 0.9001509 1.0054708 0.9595309 0.9397532
1.023267 1.0072216 1.0612257 0.89197975 0.84599465 0.99706846 1.0611511 1.0552676
1.0000257 1.0466268 0.9952718 1.0016522 0.9403296 1.0513799 1.0672519 1.0110977

encoder.7.bias f4 [64]
00000000: 77b6 3f3e 5bb1 473e e093 4a3d 4de6 b03d
00000010: 58bc 353e 6dcb cc3e 6f37 1abd a717 4c3e
00000020: b22a c23e 61eb 373e 1de5 963e 04a1 0e3d
00000030: d24a d93d 695b 153e 0c98 fa3d 6ef9 303d
00000040: bb4a 203e bce4 663e b951 293e d85b 6a3e
00000050: ae6e 2f3e 06f1 053e 1aaf d33e 5403 ca3d
00000060: c8a6 c33e 143e e13e 1b39 e93e 9ba3 803d
00000070: 9a51 483e 53d7 0c3d 12e0 623d 9312 3b3e
00000080: 282f af3d bf68 cd3e 3a8e 6b3e 4364 fc3d
00000090: b39a 533e 25cd 673e 288e 17bd 9a3c cfbc
000000a0: 1656 e23d e5d0 803e 3f67 c23d c407 da3e
000000b0: 0634 783e 157b 373e eabb 593d 7725 d43d
000000c0: 43a1 90bd e504 ac3d 4fa4 8a3c 1ab1 d13e
000000d0: 7441 9b3e 76e5 293d 41ac 943d 3975 123e
000000e0: 4728 343e ea1b ab3d aac2 61bd 90cd b13c
000000f0: b834 9c3d d40a 8f3d 94ee 9a3d 291f 693e
0.18721949 0.1950125 0.04945743 0.086376764 0.17747629 0.39998952 -0.03765052 0.19930898
0.379232 0.17960884 0.29471675 0.034821525 0.10609974 0.14585651 0.12236032 0.043206625
0.15653507 0.22548193 0.16535081 0.22886598 0.17132065 0.13080224 0.4134453 0.09863916
0.38213181 0.43992674 0.4555138 0.06281205 0.19562379 0.034385037 0.05538947 0.18268804
0.08553916 0.40118977 0.23003474 0.12323811 0.20664482 0.2263685 -0.037000805 -0.025297452
0.11051576 0.25159374 0.09492349 0.4258405 0.24238595 0.17918046 0.053157724 0.10358708
-0.07062008 0.08399371 0.016924052 0.4095543 0.30323374 0.041478597 0.07259417 0.1430253
0.1759349 0.083549336 -0.055117287 0.021704465 0.07627243 0.06984487 0.075650364 0.22765793

encoder.7.running_mean f4 [64]
00000000: b166 9a3e 2dee 583e bafd 2f3f 4418 97bd
00000010: 1912 703e 048e 2b3e a690 5c3e b438 b93d
00000020: 5799 a03e 6645 4cbe fa21 763e dbe8 c03d
00000030: c2ba 123e 1e56 933e 74f0 c5bd fafb 063e
00000040: 487e 533e 3be2 983e a171 f2bc dc3d bd3e
00000050: 40cb 33be c947 393f d656 24be 30e0 5cbd
00000060: 62f1 043e 1b6b a53e c22c 963d 4bfe e9bd
00000070: cc8d e2be 95ef b7bc 293a da3e 13ee 5abd
00000080: 07e0 aa3e 12df efbd 0323 07bf 3ebc abbd
00000090: 0afe 133e 4a25 65be 39fe 283f ba2a 243f
000000a0: 1987 9a3d 24bb 0fbc f43d a03c d674 fc3c
000000b0: 14a2 efbe cbf7 063e 3422 073e ab34 0dbe
000000c0: b4ea 7f3e 0ac7 afbe 85f7 73bc 03a3 883e
000000d0: b08c eebd ca87 e63d 9114 2dbc 2ce0 12be
000000e0: 88d4 d93d 8e20 d03d 90ae 8c3f 091c 853d
000000f0: ebd8 893e 0c16 333e be41 063e b8f7 e23d
0.30156472 0.21184607 0.6874653 -0.07377675 0.23444404 0.16753393 0.21539554 0.090440184
0.3136699 -0.19948348 0.24036399 0.09419414 0.14329055 0.2877664 -0.096650034 0.13182059
0.20653641 0.298601 -0.029595198 0.36961257 -0.17558002 0.7237516 -0.1604875 -0.05392474
0.12982705 0.32308277 0.073327556 -0.11425456 -0.44248807 -0.022453109 0.42622498 -0.0534497
0.33374044 -0.11712469 -0.527878 -0.08385514 0.14452377 -0.22377506 0.66012913 0.64127696
0.07545299 -0.008772645 0.019560792 0.03081743 -0.46803343 0.13180463 0.13196641 -0.13789622
0.24991876 -0.34331542 -0.014890556 0.26686868 -0.11647928 0.112563685 -0.010563985 -0.14343327
0.1063624 0.10162459 1.0990772 0.06499488 0.26923308 0.17488879 0.13111016 0.11082405

encoder.7.running_var f4 [64]
00000000: 6e02 ec3f 4693 b33f 1da9 3a40 41f1 a83f
00000010: 5c5d 9f3f 76fa 993f 1f6d b03f 2f1a 5d3f
00000020: 7289 0e3f 0098 3c3f 05c4 203f 75aa 6f3f
00000030: 220c ef3f 8713 db3e a388 cb3f cccf f83e
00000040: 984d d53f 5985 573f 35c5 823f 4010 003f
00000050: 541b c93e 8f1a 813e e8cc c93e fa40 7d3f
00000060: f047 d03e d44e 6b3e ca8b fb3e 8aef d73f
00000070: aa4b 753f 53b0 fc3f cfb4 303f 9b7a fe3e
00000080: 5c2f 993f 4b63 d33e c862 403f a0bd d73f
00000090: 3e0e 033f a617 033f 2459 063f 3a25 1540
000000a0: f8d3 2a40 f8c4 8e3f bd8f 7b3f 0560 8c3e
000000b0: 603c db3e 93ca 2e3f ee4f c63f a93a e03f
000000c0: fe68 553f add3 f43f 4568 9b3f 0fa3 0d3f
000000d0: 0eda b63e 9364 ae3f cb44 883f 57e6 683f
000000e0: 1622 733f efc1 9b3f d820 463f 3389 ac3f
000000f0: 3ab2 013f 5f0d 823f 30bc 983f 6d93 af3f
1.8438241 1.4029319 2.9165719 1.3198625 1.2450366 1.202956 1.3783301 0.8636808
0.55678475 0.73669434 0.627991 0.9361947 1.8675578 0.42788336 1.5901073 0.48596036
1.6664305 0.8418785 1.0216433 0.50024796 0.39278662 0.25215575 0.39414144 0.9892727
0.40679884 0.2297929 0.49130088 1.6869977 0.9581858 1.974131 0.6902589 0.49702916
1.1967578 0.41286692 0.7515073 1.6854744 0.51193607 0.5120796 0.5247977 2.3303971
2.6691875 1.115386 0.982662 0.27417007 0.428195 0.68277854 1.5493143 1.7517902
0.8336333 1.9127098 1.2141196 0.5532693 0.35713238 1.3624443 1.0645994 0.9097647
0.94973886 1.2168559 0.77393866 1.347937 0.5066258 1.016033 1.193243 1.3716866

decoder.0.weight f4 [64, 32, 3, 3]
00000000: 99ca e23c e2ca 0b3c a12e 3d3c 8eca 68bb
00000010: d01f d2bc 2f53 da3c e087 843b 606c 57bd
00000020: fce7 4cba 643d 53bc 22ad 93bc 06f8 05bd
00000030: be7a 303d 02de 08bd f349 58bc cb02 e23c
00000040: 40cd 423d 812b a8bc f35b 3dbd e45b 88bd
00000050: 2169 88bd b90f c53c e51d 153b 89f8 593d
00000060: 415d 6e3d 08a5 553d a3df 393d 6ca7 83bd
00000070: ade4 c83b a738 febc b8a9 2e3c aa72 973c
00000080: f5e5 ed3c 886a 873b ba36 43bc ecb2 51bc
00000090: 00cf 3cbd cf8d b33c aa45 4b3d 3818 1cbb
000000a0: 8046 3dbc 2a83 76bd ca65 783c 445b 703b
000000b0: 4f5c 333d 93a5 3d39 88b9 ddbc e7cc b63c
000000c0: 14cb 42bc ac05 713d 817d 9d3d 40d6 553d
000000d0: a92e 263c 4900 54bd 4b3d 0cbd d172 2e3c
000000e0: e805 ef3b ffac 95bd 1e55 0d3c ee3f ffbd
000000f0: 7663 d03c a3e6 963c 51a8 4fbc d14e 10bd
00000100: 8a71 adbc 1962 eabc 370d 1ebc c4fd cbbd
00000110: 2237 9a3d c81f 39bd 6a8c 0dbd 29bd 83bb
00000120: b06c 9dbd 3dc8 88bd c3dd 803c 215d 613d
00000130: fbff 8bbd 5ffb a33a dc9d 64bd dbab 393d
00000140: 63de b8bb 00a7 3c3c a1e6 b23c 169a ef3c
00000150: 46b5 01bd 9fdf 87bd 20bb 1f3c a704 943d
00000160: 75c4 643c 4ae8 183d f121 6ebc 9d0b 403d
00000170: 27d4 413d 9989 8c3b 42c2 ae3b 632a 81bd
00000180: 5797 20bd b5d5 9a3d 4a74 903d c5c9 28bd
00000190: 997e 7ebd 7e92 bcbb 1ee2 a4bc 43a5 483d
000001a0: 5794 a4bc c009 b73b fb45 a9bd 063c 79bd
000001b0: 392b 7ebd 10d3 3f3d b17d 5ebd b4ad 6cba
000001c0: 25cb 4b3d 8e10 e03d ae60 103c b449 39bd
000001d0: 092b 213c 89c7 93bc 12f0 2b3d 8eeb a5bc
000001e0: e1bd 12ba d715 1d3d 9538 6dbd 3c4f 28bd
000001f0: 923d aabc ee29 68bd 66e7 103c 6eb6 9dbd
00000200: 8e81 5ebd 6732 aebb d5bb a7bd a512 473c
00000210: 176b cf3c 395b c83d 417b 70bd 5923 ecba
00000220: a83c 98bd 7af6 b53d cf73 ec3c eccf fbbc
00000230: 6421 7b3d 5e92 5dbb 6d7c 16bd 5f5b a73c
00000240: 74a6 9e3c b026 19bd 84d3 303c 09ec e0bc
00000250: a7a0 4e3c 3b70 313d e3a6 b93c 683a 4dbd
00000260: 57c7 b13d bbe4 c23c 313a 74bc 41ae 19bb
00000270: 6256 a0bb dc40 673c edf8 c63d d6cb 623c
00000280: 0ff8 193c e87e 303d 61fb 2b3c b2f0 b33c
00000290: 7d0e 2fbc 1c90 2ebc b60d b83c 76e5 0e3d
000002a0: 0e0d 1ebd 1e76 963d 2f02 aebd a987 0cbd
000002b0: 8d37 593d 007b 65bc dfef b3bc 8c9a 173d
000002c0: cfe9 513d 44d0 76bc 1006 56bd 4138 083c
000002d0: 4f5c d8bc aa01 9aba ba6f 843b d55a 10bc
000002e0: f710 1b3d 474d 003d ee88 25bd 7126 3dbd
000002f0: 4ecd 2a3c 00f4 4bbb 0c7e c53b 6d26 09bd
00000300: 0314 4ebc 8647 e43d e563 d83c 315b bd3b
00000310: c1f2 8eba fab8 88bd 2835 ecbc ee7d 9e3c
00000320: 85fe 0c3d be81 ffbb c32b 983b 4445 bbbd
00000330: 9240 33bd b7b9 663c 1614 5c3c 17ae 623d
00000340: da7c d13c c34c f1ba 79ba fbbc 2299 023c
00000350: fd54 023d d641 5f3d 6cac 93bd 8bcc 0c3c
00000360: 5d5a 4d3d 217b ec3c 557f 0d3d 2bfa 323d
00000370: 0b35 a5bd 85c2 953d c221 693d 9c10 083d
00000380: 6ab0 483d c13f 26bd e571 3abc cd81 303c
00000390: 51c8 8ebb 7b54 2abd 637f 6cbc b484 31bd
000003a0: 8c28 dabc a855 83bd 3693 4e3d 7762 163c
000003b0: 8e53 833b c064 963d 30f7 d4bc 371a 8b3d
000003c0: aabd 483c fc95 45bd f7cc 83bd 1993 f4bb
000003d0: e65b 83bd f74d 903c 1aba fabc 6775 8bbd
000003e0: 4fee d23d b741 04bc 26fc 34bc cbb3 0ebc
000003f0: 2f78 1d3c 71a1 9ebd 5e54 2dbc 32c2 a73b
0.027684497 0.008532258 0.011546762 -0.0035521123 -0.025649935 0.026650993 0.004044518 -0.05259359
-0.0007816551 -0.012893055 -0.018026892 -0.032707237 0.043085806 -0.03341485 -0.013201225 0.027589222
0.047559023 -0.020528557 -0.046230268 -0.06658152 -0.06660677 0.024055349 0.0022753414 0.053215537
0.058194403 0.05215934 0.045379292 -0.064284176 0.006130776 -0.031032873 0.010660581 0.018487293
0.029040316 0.0041325726 -0.011914903 -0.012799006 -0.046095848 0.021918206 0.049626984 -0.0023818146
-0.011552453 -0.06018368 0.015160987 0.0036675492 0.043789204 0.00018086126 -0.027066007 0.022314502
-0.011889238 0.0588433 0.076899536 0.052206278 0.010142961 -0.051758084 -0.03423814 0.010647492
0.0072944053 -0.07308387 0.008626251 -0.124633655 0.025438052 0.018420523 -0.012674407 -0.035231415
-0.021172304 -0.02861123 -0.009646705 -0.09960511 0.07530047 -0.045196325 -0.034557737 -0.0040203524
-0.07686746 -0.066788174 0.015730744 0.055020455 -0.06835934 0.0012510828 -0.05581461 0.04532991
-0.005641745 0.011514425 0.021838488 0.029248279 -0.031667016 -0.06634449 0.009749204 0.0722745
0.013962855 0.037330903 -0.014534459 0.046886075 0.047321465 0.004288864 0.005333216 -0.06306913
-0.03920683 0.07560293 0.070534304 -0.041208047 -0.06213245 -0.005754768 -0.020127352 0.04898573
-0.020090265 0.005585879 -0.08265301 -0.06084826 -0.06205294 0.046832144 -0.054319087 -0.00090285693
0.04975428 0.109406576 0.008812113 -0.045236304 0.009836921 -0.018039482 0.041976996 -0.020253923
-0.0005597752 0.038350906 -0.05791529 -0.04109119 -0.020781312 -0.056680612 0.008844232 -0.07700811
-0.05432277 -0.005316067 -0.08190123 0.012150441 0.02531962 0.09783024 -0.058711294 -0.0018015906
-0.07433444 0.08884902 0.028863816 -0.030738793 0.06131114 -0.0033809165 -0.036739755 0.020429311
0.01936648 -0.03739041 0.010792617 -0.0274563 0.012611545 0.043319922 0.022662586 -0.05010453
0.08680599 0.023790708 -0.014906452 -0.002344981 -0.00489311 0.014114585 0.097154476 0.013842544
0.009397521 0.043089777 0.010496945 0.021965358 -0.010684607 -0.010654476 0.022467475 0.0348868
-0.03858667 0.07346748 -0.0849651 -0.034309063 0.053031493 -0.014006376 -0.021964965 0.03701262
0.051248368 -0.015064303 -0.052251875 0.008314193 -0.026411204 -0.0011749764 0.004041639 -0.008810719
0.037857976 0.031323697 -0.04041379 -0.04617924 0.010424925 -0.0031120777 0.006026989 -0.03348391
-0.012578013 0.111464545 0.02641482 0.005778693 -0.0010906087 -0.066759065 -0.02883394 0.019347157
0.034422416 -0.007797449 0.0046438887 -0.09144071 -0.04376275 0.014082364 0.013432523 0.055341806
0.02557223 -0.0018409718 -0.030728566 0.00797108 0.031819332 0.054506145 -0.07210621 0.008593689
0.050135005 0.028867306 0.03454526 0.04369561 -0.08066758 0.07312492 0.05691696 0.033218965
0.048996367 -0.040588144 -0.011379694 0.010773134 -0.0043573757 -0.041584473 -0.014434668 -0.043339446
-0.026630662 -0.06412822 0.05043336 0.009178749 0.004007763 0.07343435 -0.025996774 0.067921095
0.012252251 -0.04823874 -0.06435578 -0.0074638245 -0.064140126 0.017615302 -0.030606318 -0.06809502
0.1029936 -0.008072308 -0.011046445 -0.008709858 0.0096111735 -0.07745636 -0.010579197 0.0051195854

decoder.0.bias f4 [32]
00000000: 77ff 62bd 8388 543d 4d60 4cbd 1636 2b3d
00000010: c866 30bd e694 9bbb 8f72 2cbd e2cb 40bb
00000020: 71a7 98bc b263 333d e6ca 22bc da31 3a3d
00000030: 79b9 d2bc 5037 ea3c 4b26 143d 4254 e2bc
00000040: 1215 dcbb 9ff7 673d 668c 38bc 2a00 9a3c
00000050: 5af7 0e3d 6d7a 5ebd 8fc5 5b3c cc86 ddbb
00000060: 4f20 babc cb76 4cbd 40e8 093c 86e0 4a3d
00000070: 661e 12bd bda1 5c3b c9cb 64bd bbc7 1d3d
-0.05541941 0.051888 -0.049896527 0.041799627 -0.04306677 -0.0047479747 -0.04210144 -0.0029418399
-0.01863453 0.04379625 -0.00993607 0.0454577 -0.025723206 0.028590828 0.03616933 -0.027628068
-0.006716379 0.056632634 -0.011263942 0.018798906 0.03490386 -0.054315973 0.013413801 -0.006760454
-0.022720484 -0.049917977 0.008417189 0.04953053 -0.03567352 0.003366574 -0.055858407 0.038520556

decoder.1.weight f4 [32]
00000000: 3877 6a3f 67b1 793f 6290 6e3f e248 833f
00000010: b351 893f 5bd3 803f e95a 873f 4a58 883f
00000020: d3f3 763f b630 6e3f 2cd0 803f 7a30 813f
00000030: b7ab 873f 1288 783f f5c8 853f 289c 893f
00000040: 5890 7c3f 3a18 893f 1956 723f 0a38 8a3f
00000050: a42e 863f 9f51 723f e28e 763f 2045 733f
00000060: 53f2 7b3f 6303 813f 71e5 773f 9dec 763f
00000070: 0830 7b3f 165f 853f 1e12 7f3f f4e3 7e3f
0.91588163 0.9753632 0.9318906 1.0256617 1.0728058 1.00645 1.0574619 1.0651944
0.96465796 0.93043077 1.0063529 1.0092919 1.0599278 0.97082627 1.0451952 1.075078
0.9865775 1.0710518 0.94662625 1.0798352 1.0482984 0.94655794 0.9631177 0.9502735
0.9841663 1.0079159 0.96834475 0.96454793 0.98120165 1.0419643 0.9963702 0.9956658

decoder.1.bias f4 [32]
00000000: b4f9 4f3e 8709 3c3b a1cc 9cbc 1e13 193d
00000010: 4c61 d63d 79bb 803e 9fc5 223e d2e2 803d
00000020: d553 d7bc 6907 acbd a06c 923d de82 af3a
00000030: baea 693e 0df0 4e3e a50e 853d 6310 fd3d
00000040: aafc 663d 1e2f 423e 7ac2 853d a1e2 fc3d
00000050: cf46 003e 0a26 81bd 7e6f 553e 7936 203e
00000060: 5f35 b6bd 59f2 263d bb8d bc3d 5137 5bbc
00000070: b6be 003d 5cd7 2d3e fcff e13a cf98 b93c
0.20310098 0.0028692202 -0.019140543 0.037371747 0.10467777 0.2514303 0.15895699 0.062932625
-0.026285091 -0.08399851 0.07149625 0.0013390442 0.22843447 0.2020876 0.06496934 0.12356641
0.056393303 0.18963286 0.06531234 0.123479135 0.12527011 -0.063060835 0.20843312 0.1564578
-0.088968985 0.040758464 0.092067204 -0.013379888 0.031431876 0.16976684 0.0017242427 0.022655873

decoder.1.running_mean f4 [32]
00000000: dfa3 813c 499d 10be 6808 1abe e20e 54be
00000010: 777a 97be b0a6 0cbe d546 4d3d 619e 86be
00000020: 8e33 9abe 251e b8be ba86 3ebe 27be 813d
00000030: 78aa b1be 6e95 ebbd 404d b7be 6dec bd3b
00000040: 9a7e e7bd 7539 f5bb 6c2c 433d 0689 37be
00000050: 2996 87be 2e68 76bd 69e4 04bc d744 9b3d
00000060: 0fdf 9c3d c483 e1bc c933 bc3d e3fc 12be
00000070: 9fe4 d4be ec7d 413c a6c2 8ebe 319e 96be
0.01582521 -0.141225 -0.15042269 -0.20708802 -0.2958562 -0.13735461 0.05011638 -0.2629271
-0.30117458 -0.35960498 -0.18606082 0.06335097 -0.3470037 -0.11503111 -0.35801125 0.0057960064
-0.11303444 -0.007483656 0.047649786 -0.17923364 -0.2648175 -0.060157947 -0.008111098 0.075814895
0.076597326 -0.027528651 0.09189565 -0.14354281 -0.41580674 0.011809807 -0.2788288 -0.29417565

decoder.1.running_var f4 [32]
00000000: 8ccf 8d3e 4f35 903f ea62 5d3f d5f9 903e
00000010: edc8 353f 4933 153f d77d 673f 90e7 1b3f
00000020: 5bed 373f 1ba0 7c3f 5eff 363f d193 5f3f
00000030: 50b3 553f 95d8 363f d4f4 6e3f 4b21 3e3f
00000040: 0a18 1b3f d8f2 f93e 46a5 3a3f efe1 c53e
00000050: c1a3 4e3f c25e 353f 4e2a fc3e adbc 8e3e
00000060: c623 df3e fa32 223f f33f 353f 2c94 883f
00000070: f585 b53f 4b2f 333f a6f7 9f3f 0c62 5b3f
0.27697408 1.1266268 0.86479056 0.28315607 0.71009713 0.5828138 0.9042639 0.6090021
0.7184655 0.986818 0.7148341 0.87334925 0.83476734 0.7142423 0.9334233 0.7426955
0.60583556 0.48818088 0.7290844 0.38648936 0.8071862 0.70847714 0.49251026 0.27878323
0.4358198 0.63359034 0.70800704 1.0670218 1.4181505 0.6999404 1.2497451 0.8569648

decoder.3.weight f4 [32, 16, 3, 3]
00000000: 3dc3 72bc baba 4a3d cf9e 52bc c214 483c
00000010: e08d b33d 2b0d 99bd e8f4 b33c e4e6 5f3d
00000020: c468 98bd 157c df3b c7e4 243d 871c 26bc
00000030: fb5f 93bc 15a4 b33c 2b05 edbb a7d0 3e3b
00000040: 1230 2ebc d3ce d23c 1199 873c 9e83 af3c
00000050: 615d e33c 8e17 013d 84c0 243e 12b6 55bd
00000060: b892 cfbb bb95 5a3d e086 8bbd a094 d8bc
00000070: 691e adbc 6c31 05bd f8f3 b53c 6124 84bd
00000080: 449b ca3c 201b 1cbd 0181 2cbc e159 9e3b
00000090: 92b3 243d 8a15 843d 1c29 613d 005d 0b3d
000000a0: 14cd 97bd f6fb 3a3d 95f9 8abc 11d7 1abd
000000b0: 1051 853d 9959 3d3c a34a 87ba 39bc 0c3d
000000c0: 1425 8f3b 72d7 5d3d 435f bb3d 4427 5ebc
000000d0: dd43 013d b077 88bd b6a2 923b 0d39 6a3d
000000e0: 4821 d43b 299b 1e3d 6c74 033e f08a 53bd
000000f0: 6dae 3abc cb83 d63c f888 02be 8133 103c
00000100: c323 d73c 6e02 e6bc abce 0bbd 0d77 3ebc
00000110: acb0 263d 53db 8cb9 bfc9 bdb9 ccd6 d2bc
00000120: 9423 5bbc 841b 2f3d 0f62 48bb 13a4 d03c
00000130: 72a9 41bd d2d8 f23b 6054 b9bb 54db 43bd
00000140: cc30 203d 8e4e 8ebb 11a5 12bd e8eb 86bc
00000150: 79cd 153d 11fa 73bd 6e41 4abd 6b1a f0bc
00000160: b03e d73b d0dc 4a3d eaba 613c 8719 0bbc
00000170: 101b b6bc bc39 2fbd 218f 1abd ba34 103d
00000180: 6f33 c13c c5f4 d3bb 4a53 893d d1ef 27bb
00000190: a578 d33b bb5e e5bc 0299 0b3d b1cb ce3d
000001a0: 0ecd c73d f22f 743d 66bb 873d 2153 08bd
000001b0: e4c4 f03b 1f66 ff3a b977 97bc e194 be3c
000001c0: cfcb f63d 8785 8d3d 7c84 523d d6c1 1e3d
000001d0: 956d 07be dd1c 34bc b868 313d a0fc 083c
000001e0: f4c1 963c 1d2b 9fbd 000f afbc cfb5 053d
000001f0: b7b6 053d 2d67 a9b8 e684 46bc b4e0 b13c
00000200: 5f40 8a3c 3096 703c 4593 0dbc 7210 9cbc
00000210: 693c 6e3c da26 08bd 8ba6 803d 59a5 9abc
00000220: 4687 11bc 3176 af3c 9549 583b d9bd 8c3d
00000230: 704c 6f3d 77b6 9f3b 9660 393d 0e37 1abd
00000240: c279 9cbd 2a77 403c 9fa7 313d ffe1 85bc
00000250: 0849 7bbd 95d9 c9bd 89f7 4fbc 045a c1bd
00000260: a411 a7bc 4ed2 193d 7b07 b83d 26ac 493d
00000270: b5c5 193c b5df 733d fa45 843d 7f94 4ebd
00000280: 55c6 453d b594 7d3d 11c4 3cbd e00c e5bc
00000290: 5edf 863d 05c7 9b3b bc8d 82bc e11f 31bd
000002a0: 6dce 4f3c c20d 83bd f66c d1bd fda7 ff3c
000002b0: f186 7b3d 01d8 3fbd d187 a43a 1e58 d83d
000002c0: e27d 3a3d 0fc5 4ebd 9b93 b63d 8bec d73d
000002d0: d1b2 4d3c 5f17 f13c d809 e13c 783b 1bbd
000002e0: 928a 10bb dcc5 b53c d19e 81bd 256c 00bc
000002f0: cfe4 623c 7eb5 cebc 352a 7cbd f985 17bd
00000300: 0e13 debc 297f 64bd 5278 8ebb 6819 a1bc
00000310: 9e87 96bc a748 eabd c9bb 95bd 1ff7 2e3d
00000320: 8caf b6ba 7463 0fbd 8e23 aabb a476 0abc
00000330: a659 133d 77dc a33b e5f8 e5bd 9fa7 30bd
00000340: babd 36bd ff2d 43bd a024 b7bd d700 11bd
00000350: fee3 223d beb5 cfbc 09d5 933d 8e4c d33c
00000360: 39ae 8f3d 2543 703b 488a 9c3d f3bb 083c
00000370: 0a06 ca3d 3a2c a83d 57dd 57bd 3c1f 953d
00000380: 1047 fe3d f8a3 543d 5282 34ba 10c5 ffbc
00000390: fc91 82bd bd8a 5b3d cdc2 81bb 2747 90bd
000003a0: d59d c33d de7c d43d 5109 49bc 4336 9dbc
000003b0: e4a3 96bd 30ac 3dbc a404 f8bc 637e e53c
000003c0: 20e9 a8bc dced 443c f8da 9c3d dc2e 01bd
000003d0: e0c1 febc a961 71bd 16e4 03bd 114e 50bd
000003e0: 7d99 cf3c c2ef 2d3c ed4e a8bc b9ab e3bd
000003f0: 6e38 213d 05f0 e9bc ade5 0c3c 7727 aabd
-0.014817056 0.049494483 -0.012855246 0.01221198 0.08767295 -0.07473215 0.021967366 0.054663554
-0.074418575 0.0068202117 0.04025724 -0.010138637 -0.017990103 0.021928826 -0.007233282 0.0029116066
-0.010631578 0.025733387 0.01655248 0.021425065 0.027754487 0.031516604 0.16089064 -0.05217559
-0.006334629 0.05336545 -0.06812835 -0.026438057 -0.021132665 -0.032517835 0.02221106 -0.06452251
0.02473224 -0.038111806 -0.010528804 0.0048324917 0.040210314 0.06449421 0.054970846 0.03402424
-0.074121624 0.045650445 -0.016964713 -0.03780276 0.06509602 0.011557006 -0.0010321926 0.03435919
0.0043684337 0.054160543 0.09149029 -0.013559166 0.03155886 -0.066634536 0.004474963 0.057183314
0.006473694 0.03872219 0.1283738 -0.051646173 -0.011394125 0.02618589 -0.12747562 0.008801342
0.02626217 -0.02807733 -0.03413264 -0.011625064 0.04069583 -0.0002686629 -0.00036199202 -0.025737189
-0.013375182 0.04275085 -0.0030576026 0.025468862 -0.047280736 0.007411101 -0.0056558102 -0.04781659
0.039109036 -0.0043428605 -0.03580195 -0.01646991 0.036572907 -0.059564654 -0.049378805 -0.029309472
0.006568752 0.04952699 0.013777474 -0.008489973 -0.022229701 -0.04277967 -0.037734155 0.035206534
0.023584096 -0.006468388 0.06705339 -0.002562512 0.006453591 -0.027999273 0.034081466 0.10097445
0.09755908 0.059616037 0.0662754 -0.033282403 0.00734769 0.001948539 -0.018489705 0.02326435
0.12050592 0.06910234 0.05139588 0.038759075 -0.13225396 -0.01099321 0.04331276 0.008361012
0.018403031 -0.07771895 -0.021369457 0.03264409 0.032644954 -8.077766e-05 -0.012116646 0.021713592
0.016876398 0.014684245 -0.008641069 -0.01905081 0.01454077 -0.033240177 0.062817656 -0.018877672
-0.008882349 0.021418663 0.0033002843 0.06872148 0.058422506 0.0048740464 0.045258127 -0.03765016
-0.07640411 0.011747161 0.043372747 -0.016343115 -0.061348945 -0.098559536 -0.012693294 -0.09440997
-0.020394154 0.037554078 0.08985802 0.04923644 0.009385516 0.059539516 0.064586595 -0.050434586
0.048284847 0.061909396 -0.04608542 -0.02796024 0.06585573 0.0047539496 -0.015936725 -0.043243293
0.012683493 -0.063991085 -0.10225861 0.031208033 0.061407987 -0.046836857 0.0012552683 0.10563682
0.045530207 -0.0504809 0.08914872 0.10543164 0.01255484 0.02943009 0.027470514 -0.03789851
-0.002205525 0.022189073 -0.0632912 -0.007838284 0.0138484975 -0.025233027 -0.06156369 -0.036993
-0.027108695 -0.055785332 -0.0043478394 -0.019665435 -0.018375214 -0.114396386 -0.07311208 0.04271614
-0.0013937815 -0.035006955 -0.0051922267 -0.008451138 0.035974167 0.0050006467 -0.112291135 -0.043128606
-0.04461453 -0.047651287 -0.089425325 -0.03540119 0.03976821 -0.025355216 0.072183676 0.02579334
0.07015652 0.0036661115 0.076435626 0.008345592 0.09864433 0.082115605 -0.05270132 0.07281348
0.12415898 0.051914185 -0.00068858743 -0.031221896 -0.063755006 0.053599108 -0.0039599896 -0.07044821
0.095515884 0.10375379 -0.012270288 -0.019190913 -0.073554784 -0.011576697 -0.03027565 0.028014367
-0.020618975 0.012019601 0.076589525 -0.03153883 -0.031098306 -0.058931027 -0.03219994 -0.0508557
0.025341744 0.010616245 -0.020545447 -0.11116738 0.039360456 -0.028556833 0.008599681 -0.083083086

decoder.3.bias f4 [16]
00000000: 6321 be3b 2e11 07bd 22f8 95bd 7ef6 423d
00000010: bb69 0fbc 2649 9dbd 4d99 0d3d 0347 5e3d
00000020: 7950 23bc 7b71 55bb 01ae 9a3c e410 78bd
00000030: 5750 7abd 85ab 9e3d cb73 d83c 13bf 783d
0.00580232 -0.03297537 -0.07322718 0.047598355 -0.008753235 -0.076799676 0.034570027 0.05426694
-0.009967917 -0.003256886 0.0188818 -0.060562983 -0.061111774 0.077475585 0.026422402 0.060729098

decoder.4.weight f4 [16]
00000000: 9566 8b3f be14 923f 0906 893f 3f5c 8b3f
00000010: 3773 7e3f 8dfa 8f3f 877f 833f dd27 8c3f
00000020: ce8c 8d3f 4fa1 8e3f 4c39 853f a75c 823f
00000030: 2466 813f 7b66 873f 466f 773f 4d97 8b3f
1.089068 1.141258 1.0704967 1.0887526 0.99394554 1.1248337 1.0273293 1.0949665
1.1058595 1.1142977 1.0408111 1.0184525 1.0109296 1.057815 0.96654165 1.0905548

decoder.4.bias f4 [16]
00000000: 0d49 0c3e 9f5d 263e 5d82 0d3e a595 023e
00000010: 3999 aa3d 77f4 1b3e bfab b43d 5f8a 973d
00000020: 6ded 203e 1f1a 133e e4ae 863d 9f97 503d
00000030: 2285 953d 62bc 843d 3774 c83c 1b8c 043e
0.13699742 0.16246651 0.13819261 0.12752397 0.08330006 0.15229975 0.088218205 0.07399439
0.15715571 0.14365433 0.065763265 0.050925847 0.07300784 0.06481244 0.024469478 0.12944071
