models/ae_conv_conn7.pth (torch, 203766 bytes, 32 tensors)

encoder.0.weight f4 [16, 3, 3, 3]
00000000: d32e 1bbe 705e e7bd 8908 cb3d d572 633b
00000010: 989f 573e fd1d 133e 6173 d43d 724e dcbd
00000020: 7b0b 073e 5c86 7d3d 0a57 373e cc6d 013d
00000030: 0502 d03d 1394 e93b 6b5d 0e3e f6d1 103e
00000040: 1239 fb3d b5ad 2cbd 39bb 2abe 4c27 2bbe
00000050: 8bc2 0ebe 1630 433e 8f1d c8bd 259e 003e
00000060: 0e31 253e a1cf 05be 438a 6f3d 480e b13c
00000070: 9d5c 12be 0b24 83bd 4643 f93d 5b6e e9bc
00000080: d87e 1dbe 27a1 7a3d 0a15 e3bd a860 4b3d
00000090: fe04 623b 1573 113d b136 0f3d 6a5a 47be
000000a0: af48 e8bd 71f8 273e 9497 bcbd 42f1 3c3d
000000b0: d82e 9cbd f665 193e 2af3 2cbe f6db 123e
000000c0: b7f6 49be c28d 28bd 60e2 d63c fc4a 3c3e
000000d0: ed11 82bd 384e dfbd 3e72 3abe 44d3 c03d
000000e0: 25dc 7e3c 7ce6 91bc 80af bf3d 27d0 b03d
000000f0: 38b7 c03b ddef 003d e1e1 533d bee6 e0bd
00000100: 78df 1b3d 8fdd 77bd cd63 a83d f189 e13d
00000110: a7c5 2abe 65e1 2d3e 83c7 c4bc c32d ed3d
00000120: a426 3fbd af22 2f3e aa08 46bc 78b2 1ebe
00000130: b11a 443e e8ab cabd ef0d 2dbd 1a46 2a3e
00000140: 94f4 543d 40f7 84bd e3cb afbb 6516 ca3d
00000150: a86d 263d b6bd a33c d53b c7bd 6d60 123e
00000160: 3643 49be b477 0b3e 7d52 38be b500 1f3b
00000170: 372f d9bd ca3b 30be 2f52 22be ceca 27be
00000180: e445 193e 6da2 dcbd 56db b63d 4305 48bd
00000190: bbbf 28be 16ca 24be a9fa 0b3e 60b3 ea3c
000001a0: 72f7 40be 755e beba b6b5 b63d 216f a43d
000001b0: 8a34 943d 5f96 f8bb eb6d 1bbd e9cc 2a3e
000001c0: 7d16 c0bd 9e26 03bd 00b6 22be 158b 643d
000001d0: 8bf3 203c ea26 f1bd 5cb2 9ebc a9e2 16bd
000001e0: 8a79 163e e20e 243c f8e9 72bd 96cd 413d
000001f0: 721e 30be 20fd ad3d 019e d33d cf8f 0b3c
00000200: 9a10 09bd 7569 b0bd 4062 ff3d f3d2 47be
00000210: 5f39 22be cc0c 3dbe 9368 223d 32f3 953d
00000220: 80fa 703d 05c8 de3d f3d8 71bb f6fa 0abc
00000230: 683a c33d f3df 9ebc 4f91 393e a3ea adbd
00000240: ac04 72bd 0f37 1e3e 04fa aabd 40f8 8d3d
00000250: 90fe b0bd fb19 3b3d 4251 24be fb1c d6bd
00000260: 81cb 45bb 6628 e1bd c274 4e3d e61c f23d
00000270: 4bca f8bd 1b60 2ebe 22f5 e03d 543f 9fbd
00000280: 80dc 3d3d 28aa f13d a5a1 19be 4cff 1ebd
00000290: 3766 07be 810f f9bd 6516 453d c83b 23be
000002a0: 5f8c ffbd 2a62 56bd c758 95bd 5bd5 4abd
000002b0: b331 cebd df13 ac3d 5470 1d3e 4330 243e
000002c0: 23b4 363e 2668 d13d c829 173e 061d c7bd
000002d0: c0a6 373d ba12 5f3c 2ae7 9dbd bd08 493c
000002e0: 61e4 983d 8c18 133d 0e71 143e a5aa 403e
000002f0: c1f5 dc3d f997 9fbc ad3f 22be 3639 44bc
00000300: 8aca 363c 5098 5bbc 1c84 b13d 4f21 17be
00000310: d970 0a3e d255 413c 7e44 f4bc 7c7d 87bd
00000320: ef4d 14be 2f00 e53b 9270 81bd 821f 04be
00000330: d4c2 61bc 8597 0e3e 23f0 223e 7f66 73bd
00000340: 3536 ecbd 99a8 053e e1c7 783d 508c 1e3e
00000350: 351c 663c f7f4 c63d 2d61 f4bd 11ef 92bd
00000360: f2d8 2abe f444 143d 0fc9 b93c fedc fbbd
00000370: b9d8 d03d 2714 53be 6619 623d f8af 8fbd
00000380: 4a9f 0bbd 7433 b13c dbfc 47bd 62c1 60bd
00000390: 699c 48be 59f4 d1bd 70c4 3a3d 6fa6 2fbc
000003a0: 3066 813c ca9f 893d f4fe 053c d2b5 89bd
000003b0: 8a79 153d b9a2 253d 7c3b 2a3b 3155 5cbe
000003c0: f831 fabd d354 ebbd 2fbb 14bd 2416 8ebc
000003d0: 74a9 00be e330 233d d788 aabc 13d6 82bd
000003e0: aae8 34be d53d a23d 76c9 84bd 34cc 0b3d
000003f0: 0bae 8b3d 92c9 9ebd b60b 5dbd 7752 86bd
-0.15154581 -0.112973094 0.09913737 0.0034705896 0.21056974 0.14366908 0.10373569 -0.1075715
0.13187973 0.061895713 0.17904297 0.03159885 0.10156635 0.0071282475 0.13902824 0.14142594
0.12266745 -0.042157847 -0.16672982 -0.1671421 -0.139414 0.19061312 -0.09771263 0.12560327
0.16131994 -0.13067485 0.058481466 0.021613255 -0.14293142 -0.06403359 0.121710345 -0.028495004
-0.15380418 0.061188843 -0.11087997 0.049652725 0.003448784 0.03551014 0.034964267 -0.19468084
-0.11341988 0.16403367 -0.09208599 0.04612852 -0.07626122 0.14980301 -0.16889635 0.14341721
-0.1972302 -0.041150816 0.02623099 0.1838798 -0.06351075 -0.10903591 -0.18207642 0.09415296
0.015555416 -0.017810099 0.09359646 0.08633452 0.0058812164 0.03147875 0.051729087 -0.109815106
0.038054913 -0.06051403 0.082221605 0.11012638 -0.16676961 0.16980512 -0.024020916 0.11580994
-0.04666771 0.17103074 -0.012087027 -0.15497768 0.19150807 -0.0989607 -0.042249616 0.16628304
0.05199106 -0.06492472 -0.0053648814 0.09867553 0.04063192 0.019987922 -0.09728209 0.14294596
-0.19654545 0.13619882 -0.18000217 0.0024261896 -0.10604709 -0.17210308 -0.15851663 -0.16385958
0.14968067 -0.10773168 0.08928554 -0.048833143 -0.1647939 -0.16092715 0.13669838 0.028649986
-0.18844393 -0.0014524 0.08921377 0.08029009 0.072365835 -0.007586285 -0.037946623 0.1667973
-0.09379289 -0.03201925 -0.1588974 0.0557967 0.00982369 -0.117750004 -0.019372158 -0.036837254
0.14694801 0.010013314 -0.05930516 0.047315203 -0.17199114 0.084955454 0.10332871 0.008518173
-0.033463098 -0.08613864 0.124699116 -0.19514064 -0.15842198 -0.18461913 0.03965051 0.073217764
0.058832645 0.108779944 -0.0036902993 -0.008482685 0.095326245 -0.019393897 0.18121837 -0.08492019
-0.059086487 0.1545069 -0.08348468 0.069321156 -0.08642304 0.045679074 -0.16046622 -0.10454746
-0.0030181112 -0.109940335 0.050404318 0.11821918 -0.12147959 -0.17028849 0.109842554 -0.07775751
0.046352863 0.11800033 -0.15003069 -0.03881769 -0.13222586 -0.1216116 0.04811706 -0.15940773
-0.124779455 -0.05233971 -0.072923236 -0.049519878 -0.10068073 0.084022276 0.15374881 0.16034035
0.17842154 0.10224943 0.14762032 -0.09722333 0.04483676 0.013615305 -0.07710107 0.01227015
0.07465435 0.03591208 0.14496252 0.18815096 0.10789061 -0.019481646 -0.15844603 -0.011976531
0.0111566875 -0.013403013 0.08667776 -0.147588 0.1351961 0.011800246 -0.029817816 -0.06615731
-0.14482854 0.0069885473 -0.06320299 -0.12902644 -0.013779361 0.13924988 0.15911917 -0.05942392
-0.11533777 0.13052596 0.060737494 0.15483212 0.014044811 0.09714692 -0.11932597 -0.071745045
-0.1668432 0.03619857 0.02267888 -0.1229801 0.101975866 -0.20613156 0.055200003 -0.07015985
-0.034087457 0.02163098 -0.048825126 -0.054871924 -0.19590916 -0.10251684 0.045597494 -0.010720833
0.015795797 0.067199305 0.008178461 -0.067241326 0.03649286 0.040438388 0.0025975397 -0.21516873
-0.12216562 -0.11490788 -0.036311325 -0.017344542 -0.12564641 0.039841544 -0.020817203 -0.06388488
-0.1766688 0.0792195 -0.06483738 0.03413029 0.068203054 -0.0775329 -0.053966247 -0.06558698

encoder.0.bias f4 [16]
00000000: 8271 a1bd 8d73 c9bd 10cc b3bd 4321 453d
00000010: 5a7e ab3d 94c7 393e d728 00be 29ef 66bc
00000020: 721d d13d eda9 793d 5d2c 1ebe 7c89 3cbe
00000030: 5ddd 5ebd 73ff 12be 4e42 bc3d 53f5 2cbe
-0.07882978 -0.09836493 -0.08779156 0.048127424 0.08373709 0.1814254 -0.12515579 -0.014095106
0.102106944 0.06095307 -0.15446611 -0.18411821 -0.054410327 -0.14355259 0.09192334 -0.16890459

encoder.1.weight f4 [16]
00000000: e6c3 7f3f 46b0 803f ae5b 813f 5550 873f
00000010: 150d 7f3f 8d91 733f 8e51 7f3f 0f69 7b3f
00000020: c96e 7f3f 2db5 883f a291 813f aed5 803f
00000030: 675f 773f 7006 803f 2831 813f fa99 783f
0.9990829 1.0053794 1.0106103 1.057139 0.99629337 0.9514397 0.9973382 0.9820718
0.9977842 1.068029 1.0122569 1.006521 0.9662995 1.0001965 1.0093126 0.9710995

encoder.1.bias f4 [16]
00000000: 21a2 733d f88e 043d c387 4b3d 9181 863d
00000010: d85f 063c fa91 433c 218f a43d 69d3 0f3c
00000020: 5c2d ef3b 0f82 2d3d 81c3 1c3c 17af 653d
00000030: a0da 1c3d d383 2a3b 1814 4f3d fa6e 1a3d
0.05948079 0.032362908 0.04969002 0.065676816 0.008201562 0.011936659 0.08035112 0.008778431
0.0072991084 0.04236036 0.009568096 0.05607518 0.038294435 0.0026018515 0.050556272 0.03770349

encoder.1.running_mean f4 [16]
00000000: 4322 863e f396 98be 883f e83d b1dd 82be
00000010: 41bc e3bd 62a0 6e3e 9758 87bb c6bf 8fbd
00000020: 4495 a1be 1aaa a3be 234e cabe 6a0a d83e
00000030: 698c 70bc c5bc 97be b30c e13e 4711 19bd
0.26198015 -0.29802665 0.113402426 -0.25559762 -0.11119891 0.23303369 -0.004130434 -0.07019
-0.31559193 -0.31965715 -0.3951274 0.42195445 -0.014681914 -0.29636207 0.43955 -0.037369993

encoder.1.running_var f4 [16]
00000000: b174 5c3d 0af8 963c 9cc5 ac3c cd5f 373d
00000010: 924b 8d3c 39f4 ab3b 690b 253c e9ae 793b
00000020: 5c48 993d 63e6 803d 78c5 dd3c 1ab3 223e
00000030: c495 963b d812 2a3c 5b73 613d 778f 2a3c
0.053822223 0.018428821 0.021090321 0.044769097 0.017247949 0.0052476195 0.010073521 0.003809864
0.074845046 0.06293943 0.0270717 0.15888634 0.00459549 0.010380469 0.055041652 0.010410181

encoder.3.weight f4 [32, 16, 3, 3]
00000000: f3bf 44bd d59e 8a3d 3434 6fbd a041 aabc
00000010: b093 b1bd 583f 19bd 7fa2 ee3c f3a3 6f3d
00000020: 6e91 1f3d a935 d23c a160 883c da38 8cbd
00000030: be8b 41bd e5c0 d93d 0fc0 93bc 0acb 29bd
00000040: 164a e63c 4bfb a83c be84 42bd fcad 643d
00000050: d3fd a73d d790 67bc 75b7 b1bd 6b82 703d
00000060: 885c 963c b621 5ebd d589 cb3b 4ef7 583c
00000070: 7ee7 443d f449 7cbd 9c64 8abc 4233 703c
00000080: 6025 52bd 3d87 973a 93e8 a33d 33a0 363d
00000090: e7b6 6ebd eba1 f03b ede0 843d 0f45 7f3d
000000a0: 7492 1b3d bb4e 843d d781 babc 016e f6bc
000000b0: 35af 383d 9c30 4dbd fc0b 593d 48fe fa3b
000000c0: f30f 30bd a7de bd3c b178 d2bc e0c7 ce3c
000000d0: 901c 82bd 2ceb 35bd 7fd9 78bd dfdc 6e3d
000000e0: 2491 41bd 13bf 173d ac60 09bd 52c3 703c
000000f0: 485f 02bd 93ca c23c 0bb0 a13d e87c 3fbd
00000100: f0ff 99bd f5a1 0b3d 414e 8a3d 691b 6f3d
00000110: 57b5 b53d 9a3d 39bd 8ff0 c73d 8673 7a3d
00000120: 9790 ad3b ac5e 233d cfc4 11bc 6343 943c
00000130: 1ff0 5c3d 415c 86bd 4deb 57bc dff2 b139
00000140: c6f5 6d3c dde0 54bd c735 6e3d ad85 f83c
00000150: 8692 643d 464e df3d de9b 1abd f2fe 293d
00000160: d529 163d 07ad a2bb 4442 5a3c ecf1 0d3d
00000170: 5602 b13d df8f 2e3d 9006 043e 055f a23c
00000180: 5056 cb3b fe92 023c 01aa 65bd c179 ac3d
00000190: b060 1a3d a2f0 4d3b 1763 4dbd fa26 a2bd
000001a0: 8610 4b3d 909f 74bd 9cd2 823d f710 2b3d
000001b0: e94e 283c 787f 8f3d efdc 693b 8edd dd3c
000001c0: 4c8e cabc 800c 26bc 5a90 92bd 04e0 953d
000001d0: 7c4b 533d 100d 813d 517e 1d3d 4cf9 a03d
000001e0: e12f d2bc 1118 043b bf45 b23d 721c 443d
000001f0: dd31 a43b 3638 04bd a9ef d9bc 1bba 6fbb
00000200: daa5 973d 0ce0 77bd b80e 68bd 6a6e 5bbd
00000210: a800 9e3c bf21 213c 020b 633d fae6 223d
00000220: c6d1 a73d b808 b7bc 4b76 823d 375c 6dbb
00000230: 430e 80bd 7e13 1e3d 086d 673d 0a01 0d3b
00000240: 97ad 743b 0183 663c 93ac ae3d 3775 443d
00000250: 7f3d 2abd b9bc 63bd efac b33d e282 9a3d
00000260: f342 2039 c574 99bd 5e5d 24bd dfb9 1d3d
00000270: 10e6 883d 93d4 9ebc 013d bf3d a7a7 55bd
00000280: 835f ad3a dc14 a33d 5aa3 f43c c0f9 acbd
00000290: 8356 803d 2861 743d 1eb4 d33c 307f 993d
000002a0: 3d55 10bc 4e33 c4bc fb81 3dbd 5967 043d
000002b0: 4d52 843d 8c3a 9c3b 544f 9f3a 6097 dc3d
000002c0: 2b0f 843d 5076 b2bd be24 af3c e2af 263a
000002d0: 740c 303d cafc 1c3d 343e be3d 6d4c 123d
000002e0: c46d 2cbb 4986 d33d ba2c cc3b 94a7 b43d
000002f0: 2784 7b3c 4b01 a13d 1392 213d 32b9 763d
00000300: 7468 8abd b811 95bd c454 d7ba f498 863c
00000310: a99f 1b3d 0f7e 233c d40a 2e3d c675 f03b
00000320: c123 3dbc d4f3 753d e6b5 2b3d 97d5 97bc
00000330: 6b31 80bc 2026 f83c 591a 0c3d 8340 a03c
00000340: 8962 0ebc a994 283c b2a0 f23c 3dd9 193d
00000350: c01a 693b 5661 5cbc 9ee4 333c 1e72 6b3d
00000360: 0863 973d 0886 25bd 7340 b93d bfec 86bd
00000370: 8038 8d3d 4a4f 6d3d 316b 943d f68c 8bbd
00000380: a6a1 b33c 872b 0a3d 4ba6 01bd 1b8c 9fbc
00000390: 3015 84bd db81 633d 0bbd e13d 8628 6e3d
000003a0: 13b8 5cbd 9a61 553d 66dc e2bb c905 9e3d
000003b0: 16cb 82bc e326 bfbc 2dfb 343d 015c 8f3d
000003c0: cced 263c d8e1 4dbc 077e ad3c 7130 813d
000003d0: 05a3 babc 2859 bb3c 21df 2dbd d02b 06bd
000003e0: 60c7 a73d b818 0fbd ec91 2fbd 7926 5cbd
000003f0: a4bc e53c 5410 03bd 17dd 1cbc 98b1 92bd
-0.04803462 0.06768576 -0.058399394 -0.020783246 -0.08670747 -0.037413925 0.029130219 0.058505964
0.038957052 0.025660353 0.016647639 -0.06846781 -0.04725241 0.10632495 -0.018035917 -0.0414534
0.028111499 0.020627638 -0.047489874 0.055829987 0.0820271 -0.014133654 -0.0867757 0.058718126
0.01835467 -0.054231368 0.006211499 0.013242556 0.04807233 -0.061593965 -0.016893677 0.014660658
-0.051305175 0.001156069 0.080033444 0.04458637 -0.058279898 0.007343521 0.06488214 0.06232172
0.037981465 0.06460329 -0.02276699 -0.03008175 0.045088965 -0.050095186 0.052989945 0.007659707
-0.04298396 0.023177458 -0.025692316 0.025241792 -0.06353104 -0.04441373 -0.060754295 0.058316108
-0.047257558 0.037047457 -0.03353946 0.0146950055 -0.03182915 0.023778236 0.07894906 -0.04674998
-0.07519519 0.03409 0.06753207 0.05837575 0.088724785 -0.045224763 0.0976268 0.061145328
0.0052967775 0.039885208 -0.0088970205 0.018098539 0.053939935 -0.06560565 -0.013178659 0.00033941024
0.014523929 -0.05197226 0.058156755 0.03033718 0.0558038 0.10903601 -0.037746303 0.0415029
0.036660988 -0.004964474 0.013321463 0.034654543 0.08643024 0.042617675 0.12893128 0.0198207
0.0062053576 0.007969616 -0.05607033 0.0842166 0.037689865 0.0031423946 -0.050143328 -0.079175904
0.049576305 -0.059722483 0.06387827 0.041764226 0.01027272 0.070067346 0.0035684665 0.027083185
-0.024726056 -0.010134816 -0.07156439 0.07318118 0.05158566 0.063013196 0.038450543 0.078600496
-0.025657596 0.0020155946 0.08704709 0.04787869 0.005010827 -0.03228017 -0.026603537 -0.0036579433
0.074046806 -0.060516402 -0.056654662 -0.053572096 0.019287422 0.009834706 0.05543042 0.039771058
0.08194308 -0.022343025 0.06370219 -0.0036218294 -0.0625272 0.038592808 0.056500465 0.0021515512
0.0037334913 0.01406932 0.0852901 0.047963347 -0.041562553 -0.0555999 0.08773219 0.07544495
0.0001528373 -0.07492975 -0.040128104 0.03850734 0.06684506 -0.019388473 0.093378074 -0.05216184
0.0013227317 0.07962963 0.029863048 -0.084460735 0.06266501 0.059662968 0.025842723 0.07494962
-0.008809385 -0.023950245 -0.046266537 0.032325123 0.0646101 0.0047677215 0.0012154379 0.1077106
0.064482056 -0.087139726 0.021379825 0.0006358606 0.042980626 0.038327016 0.09289208 0.035717417
-0.0026310543 0.10328347 0.0062309178 0.088210255 0.015351332 0.07861575 0.039445948 0.06023521
-0.06758204 -0.0727877 -0.001642846 0.016430356 0.03799406 0.009978785 0.042490795 0.0073382584
-0.011544169 0.060046986 0.04192152 -0.018534465 -0.015648564 0.030291617 0.034204815 0.019562012
-0.008690485 0.01028935 0.029617641 0.03756069 0.0035568923 -0.013450941 0.0109798 0.057481878
0.073919356 -0.040411025 0.09045496 -0.065881245 0.06895542 0.057936944 0.07247008 -0.068139955
0.021927666 0.033732917 -0.03165273 -0.019475987 -0.06449354 0.05554376 0.11022385 0.058144115
-0.053886484 0.052095033 -0.006923246 0.07715947 -0.01596598 -0.023333972 0.044184852 0.0699997
0.010188531 -0.012566052 0.021178259 0.063080676 -0.022782812 0.022869661 -0.04244912 -0.032756627
0.08192325 -0.034935683 -0.04286377 -0.053747628 0.028044052 -0.031997994 -0.009574196 -0.071627796

encoder.3.bias f4 [32]
00000000: 500e 3abd 5a45 87bd c4b4 a53d 1f74 893d
00000010: 443b 87bd 1280 e0ba 0130 673d 10d7 8e3d
00000020: ccb6 99bd 7b7d 61bd 3930 933c 261b 8c3d
00000030: efe3 223d 377e 853d 830c a73d 00fa a1bd
00000040: a710 c2bc 4581 373d 55c5 883c bd7e e43c
00000050: d6c9 61bd aff0 86bc 96f5 9a3d 7de4 92bb
00000060: 73a1 453b ff51 f63c d230 873d 0f09 a73c
00000070: 9c09 83bd 142a 92bd ce5f 4939 f563 463c
-0.045423806 -0.06605025 0.08091119 0.067116015 -0.06603101 -0.0017128012 0.056442264 0.06974614
-0.07505569 -0.055051308 0.01796733 0.06841116 0.039768156 0.06518214 0.08156683 -0.07909012
-0.023689581 0.044801015 0.016695658 0.027892465 -0.055124126 -0.016472189 0.07566373 -0.0044828043
0.0030156046 0.030068396 0.066011086 0.020390062 -0.06398317 -0.07136932 0.00019204544 0.012108793

encoder.4.weight f4 [32]
00000000: a517 813f fc6b 823f 8920 733f c41d 7e3f
00000010: 3bb1 7c3f 7b86 823f ec3e 783f 31ce 803f
00000020: f2b5 7b3f e511 7f3f 116a 843f feed 7f3f
00000030: d649 813f d7bf 833f f90e 803f 5a3c 7f3f
00000040: a781 803f 36fd 793f 9eea 813f e907 813f
00000050: 268f 7b3f d24f 7e3f 031d 713f 7c3d 803f
00000060: e3d9 7b3f af5a 823f c200 7c3f d211 763f
00000070: c025 843f eaa6 7f3f 818d 833f 90bb 7b3f
1.0085341 1.0189204 0.9497152 0.9926417 0.9870793 1.019729 0.9697101 1.0062925
0.983245 0.9963668 1.0344869 0.9997252 1.0100658 1.029292 1.0004569 0.99701464
1.0039567 0.97651994 1.0149724 1.0080539 0.982653 0.99340546 0.94184893 1.0018764
0.98379344 1.0183924 0.98438656 0.9612094 1.032402 0.99864066 1.0277559 0.9833307

encoder.4.bias f4 [32]
00000000: d077 3f3c 692b 3a3c b488 0e3d 94f9 1e3d
00000010: 57ef 923d ace2 7f3d df57 033d ce8b c93d
00000020: 2922 0f3c bc26 df3c 0f57 0b3d be0b 503d
00000030: 6bbc c33d 8654 0abc 43bb 3d3d 8f3a 863c
00000040: e0d3 8e3d b72d 1e3d 64f7 5a3d 3dc4 e2bb
00000050: a9ec 433c ba60 0a3d 567b 713d ba38 163d
00000060: 9f9a b53c 30cb 023c ab4c 1d3d 0c4b 1d3d
00000070: 614c e13c 8c30 243d 502f e03d 8c3b 273d
0.01168628 0.011362889 0.03479834 0.038812235 0.07174557 0.06247203 0.032066222 0.09841119
0.008736172 0.02724015 0.034018572 0.05079245 0.09557422 -0.0084430035 0.046321165 0.016385345
0.06974006 0.038617816 0.053458586 -0.006920366 0.01195828 0.033783652 0.058955513 0.036675192
0.022168456 0.007983014 0.038403194 0.03840165 0.02750224 0.04008536 0.10946524 0.040828273

encoder.4.running_mean f4 [32]
00000000: e597 203f db16 383f 1b50 193e bdc6 5b3e
00000010: 0ecc cdbe f15c 87be 704d 8fbe 63af 45be
00000020: 9569 33bf b0d2 d2be 2fe4 26be 7a6f e13d
00000030: 33fa 303e 3dd3 683f 5e2d 413e a5cd 43bf
00000040: bd2c d9bd 9ef7 f2bc 04ec 1cbf e597 3f3e
00000050: 9947 00bf aeba 48bc bb49 d83e e4be 24be
00000060: e671 6c3c 85f0 143e 1f7a 44bd 0c9c 34bf
00000070: bf0d 13bf 5f99 08bf f09f 9abe a130 353e
0.6273177 0.71909875 0.14971964 0.21462531 -0.40194744 -0.26438096 -0.27988768 -0.19305186
-0.7008298 -0.41176367 -0.16297983 0.110075906 0.17282943 0.90947324 0.18864962 -0.76485664
-0.10604236 -0.029659089 -0.6129763 0.18710287 -0.5010925 -0.012251539 0.42243752 -0.16088444
0.014431452 0.14544876 -0.047968026 -0.7055061 -0.5744285 -0.53359026 -0.30200148 0.17694332

encoder.4.running_var f4 [32]
00000000: eac4 7f3e 2a36 523e 83db bf3e 0a9c c43e
00000010: cbc2 903e ac17 d33e fc60 da3e 08d4 143e
00000020: ce35 933e fc95 9b3e 3b01 273f cf5a 973f
00000030: 1cc9 9e3e cb7d aa3e f703 b73f 45bf 593f
00000040: 4d51 3c3f cc6b 443e d9f5 d73e c7a6 0f3f
00000050: 587f 843e be22 653f a67d c83d 0253 6b3f
00000060: 0441 0f3f a7a2 523f ef19 b33d 9768 c03e
00000070: f487 ac3f b3c9 cb3e 38b7 9b3e 7184 903e
0.2497746 0.20528474 0.37472162 0.38400298 0.28273615 0.41228998 0.42652118 0.14534009
0.28751987 0.30387866 0.6523625 1.1824588 0.3101281 0.33299097 1.4298085 0.8505748
0.73561555 0.19181746 0.42179754 0.5611386 0.25878406 0.8950614 0.097895905 0.91923535
0.5595858 0.8227944 0.08745181 0.37579796 1.347899 0.39802322 0.30413222 0.28226045

encoder.6.weight f4 [64, 32, 3, 3]
00000000: eeab 713c bab3 8ebd c90b 52bd ab35 c73c
00000010: 9715 0abe 44e8 753c 41d1 17bd 14b2 3bbd
00000020: a91e f83c 19a7 8f3c 0137 c6bc 2d4d cf3c
00000030: a7f6 a63c c4fa 65bd 88ef 023d 15d3 c7bc
00000040: c1c5 2d3c f798 7e3c 4509 0e3c a7cb 1f3c
00000050: 4fd1 643c 7fac 83bc 1383 54bc 6362 703c
00000060: ea5e 1b3d 365f a63c fb1e 78bb b3e2 45bc
00000070: 6fe1 5ebc 3afd 30bd 59a7 03bd 9be4 023d
00000080: b577 a0bd d1ae 7abd 3515 5abd 6d34 86bd
00000090: 8f25 1d3c e28f 923c da87 efbc fa4a 723d
000000a0: 02d4 1fbb 05e1 f6bc 34fd 3d3d b4fd 1bbd
000000b0: d961 753d 448c 95bb d779 a73d 0576 adbd
000000c0: f6f2 70bc 7b47 123d 03dc 41bd 7823 9b3d
000000d0: c2b1 c6bc 677e 4e3c 4de7 71bc a40c 22bd
000000e0: 335c db3c 151d 25bd c64c 523b 2ad0 45bd
000000f0: ea83 80bd 48dc b83c 9a55 afbd 95c9 953c
00000100: 2ecf 023d beb1 fc3b 617f bc3c 129f af3c
00000110: d2fd 6abd a4af ed3c e7c1 13bc 7f86 b23c
00000120: 8559 9f3c 7e96 0fbd 20e3 0c3c ffef ac3a
00000130: 2045 793c 71bd d039 22b7 74bd 3e01 003d
00000140: e320 d73c 569b 3abc 1341 d33c c9c3 5c3b
00000150: ecb1 67bc 412e 343d 17c8 23bd 7a3f da3c
00000160: 4ac9 bb3d 9be1 5dbd a298 953d b189 85bd
00000170: 9939 a73d 4123 553c 58c7 33bd fe0a d53b
00000180: 5f79 f73c 7d03 113d 9fab 823d e48e 233d
00000190: 9ce3 013d 6f2f e3bc 46a9 903c faca a13d
000001a0: 8ad6 373d 0159 5bbd c85d 193d 0708 03bd
000001b0: adb5 4bbb 8e99 ccbc 2060 2fbd 5f4f 0b3d
000001c0: fd33 793d e647 85bb 907b bf3c 7719 bfbc
000001d0: 2051 d3bb 7f27 babc e60a 98bd f25d babc
000001e0: c288 20bc 3271 5cbd e7e1 cc3c 65ca 8e3c
000001f0: 8d3f e2bc 6f45 17bc 6322 51bb 9654 a73b
00000200: 78fb e93c 022e 0e3d 4733 1fbc c4bf 40bd
00000210: 31de 223d fc39 743a 9e6a b1bc 675e 32bd
00000220: 2dc2 5abc 1273 f4bc 8532 c2bc cbc2 33bd
00000230: 2f3d 6fbc 8ef1 2eba 777b 1bbd 4af2 bc3c
00000240: 9da3 023d b3cc 00bc 2577 32bd 8640 36bd
00000250: 45e2 ba3d 72af 95bd 3976 95bc 02b2 53ba
00000260: 9944 333d 43fb 0c3d ee46 163d 411c 8a3d
00000270: 5f79 373d 098f 853c 518f 12bd ba71 eabc
00000280: 2abb 4b39 be06 93bb 90dd e4bb 85b5 ad3d
00000290: 94f1 dfbc 96be 3ebd 77d2 be3c c5c4 74bd
000002a0: 13b5 713c c800 7e3d fdf2 7d3b 83a3 ffbb
000002b0: 3011 f3bc 06f8 dcbc b3a7 73bd a47d 81bc
000002c0: 66de 91bd d083 01bd 5b93 98bc 42e1 ad3c
000002d0: 24c1 1bbd 5992 09bd cc90 c6bc e011 b0bc
000002e0: 220b 8bbd e511 74ba 7d4c 8c3b 3ea3 cd3c
000002f0: 75f9 5cbc d73f 38bd e4eb 7abc 96b2 e7bc
00000300: 0d5e 34bd 1c56 0d3d 5c00 f43c 3153 e13c
00000310: cbb2 2d3d c7a9 293d 9187 97bc 2694 b2bc
00000320: cf94 753b 9a62 2dbd 6742 46bd a6c9 9a3d
00000330: 1e76 1a3c 7239 d73b 226e e63b 4f38 b3bc
00000340: fde5 4b3d 0cc7 0b3d fc90 263d 4c3f 13bb
00000350: 2aed fcba 4d64 78bd 0597 dc3c f8e1 41bd
00000360: 4326 023d 5ec6 c2bd ac24 173d d002 4e3c
00000370: f34d d0bc 461d bdbb a44c abbc c00d 18bd
00000380: 2f1f 12bd 704d b8bc deb8 7bbd c2ef 3f3d
00000390: 8c36 1abd 8c3c a2bd 8bec 85bd 0a96 42bc
000003a0: cc39 aebc c21b 9e3c 487c c6bc 1e27 0e3d
000003b0: 63ab fa3b 3172 1fbd 1f5e 163c 0838 53b9
000003c0: 7125 0b3d 7f7f 1dbd 2509 553b e667 513d
000003d0: 7499 953d cc55 fd3a fa52 7f3c b4ae 883d
000003e0: ccb7 da3b a230 673c 5357 f63c 8d29 3ebd
000003f0: 978e 6ebc b479 80bd 4a41 23bc a0cb 4c3c
0.014750464 -0.06967874 -0.05128077 0.024317583 -0.13484798 0.01500899 -0.037064794 -0.045824125
0.030288057 0.017535733 -0.02419615 0.025305355 0.020381285 -0.05614735 0.031966716 -0.024392644
0.01060623 0.015539399 0.008669202 0.009753144 0.013965919 -0.016073463 -0.012970704 0.014671895
0.037932314 0.020309072 -0.0037860263 -0.012077975 -0.013603552 -0.043210246 -0.032142017 0.031956296
-0.07835332 -0.061201874 -0.05324288 -0.06552968 0.009591474 0.017890874 -0.029239584 0.059153534
-0.002438784 -0.030136595 0.04638405 -0.038083747 0.059907768 -0.00456384 0.08177536 -0.08469776
-0.014706364 0.0357127 -0.04732896 0.075751245 -0.024254683 0.012603379 -0.014764619 -0.039562836
0.026777362 -0.040310938 0.0032089218 -0.048294224 -0.062751606 0.022565976 -0.08561249 0.018284598
0.031935863 0.007711618 0.023009958 0.021438155 -0.05737097 0.029014416 -0.009018398 0.021792648
0.019451866 -0.03505563 0.008599073 0.0013194083 0.015214235 0.00039813996 -0.05974496 0.031251185
0.026260799 -0.011389574 0.025787866 0.0033686033 -0.014141541 0.043989424 -0.039985742 0.026641596
0.09169252 -0.054170232 0.07304503 -0.06520403 0.08165283 0.0130088935 -0.04389128 0.0065015545
0.030209241 0.035403717 0.063803904 0.039931193 0.031711206 -0.027732579 0.01765884 0.07900043
0.044882335 -0.053551678 0.037442952 -0.031990077 -0.003108363 -0.024975564 -0.04281628 0.03401124
0.060840596 -0.004067409 0.023374349 -0.023327572 -0.00644888 -0.022723911 -0.07423954 -0.022749875
-0.009798231 -0.05381889 0.025010062 0.017430494 -0.027618194 -0.009232863 -0.0031911365 0.005106519
0.028562292 0.034711845 -0.009716815 -0.047057882 0.03976268 0.00093165017 -0.021657284 -0.04354706
-0.013351959 -0.029840026 -0.02370573 -0.04388694 -0.01460199 -0.00066735677 -0.037959542 0.023064751
0.031894315 -0.007861304 -0.043570656 -0.044495128 0.09125189 -0.07308854 -0.01824485 -0.00080755365
0.04376659 0.03441931 0.036688738 0.0674367 0.044793483 0.016303556 -0.03578121 -0.028618682
0.00019429313 -0.0044868877 -0.00698442 0.08481888 -0.027336873 -0.046568476 0.023293717 -0.059757967
0.014752644 0.062012464 0.0038749569 -0.0078014745 -0.029671282 -0.026973736 -0.059486102 -0.01580698
-0.07122497 -0.031619847 -0.018624952 0.021225575 -0.03802599 -0.033586834 -0.024238966 -0.021492898
-0.06789233 -0.0009310528 0.004281579 0.025102254 -0.01348721 -0.044982757 -0.01531503 -0.028283399
-0.044035006 0.03450595 0.029785328 0.027505489 0.04240684 0.041421678 -0.01849726 -0.021799158
0.003747273 -0.042330362 -0.04840317 0.07557993 0.009427575 0.0065681273 0.007032172 -0.021877436
0.04977988 0.034125373 0.04066561 -0.0022468148 -0.0019296755 -0.06064253 0.02692748 -0.04733464
0.03177477 -0.09510492 0.036900207 0.012573913 -0.025427794 -0.005771312 -0.020910569 -0.037122488
-0.03567427 -0.022497863 -0.0614556 0.04685951 -0.037649676 -0.07921705 -0.065392576 -0.011876592
-0.021267794 0.019300345 -0.024229184 0.034705274 0.0076498254 -0.03892726 0.009177714 -0.00020143401
0.033971254 -0.038451668 0.0032506671 0.051124476 0.073046595 0.0019327938 0.015583748 0.06673947
0.0066747423 0.014110716 0.030070936 -0.046426345 -0.014560363 -0.06273213 -0.009964297 0.01249972

encoder.6.bias f4 [64]
00000000: e664 643d df12 d0bc d365 0a3d 7696 4f3d
00000010: ce43 76bc 673d ddbc 05ab 243d 3680 923c
00000020: 7526 bc3c cda9 47bd 65c0 e43c 3970 4a3d
00000030: ab77 f6ba b1da adbc b3b3 97bc 9cea 00bd
00000040: 682b 093c 61d6 f4bc ff78 323c f008 1b3d
00000050: ea75 453d 2b4e 383d adae bb3c 966f 133d
00000060: 82c3 883c 39c7 2fbd e55d 40bd eb2f ad3c
00000070: 971f d83c c647 d4bc a68d 283d c8d5 fe3c
00000080: 6cb5 bebc 72d9 52bd ebef 2d3c a14d cdbc
00000090: 5d9e 523d a22a 253d 5083 5f3d 648c 1cbd
000000a0: db0f d5bc 755c df3c 60c5 6a3c 5327 14bd
000000b0: e41c 0bbd 0515 debc b240 66bc fa69 18bd
000000c0: e41e ddbc bb21 f53c e8ba 9cbb 801c 303c
000000d0: aa81 9b3c 292c 30bd 60d9 0e3c 0663 f43b
000000e0: 72f1 0f3d 7003 dabc 1ca9 26bd 0b93 56ba
000000f0: 8241 ce3c b29f 41bd 9fb1 483d f268 28bd
0.055760287 -0.025399623 0.033788513 0.0506806 -0.015030814 -0.027006818 0.04020216 0.017883401
0.022967556 -0.04874592 0.027923772 0.04942343 -0.0018803974 -0.021222444 -0.018518304 -0.03147374
0.008372165 -0.02988738 0.0108931055 0.03785032 0.048208155 0.04499642 0.02291044 0.03599509
0.016694788 -0.042914603 -0.046964545 0.021141013 0.02638225 -0.02591313 0.04115071 0.031107798
-0.023279868 -0.051476903 0.010616283 -0.02506143 0.05142056 0.04032386 0.05456859 -0.038219824
-0.026008537 0.027265767 0.014329284 -0.036170315 -0.0339631 -0.027109632 -0.0140535105 -0.037210442
-0.026992269 0.02992331 -0.004783023 0.010748982 0.018982727 -0.043010864 0.008718818 0.0074580936
0.03514237 -0.026612967 -0.04068862 -0.0008185363 0.025177721 -0.047271438 0.048997518 -0.04111571

encoder.7.weight f4 [64]
00000000: f543 843f a367 813f 227d 7b3f 7673 7e3f
00000010: 03f6 793f bf10 7f3f f067 823f 71c0 803f
00000020: 5c50 803f 9ab3 803f 2c2f 7b3f d468 793f
00000030: 414a 823f 311f 833f 09f2 833f c034 7c3f
00000040: 5762 7e3f 3180 7b3f 5738 7f3f 27d0 7f3f
00000050: 97d5 7f3f 7407 803f 250c 813f edf6 7b3f
00000060: fc54 813f 57a8 813f dd18 803f 4313 7b3f
00000070: 3333 7a3f 0178 763f 1dd0 7e3f a653 803f
00000080: 0328 7e3f 8abe 7f3f 85dc 833f 91c1 7a3f
00000090: 1fb0 7f3f 0578 863f 3775 7c3f c920 7f3f
000000a0: a1e8 7f3f d70a 823f 6cbb 823f cc41 7e3f
000000b0: ad55 7b3f b3fc 803f da26 823f a306 813f
000000c0: 1d15 803f 2cb3 813f 234f 7d3f 10ba 773f
000000d0: dcb8 7f3f 944c 7f3f 2c5d 813f 2844 803f
000000e0: f41d 763f 8609 7f3f 26a5 7f3f 3e95 813f
000000f0: 43b5 823f 9c6a 813f 0d1b 823f ca03 813f
1.0333239 1.0109752 0.9823781 0.9939493 0.9764101 0.9963493 1.0187969 1.0058728
1.0024524 1.005481 0.98118854 0.9742558 1.017891 1.0243894 1.0308238 0.9851799
0.99368805 0.9824248 0.9969534 0.9992699 0.9993529 1.0002275 1.0081831 0.98423654
1.010406 1.0129498 1.0007588 0.98076266 0.97734374 0.9627686 0.99536306 1.0025527
0.99279803 0.99900115 1.0301672 0.9795161 0.99878114 1.0505377 0.98616356 0.996594
0.9996434 1.0159558 1.0213447 0.9931915 0.98177606 1.0077118 1.0168107 1.008015
1.0006443 1.0132804 0.9894888 0.96768284 0.9989145 0.99726224 1.0106559 1.00208
0.96139455 0.99623907 0.9986137 1.012367 1.0211567 1.011066 1.0164505 1.0079281

encoder.7.bias f4 [64]
00000000: bb0e e23d be0f 0f3d bfd8 efbb 2cfa 1b3d
00000010: 766d a03c bc23 cb3c 9419 6a3d 8f2f 093d
00000020: 0072 113d 6627 3c3d e64b d53c 9f1f 5abc
00000030: f7db 713d b445 c63d 803d a53d 1119 893d
00000040: 9ea7 e03b 60f9 b6bb bfbc 593d e914 0c3c
00000050: a78b d33c 97c9 1a3d feab 713d 5281 a83d
00000060: e6ba 3a3d 5a7c a13c 42e9 69bc 467c 9f3c
00000070: 977a a53b aa97 073c 92d7 a43c 2c2e 483d
00000080: a5f3 0d3c ed14 8f3a 57d5 d03d f808 b5bb
00000090: 0faa 133c e44b d83d a4ed ba3b 247a 353c
000000a0: 277a 163d c22b 753d 2e00 923d fefa af3c
000000b0: 7b3c 8e3c 7559 a53c 8508 623d eca7 bc3d
000000c0: c288 cd3c 0764 c73d d1e5 ef3b 5e1f 953d
000000d0: 8476 3a3d 806e 0d3d 5cd0 623d 2903 443c
000000e0: b4e6 2c3d 54bf f23c 8acf f63c 9b66 e13c
000000f0: 2871 363d 5961 5c3d b19c 8c3b 3922 c63c
0.11037966 0.034927122 -0.0073195393 0.03808038 0.019583445 0.024797313 0.0571533 0.03349262
0.03550911 0.04593601 0.026037168 -0.013313203 0.059047665 0.096812636 0.08068371 0.06694234
0.006855919 -0.005583927 0.053158518 0.008549907 0.025823427 0.037789907 0.059001915 0.08227791
0.045588396 0.019712616 -0.014276804 0.019468438 0.0050500142 0.008275906 0.020122323 0.048872158
0.008664046 0.001091627 0.10196941 -0.005524751 0.009012713 0.1056135 0.0057045985 0.011076484
0.036737587 0.059856184 0.071289405 0.021481987 0.017362824 0.020184258 0.055183906 0.09211716
0.025089625 0.097358756 0.0073210974 0.072813734 0.04552318 0.03452921 0.05537449 0.011963644
0.042212203 0.029632248 0.03012826 0.027514746 0.044541508 0.053803775 0.00429114 0.02418624

encoder.7.running_mean f4 [64]
00000000: 14da 46be 6a60 bb3e 09dd 063f 2f29 10be
00000010: 208e a8be 0812 07c0 a11c 6abe 1ffc 893e
00000020: 2390 bdbc 28fb 0a3b 131c 163c 4bae fe3e
00000030: 0256 10bd acfa 333e ce78 f4bd 4a83 cfbe
00000040: a09e 95be a4a1 06bf 23d3 0cbe fd3a 73be
00000050: 3810 c5bd 9c91 ba3d 95a0 95bd 23f0 15bd
00000060: 9f54 d43e e871 53be e614 a6bd 64b2 aabe
00000070: cf4b 91be a51f ad3e e2dd 10bf f83f efbf
00000080: c30d 74be 47bb 0b3e 1c57 30be 8c04 f73e
00000090: f086 83bf 7673 88bd 50ae 183e ba9b b9bc
000000a0: adf3 e2be 6b1a d8bc 7b6b 1a3d d4c1 553e
000000b0: 87da 8fbd 9058 063f e91e d1be 1249 a5bd
000000c0: fffd 97bc 08b3 23be 87b4 5f3e ade3 463e
000000d0: 9a2c e9be 8f20 c7be 3992 72be cb31 82be
000000e0: 8f3b f5be f6b1 d63d 3b8b 55bc 1943 cabe
000000f0: cda7 4abe a861 c93d 5dac 913e 46d4 2fbe
-0.19419128 0.36596996 0.5268102 -0.1407821 -0.32920933 -2.1104755 -0.22862484 0.26950166
-0.023140019 0.002120683 0.009161967 0.4974235 -0.035238273 0.17576092 -0.11937104 -0.40529853
-0.29222584 -0.52590394 -0.13752417 -0.23752971 -0.09622234 0.09109804 -0.07306019 -0.036605965
0.4147081 -0.2064892 -0.08109455 -0.33339226 -0.2837815 0.33813205 -0.56588566 -1.8691397
-0.23833375 0.1364566 -0.1722073 0.48245656 -1.0275555 -0.066626474 0.14910245 -0.022657264
-0.44326535 -0.026379785 0.037700158 0.20874721 -0.07024103 0.52478886 -0.40843895 -0.08070578
-0.018553732 -0.15986264 0.2184621 0.19422789 -0.4554184 -0.38892028 -0.23688592 -0.25428614
-0.47897002 0.10483162 -0.013033683 -0.39504316 -0.19790573 0.098330796 0.28451815 -0.1717082

encoder.7.running_var f4 [64]
00000000: d7e6 f63e 484c 193f 7a19 cb3e 6bf1 833e
00000010: 454c 533e b943 7c3f 1bb9 f53e 29f8 373f
00000020: 3693 3f3f 54ab 023f c38a a73e 396d bd3f
00000030: a730 d33e bd89 e03e a251 da3e c9f5 763e
00000040: c682 2d3f d103 043f f3ee f83e dd91 223f
00000050: 8b77 523f f049 bc3e a5eb 243f 69e0 893e
00000060: dd99 0d3f cea0 a03e 73cf 743f ecce 583e
00000070: 6bf8 393f f1ff 473f 205c 693f b13e 953f
00000080: f541 c23e 720e 2a3f b88d cf3e ed4d 153f
00000090: 9bdc 4b3e 2b3a cf3e 5316 2f3f 7c91 ae3e
000000a0: 8cb3 0b3f 4ada ae3e e390 153f 8e09 5e3f
000000b0: a691 203f ab54 263f 5fa4 de3e 2710 a23e
000000c0: 9df6 4e3f 1975 d53e 448f 343f 98f7 713e
000000d0: 9d1a de3e 054e 3e3f cd14 0c3f 1deb 423f
000000e0: 5905 b33e 9b5c 063f 3ad6 183f 34f7 d43e
000000f0: ab9f 303f 7745 613f 2536 1b3f e16a 2c3f
0.48222992 0.5988202 0.39667875 0.25770125 0.20634563 0.98540837 0.47992787 0.7186304
0.74834 0.51042676 0.32723054 1.4798957 0.41248056 0.43855086 0.42640406 0.24117197
0.6777767 0.51568323 0.48619804 0.6350382 0.8221366 0.3677516 0.64422065 0.26929024
0.553129 0.31372684 0.9562904 0.21172684 0.7264468 0.7812491 0.91156197 1.1659757
0.37940946 0.6642829 0.4053781 0.5832203 0.19908373 0.40474066 0.6839344 0.3409537
0.5457084 0.34150916 0.58424205 0.8673333 0.6272224 0.64972943 0.4348478 0.31652948
0.8084505 0.416909 0.70531106 0.23629606 0.4337968 0.743378 0.5471924 0.76140004
0.34965017 0.52485055 0.59701884 0.4159485 0.68993634 0.8799662 0.60629493 0.67350584

decoder.0.weight f4 [64, 32, 3, 3]
00000000: 8d2a 97bb 5271 3f3d f65d 7abc d40b 27bd
00000010: d39f b53d 24aa dbbc 2246 a2bc f490 63bb
00000020: a70f a9bb 5f5b c33c d6a4 db3b b9e4 45bc
00000030: 8439 ddbc 5103 a13c c6e7 44bd 9361 afbc
00000040: 7d9c 423c 569d 50bc 2a1a f63c 4e65 523c
00000050: a367 c2bc 0765 42bc 5aa4 013d 371b 12bc
00000060: a0a6 12bd 667f a3bc 8985 7b3c 2ba3 27bd
00000070: 1ea4 c23d fe8e 4b3c a8cc 873b a14c de3d
00000080: d0a7 55bd 6720 83bd 2d51 693d b4b4 46bd
00000090: a57f db3c 3636 3abd 256b 393d f1bc aa3a
000000a0: 4a6b d83d 93ff 3dbd 9f59 92bc 9cae 94bd
000000b0: 0715 35bb bde1 e0bc 0c62 19bd ab8e 88ba
000000c0: 7dc0 2cbd b4e9 c43d 6cb1 da3c 7332 21bd
000000d0: 9b2e 3c3c 63bc 9bbc f9f0 813d 54b6 f03c
000000e0: a3a1 93bc 5895 3c3d c0ae 21bc 9c8c 443d
000000f0: 38ae 05bd 893b 09be 8b57 3bbd 822f b83b
00000100: aff9 8abc 58d1 2b3d c9fe 983d de1a 28bd
00000110: d165 c4bc 0426 b83c fe53 e1bb 9459 81bd
00000120: a31a 88bd 30de c8bb 3f25 acbd 569b 03bd
00000130: daea e23c e6f0 95bc af6d 4ebd e617 98bd
00000140: 8c9f 113c 5cfc 5d3d a2e2 9abc 401b 1ebb
00000150: 3710 4c3d 1038 b43c af89 103d a482 3b3d
00000160: 37ac 1c3d 6f00 8a3d 4b8c 0abc 6a8c 933d
00000170: a8f7 fbbc f0c0 d63c 2f0c 453d 9ce8 0fbd
00000180: 01e2 6bbd 0c39 373d adb7 89bc 09c2 11bd
00000190: 1f60 07bd d817 d0bb d23d 0c3d 9f7b 843d
000001a0: c658 74bd b681 4dbd b37f c53c 1be9 a2bc
000001b0: 714d a73c f5d4 053d 9d73 413d b6a4 243c
000001c0: 20e7 913d 2de2 a7bb 2e95 633c ad7f f13c
000001d0: d6bf 07bc 12bb 6ebd da09 443c 4809 19b9
000001e0: e6fd 203c b9f4 2ebd c8b5 8cbd 3114 7bbc
000001f0: 006e fbb8 c56b 83bd f2f2 27bc 9b60 373d
00000200: 9cea 70bc 2abe fabc 4664 f33b 2ea2 8bbd
00000210: ba10 bc3c d1c1 ad3b 00ac 2c3d 24cc 2e3c
00000220: 477a 7b3b b610 d5bb 5855 f43c 7ce6 773c
00000230: 5291 323d 9de5 1e3b dd84 15bd 66dc 82bb
00000240: 5742 bebd 391c 363c 9087 52bd 19fd 80bb
00000250: d384 bc3d cbdc 2dbd f856 45bc c123 263d
00000260: 52da 00bd 1f6e 40bd bce7 6bbd 53b6 9c3c
00000270: 1d74 163c aa82 9a3d 36f9 fbbb 7628 803c
00000280: c302 383d 15f0 4bbd 83a0 7c3c b125 2f3d
00000290: cc68 893c dd34 5abb 5d49 18bd 0706 15bc
000002a0: 699e 67bd 9e7d 4fbd c8b1 80bb 71cc 3dbd
000002b0: 2836 1c3d 31dc 143d dc0e 663c ab54 973c
000002c0: 4153 bb3c 3cb4 bb3c c0dd 48bc 5a5f c93a
000002d0: 28dc c8bb 041c 5c3c d94b 063d f537 c7bc
000002e0: 0d12 5e3c 26a2 123d 0675 0c3c 7557 a03b
000002f0: c8e4 033d 8135 abbc 8a41 d13c fdf3 1cbd
00000300: e2fd 8e3c 4103 353d 45ef 0fbd f666 363c
00000310: 6572 10bd e50c 2cbd 5f7a e53c 3621 16bd
00000320: e04e f3bc 3cba 7a3d 8f2f 553c 6643 9ebc
00000330: b9e5 ba3d dea2 a438 c6e4 9b3c a606 07bd
00000340: 14b6 8abc 9364 abbc af17 193d 1ebf a4bc
00000350: 8a22 32bc 2b38 c5bc c66f 803b 4f19 c03c
00000360: 5651 62bd c0f8 b6bd bcd8 39bd 708c a43c
00000370: e647 193d 3452 0abd 3cac 67bc 089b 69bc
00000380: 50f0 30bd 0444 83bc d10d ad3b 7f12 cfbc
00000390: d03e 08bd 486b 8f3d 09a9 47bd e299 b0bc
000003a0: 949d 17bd 4e61 c63b d48c c23b 3238 7e3d
000003b0: 95f5 50bd f50d 07bd 7cb6 a53d ca9f e8bc
000003c0: f35c 78bd f1bc ab3d eb02 25bd 3e44 d93c
000003d0: 31a2 5dbd 5ce1 4c3d c3f8 3cbd 7c2c 88ba
000003e0: 0023 123d 3b2a f4bc ce1b 153c b7d7 84bc
000003f0: eca4 bf3a 089c 89bd e16c 723b 1796 11bd
-0.0046132267 0.04673893 -0.015281191 -0.040782765 0.08868375 -0.026814528 -0.019808833 -0.003472385
-0.0051593366 0.02384728 0.0067029996 -0.0120784575 -0.027004965 0.019654902 -0.0480726 -0.021408832
0.01187813 -0.012732824 0.030041773 0.012841536 -0.023731058 -0.011864907 0.03165088 -0.008917621
-0.035803437 -0.01995821 0.0153516615 -0.040927093 0.09503959 0.012424229 0.00414427 0.108544596
-0.05216199 -0.06402665 0.05696218 -0.048512176 0.026794264 -0.045461856 0.045268197 0.001302628
0.10567339 -0.046386313 -0.017865 -0.072598666 -0.0027630941 -0.02745139 -0.03744702 -0.0010418495
-0.04217576 0.09614888 0.02669593 -0.039354753 0.011485721 -0.019010728 0.0634479 0.029383816
-0.01802141 0.046040863 -0.009868324 0.047985658 -0.03263685 -0.13401617 -0.045737784 0.0056208977
-0.016964762 0.041947693 0.074704714 -0.041041248 -0.023974331 0.022479065 -0.0068764677 -0.06315914
-0.066457056 -0.0061300024 -0.08405542 -0.03213056 0.027699877 -0.018303346 -0.05039757 -0.07426433
0.008888137 0.054195747 -0.018906895 -0.002412513 0.04982015 0.021999389 0.035287555 0.045778885
0.038250174 0.06738364 -0.0084563 0.07204516 -0.03075774 0.026215047 0.048107322 -0.035133943
-0.05758858 0.04473214 -0.016811216 -0.035585437 -0.033050653 -0.0063504986 0.034238644 0.06468891
-0.059654973 -0.05017253 0.024108743 -0.019886544 0.02042267 0.032673795 0.047229398 0.010049036
0.07124162 -0.005123398 0.013890548 0.029479826 -0.008285483 -0.058283873 0.011965239 -0.00014594675
0.009826159 -0.042713854 -0.068706095 -0.015324638 -0.00011989102 -0.0641704 -0.010250794 0.044769865
-0.014704373 -0.030608255 0.007427725 -0.06818043 0.022957195 0.0053026457 0.04215622 0.010668788
0.0038372444 -0.0065022362 0.029825851 0.015130635 0.04359562 0.0024245747 -0.03650366 -0.0039935587
-0.09289997 0.011115127 -0.051398814 -0.0039364216 0.09205022 -0.042446893 -0.012044661 0.04056144
-0.031458206 -0.04698002 -0.057594046 0.019129908 0.009182957 0.075444534 -0.0076896204 0.015644293
0.04492451 -0.049789507 0.015419128 0.042760555 0.016773604 -0.003329567 -0.03717934 -0.009095675
-0.056547556 -0.050656907 -0.003927443 -0.04633755 0.038137585 0.036342803 0.014041629 0.01847299
0.022866847 0.02291309 -0.012259901 0.00153635 -0.0061297603 0.013434414 0.032787178 -0.024318675
0.013554108 0.035799168 0.008572822 0.004893238 0.032200605 -0.020899536 0.025543947 -0.038318623
0.017455045 0.044192556 -0.035140295 0.011132946 -0.035265345 -0.042004485 0.028012453 -0.036652766
-0.029700696 0.061212763 0.013011827 -0.019319247 0.09125847 7.850466e-05 0.019029986 -0.032965325
-0.016932525 -0.020921981 0.037376102 -0.020110663 -0.010872493 -0.024074635 0.0039195744 0.023449568
-0.05525335 -0.08934164 -0.04537271 0.020086497 0.037422083 -0.0337698 -0.014140185 -0.014258154
-0.04319793 -0.016023643 0.005281188 -0.025277374 -0.033263028 0.07002884 -0.04874519 -0.021557752
-0.037015513 0.00605408 0.005937198 0.06206531 -0.051015455 -0.032972295 0.08091447 -0.028396506
-0.06063552 0.08385647 -0.040285986 0.026521798 -0.054109756 0.050019607 -0.046135675 -0.0010389234
0.03567791 -0.029805293 0.009100867 -0.016216142 0.0014621294 -0.06719214 0.0036991166 -0.035543527

decoder.0.bias f4 [32]
00000000: 069b 663d a852 05bd e73d adbc 7d1b 51bd
00000010: c4df 30bc 1506 3b3d d9db 953c 17fb 40bc
00000020: caf3 f73b 02a3 e8bc f89d 353d 7e53 363d
00000030: 873c d3bc c1f7 573d e4f4 513c 6316 c4bc
00000040: d4f5 d0bc 2c92 39bd 2810 49bc 1d4e ef3c
00000050: 0a37 16ba 467c 36bd 78d6 5d3d 226f 27bc
00000060: 1543 0e3d 501f 6e3d c63e 553d a828 55bd
00000070: 1c2f 3fbd d895 e33b a66c 11bd 4456 e23b
0.056300186 -0.03254953 -0.021147681 -0.051051605 -0.010795537 0.045660097 0.018293308 -0.0117786145
0.0075669037 -0.02839804 0.044340104 0.044513218 -0.025785698 0.05272651 0.012814734 -0.023936456
-0.025507845 -0.045305416 -0.012271918 0.029212052 -0.00057302474 -0.04455211 0.05415961 -0.010219367
0.034731943 0.05813533 0.05206182 -0.052040726 -0.046675786 0.006945353 -0.035504006 0.0069072563

decoder.1.weight f4 [32]
00000000: eccc 813f 2c03 813f 66df 833f 8538 803f
00000010: 8a37 7d3f 4049 7b3f 7e47 783f 8750 7f3f
00000020: 92cf 7c3f c428 7c3f aba8 783f 61bb 7f3f
00000030: 96d3 823f 4f9b 7e3f 66ae 7a3f 4b1c 773f
00000040: 499b 833f 1a6d 843f de77 813f ccee 793f
00000050: c89e 7e3f bde1 803f 9fa5 863f bd60 7c3f
00000060: c0c0 773f 2871 783f b525 813f e5b5 803f
00000070: 3cfc 813f 77b4 803f c986 803f ee90 7a3f
1.0140662 1.0079093 1.0302551 1.0017248 0.9891287 0.98158646 0.9698409 0.9973225
0.9875423 0.98499703 0.97132367 0.9989529 1.0220821 0.9945573 0.9792236 0.96527547
1.0281764 1.0345795 1.0114706 0.9763 0.9946103 1.006889 1.0519294 0.9858511
0.9677849 0.9704766 1.0089632 1.005551 1.0155101 1.0055073 1.0041133 0.97877395

decoder.1.bias f4 [32]
00000000: 1064 ba3c 2bc6 bdbc e350 293d 219e 04bb
00000010: 5d8b 1dbc 783e 9bbc d1ec cdbc 71f0 823d
00000020: 5a5b edbb 7ad0 333c 39f9 343d f371 bebb
00000030: 85d0 133d 4904 85bb e1d4 0bbd 09a9 56bc
00000040: 890c 8c3d 4c4e aa3d ee14 563d dec1 f8bb
00000050: fc5d 853d f881 173d f9bf b53d 890d 843b
00000060: 2a61 51bd 4af5 913c deee 8f3c 3a87 1f3c
00000070: db26 243d 5f51 933c ace3 d63c eb7f f4bb
0.022752792 -0.023165783 0.041336905 -0.0020235854 -0.009615746 -0.018950686 -0.025137337 0.06393517
-0.007243556 0.010974998 0.04418299 -0.0058119236 0.03608753 -0.0040593487 -0.034138564 -0.013101825
0.068383284 0.08315715 0.052266054 -0.00759147 0.06512067 0.036989182 0.088745065 0.004029934
-0.051118053 0.017817158 0.017569955 0.00973683 0.040076118 0.017983137 0.02623161 -0.007461538

decoder.1.running_mean f4 [32]
00000000: 3932 1e3e a379 193d 63e1 d23d 0dcf 24be
00000010: 604b 80be 2ca5 62bd 04fd 8cbe 9626 6abd
00000020: 194a a5be 586c d13c 8735 883d 52c4 9b3d
00000030: 0263 b9bd 16b8 84bd b134 21be bd4e 34be
00000040: 4c90 90be c203 d7ba 15b5 f6bd d888 71be
00000050: 2ead 8dbe 593d ba3d 9b9b be3d de5d 71be
00000060: 4333 81bd 9257 333e a5a2 3abe 0e6b 4ebb
00000070: a77a 8cbe 0d8e 44be 4109 39be aaf6 bdbc
0.15448846 0.037469517 0.10296895 -0.16094609 -0.25057507 -0.0553333 -0.27536786 -0.057165705
-0.32283095 0.025564358 0.066508345 0.076058045 -0.09052087 -0.06480424 -0.15742756 -0.17608161
-0.2823509 -0.0016404318 -0.120462574 -0.23587358 -0.27671188 0.090937324 0.09307023 -0.23570964
-0.063086055 0.17513874 -0.18226106 -0.0031496915 -0.27437326 -0.19194813 -0.18069936 -0.023188908

decoder.1.running_var f4 [32]
00000000: ab57 d03e 469f 023e 3c3a 323e 386c 8e3e
00000010: 1339 eb3e 8569 ab3e 9949 073f 7d6a 3b3e
00000020: f849 b93e 5cc0 423e fdbc ac3e 564d 773e
00000030: 7be5 ae3e 560a 643e fcb7 9d3e ee9a 253f
00000040: 3c61 353e 8430 4e3e 3fcb 7e3e d716 7e3e
00000050: 8ffb 223e cd9c 943e 5fca 1e3e 00c0 b83e
00000060: dc6b 803f 15f2 893e 230f ee3e fcae 5b3e
00000070: 871d 193f d6c4 323f aef8 313e cab7 0f3f
0.40691885 0.1275607 0.17405027 0.2781694 0.45941982 0.33478943 0.52846676 0.18302341
0.36189246 0.19018692 0.33737937 0.24150595 0.34159455 0.22269568 0.3080443 0.6468953
0.17712873 0.20135695 0.2488222 0.248134 0.15916274 0.2902588 0.15506886 0.36083984
1.0032916 0.26942506 0.46495923 0.2145347 0.5981068 0.698316 0.1738002 0.56139815

decoder.3.weight f4 [32, 16, 3, 3]
00000000: 9369 043d 61f9 1e3c ab43 193d ae6d 1c3d
00000010: 2993 1e3d 8c03 073d 9b9c 253d 07d6 4e3b
00000020: d9e3 b5bc 44c7 71bc ccca ce3d 8125 89bd
00000030: 8000 203d 8f4d c13d 0ec7 83bb 9485 73bd
00000040: cdca 89bd fc1f 4cbd 4b1e 13bb 89c4 41bd
00000050: 8e4d 813c 5f9e 593d d225 cabc c473 d6bc
00000060: bfa6 383c 70ad 54bd 4a75 e6bb 61fe 5b3c
00000070: 754e 843d 5bce 14bd 121f 26bd 7a94 f73c
00000080: 6811 5a3c bc06 60bd 5b0e b93d 065b c3bc
00000090: a315 95bd b6e0 13bd 220e a23d 13b1 193d
000000a0: aa10 2b3d a187 b9bb db77 c83d a34f 0c3d
000000b0: 6cbf 30bc 10d4 8cbb c593 0c3d 9b9d 8ebd
000000c0: d505 7e3b e8f5 8f3d 28bd 503c dfe3 ae3b
000000d0: 0a75 3cbd 2670 b6bc c0d8 93bc 1cba c43d
000000e0: c193 82bc f34d ed3c 914b 953d 0d8c a43d
000000f0: 48f6 99bb ff92 92bb 27f1 563d 0361 5cbc
00000100: f171 94bd f4e7 773b a0ca 9bbc 7241 4dbd
00000110: 5708 aa3c a0b6 393d 7ec2 a53d b676 5ebd
00000120: 8177 913d aad6 c2bc 1c51 743b 92a2 973d
00000130: 0b44 1c3d f955 503d 1686 80bc 3764 b13d
00000140: ea85 513d b8e9 1c3d 0bf8 993d 68e2 423c
00000150: daa9 8c3d a713 663d 57f9 453d 986a 0bbd
00000160: 9d5f 803c 1cd9 103d 5fdd a43d fb86 14bc
00000170: 7b4c de3d a89a 95bd 8075 9fbb b7c3 863d
00000180: 31e5 203d 5a11 86bc 981e d13a 7206 833d
00000190: 9aa2 6fbd de16 00bd 171f db3d 0b00 233b
000001a0: 7285 8c3d dde0 e63c 156c d0bc 803a 10bd
000001b0: 993d b1bd 2307 80bc fca5 96bd 236e 363d
000001c0: cf4d ddbc 18a2 863d 0fb6 c1bc 9417 9a3c
000001d0: 6dff 593d 0422 df3c 9c5d 2e3d 9199 073c
000001e0: cec2 173c a6ee 40bd 0816 17bd ae1d 833d
000001f0: 2721 abbb bed8 b9bc f4ab adbd 24cf 82bd
00000200: 953e 353c 1152 bcbc d492 67bd 91ed 8fbd
00000210: 080f 72bc a371 bc3d 990c aa3d 18f7 b2bb
00000220: 0772 a73d adf1 953d 4e4f dd3d e9c3 ce3d
00000230: 5dc4 41bd 854a 7c3d ae9f b9bb 8352 fabc
00000240: 7d66 5cbd 9fab 8a3d 34d0 723d 01a5 20bc
00000250: c637 3b3c 8973 373c 9374 e03c ba37 db3d
00000260: 6419 f23d 2ee1 90bc 72d4 0dbd 6f15 853c
00000270: 9504 7abd 1eba a23d b253 d3bb bdb0 763c
00000280: c6fb 943d d8b8 0abd e4d6 bf3b 6233 8d3d
00000290: acb1 373d f2d6 703d 5b9f 4f3d 6288 b23c
000002a0: 5a28 64bc 3e9c c1bd 5508 63bd a618 113d
000002b0: b27f 073c 9a3a 303d 1774 b13c 4b10 503d
000002c0: 1cf8 643d 2fde 9a3d e3b0 4d3d 8289 593d
000002d0: f9d7 5dbd bf47 1fbd fb94 823c 8fb9 c13d
000002e0: 1ec6 0c3d a2e0 a23d 6373 d03d dcbe dc3c
000002f0: fbd0 0cbd 434c 483d 6287 623d f79f 0bbd
00000300: 377c d53c 2b55 2d3d 16a3 443d f60b ac3c
00000310: 5923 4d3d 4b46 033d d29a a3bd a961 8b3d
00000320: 2da8 2f3c 8506 f43c 7b75 c73d 8b9b 0c3d
00000330: 7767 2f3c 74f4 7a3d c6c0 b63d 2a01 9d3b
00000340: 881d b23d 74c5 f0bb fc6c 743d 1dee 363d
00000350: 3156 553c 8138 fc3c f760 11bd 88f8 0e3b
00000360: 066c 31bd afe0 7d3b 0f1a 323d 5441 943d
00000370: 272c cd3c b18f cfbc 0f3c b73d ec60 a63d
00000380: fc92 0f3d 6c56 623c cb93 2339 d1e4 963d
00000390: 9a80 843c 36cd 103d fdb6 c7bc 7c55 713d
000003a0: 3d04 723d df70 88ba 842b 34bd d336 58bc
000003b0: a92c e53c 22f4 e53b 9a6f 933d 4f1a a3bd
000003c0: a207 b53d 708f fe3d bda1 163d 48d2 cb3c
000003d0: bce6 a8bd 60b2 493d 0971 d33c b007 633d
000003e0: b9a4 c43c a109 843b fc43 053d 286b a03c
000003f0: 9b8c 753d 5279 063d db97 683d 6e7b 17bd
0.032327246 0.009703011 0.03741805 0.038190536 0.03871456 0.032962367 0.040432554 0.0031560676
-0.022203373 -0.014756981 0.10097274 -0.066966064 0.039062977 0.09438621 -0.004021532 -0.059453562
-0.06728134 -0.04983519 -0.0022448476 -0.04730657 0.015784051 0.05312955 -0.024676237 -0.026178248
0.011270224 -0.051923215 -0.007033025 0.013427348 0.06460277 -0.03632961 -0.040556975 0.030222166
0.013309814 -0.054693922 0.09035941 -0.023847114 -0.072795175 -0.036102973 0.07912852 0.037522387
0.04176394 -0.00566192 0.097884856 0.034255635 -0.010787826 -0.0042977408 0.03432061 -0.069636546
0.00387608 0.07029325 0.012740411 0.005337223 -0.046010055 -0.022270273 -0.01804769 0.0960581
-0.015939595 0.028967833 0.07289804 0.08034525 -0.0046985485 -0.0044730897 0.052476075 -0.013450864
-0.07248295 0.0037827464 -0.019017518 -0.05011124 0.02075593 0.04534018 0.08093737 -0.05431243
0.07102872 -0.023784 0.003727979 0.07404055 0.03815083 0.05086324 -0.015688937 0.086616926
0.0511531 0.03830883 0.075180136 0.0118948 0.06868334 0.056171086 0.048333492 -0.034037203
0.015670592 0.0353633 0.08050036 -0.009065385 0.10854431 -0.07304889 -0.004866302 0.065802984
0.039281074 -0.016365696 0.0015954552 0.06397714 -0.05850468 -0.031271808 0.10699289 0.0024871852
0.0686139 0.028183395 -0.025442163 -0.03521204 -0.08654327 -0.015628403 -0.07355878 0.04453863
-0.027014641 0.06573886 -0.023646383 0.018810071 0.05322211 0.0272379 0.04256974 0.008276359
0.009262754 -0.047102593 -0.036886245 0.06402145 -0.005222458 -0.022686359 -0.08480063 -0.06387165
0.011062284 -0.022988351 -0.05653651 -0.07027734 -0.014774092 0.09201362 0.08303184 -0.005461585
0.08176046 0.073214866 0.10806142 0.10095961 -0.047306407 0.061594505 -0.0056647873 -0.030556923
-0.053808678 0.067710154 0.05928059 -0.009804965 0.011426872 0.011196979 0.027399337 0.107039884
0.11821249 -0.017685499 -0.03462643 0.016245572 -0.061039526 0.07945655 -0.0064491862 0.015056786
0.072745845 -0.033867687 0.0058544744 0.06894566 0.044847175 0.058798738 0.050689083 0.021793548
-0.013925636 -0.09453629 -0.055427868 0.035423897 0.008270191 0.043024637 0.021661801 0.05079679
0.055900678 0.075619094 0.05021752 0.053109653 -0.054161046 -0.03888678 0.01594018 0.094592206
0.034368627 0.079530016 0.10178258 0.026946478 -0.034378987 0.048900854 0.055304892 -0.0340881
0.026060207 0.04231755 0.048007093 0.021001797 0.05008254 0.03204946 -0.07988514 0.068057366
0.010721249 0.029788265 0.097392045 0.034328025 0.01070582 0.061268285 0.08923487 0.0047913985
0.08697039 -0.007347757 0.059674248 0.044660676 0.013021038 0.030788662 -0.035492864 0.0021815617
-0.04331591 0.0038738658 0.043481883 0.07239023 0.025045468 -0.025337072 0.08947002 0.08123955
0.035052285 0.01381455 0.00015599949 0.07367862 0.016174603 0.035351954 -0.024379248 0.058919415
0.059086073 -0.0010409615 -0.043986812 -0.013196665 0.027975397 0.0070176283 0.07199021 -0.07964002
0.088393465 0.12429702 0.03677534 0.024880543 -0.08247134 0.049242377 0.025810735 0.055427253
0.024004327 0.004029468 0.032535538 0.019582346 0.059948545 0.032830544 0.056785446 -0.036982946

decoder.3.bias f4 [16]
00000000: 2d17 d23c f806 803d 1b95 7abd 5e5c 883d
00000010: 6e41 e2bc 3cd0 03bd 8fe7 4e3d 4185 3e3d
00000020: afba ed3a cfea 873d 9113 8c39 4a42 8a3d
00000030: 0f15 b1b9 4f77 a43c 048a 433d aae4 ebbc
0.025645817 0.06251329 -0.061177354 0.06658243 -0.02761909 -0.03218101 0.0505138 0.0465138
0.0018137301 0.06636583 0.0002671746 0.06750925 -0.0003377576 0.020076422 0.047739044 -0.028795559

decoder.4.weight f4 [16]
00000000: ee91 7c3f 2e4b 7b3f 9d26 953f e279 843f
00000010: 17fd 733f 84dd 7f3f 4659 7c3f df6a 953f
00000020: d9b8 863f a542 853f 9324 743f 211d 723f
00000030: 89ff 953f fe88 943f f42a 963f 1f32 813f
0.9866017 0.9816159 1.1652409 1.0349696 0.9530806 0.9994738 0.9857372 1.167324
1.0525161 1.0410963 0.9536831 0.945757 1.1718608 1.1604307 1.1731858 1.0093421

decoder.4.bias f4 [16]
00000000: 4075 efbc 6a75 3bbd e253 393e 064b b83b
00000010: 2eff 6cbd f902 fdbc acbb f0bc 8c03 243e
00000020: 5cf0 8e3c 2075 7f3c 54ca 87bd b10f 5fbd
00000030: 34e4 3e3e 57f4 263e 6fc7 323e b80c bebc
-0.029230714 -0.04576627 0.18098405 0.005624178 -0.057860546 -0.030885207 -0.029386364 0.16016978
0.017448597 0.01559189 -0.06630388 -0.054458324 0.1864174 0.16304146 0.1745889 -0.023199424
