models/ae_conv_conn2.pth (torch, 203766 bytes, 32 tensors)

encoder.0.weight f4 [16, 3, 3, 3]
000000 32 5e 29 bc 1f 65 f2 3b b7 1d 1f 3e 13 79 36 3d
       -0.010337399 0.0073973085 0.15538679 0.04454906
000010 45 31 40 bd 46 a5 99 bd 43 7f 26 3d 06 80 93 3c
       -0.046921987 -0.075022265 0.04064871 0.018005382
000020 65 39 36 3e fc c9 0e bd ae 4a c7 bd 31 e9 53 3e
       0.17795332 -0.034860596 -0.09731041 0.20694424
000030 b1 08 fa 3d fb 91 8a bd 72 01 f2 3d 33 eb e3 3d
       0.12208689 -0.06766125 0.11816682 0.11128845
000040 fa 22 5b 3e 0f 7c 2f bd 4a f5 22 3e 96 6e 17 3c
       0.21400061 -0.04284292 0.15913883 0.009242674
000050 83 a4 ff bd 9f 92 12 3e 10 3d 98 bd 08 a7 80 3e
       -0.1248255 0.14313744 -0.07433522 0.25127435
000060 7a 66 7f be 54 95 fe 3d d1 e9 83 3e 6f 10 8d bd
       -0.24941435 0.12430826 0.25764325 -0.068879
000070 7f 33 17 3e 6d 34 0d be be bb 24 be 9f 22 fc bd
       0.14765738 -0.1378953 -0.16087243 -0.12311291
000080 79 d6 22 be 6e 95 dc bd 39 12 5c 3d 15 17 03 be
       -0.15902127 -0.10770689 0.053728316 -0.12801774
000090 2f aa c4 3d c3 01 0c 3e 56 56 91 bc 65 70 69 bd
       0.096027724 0.13672547 -0.017741363 -0.056991953
0000a0 cb 74 8a 3d 62 83 2e be 81 58 90 bd d6 d3 40 be
       0.06760558 -0.17042306 -0.07048131 -0.18830809
0000b0 a9 fd c6 bc a0 94 ac 3d 10 2b ba 3d 37 ae b1 bd
       -0.024290876 0.084267855 0.09090245 -0.08675807
0000c0 5d 69 93 bd 0d bc 7b 3d 8b d7 62 bd b8 2b 02 be
       -0.07197831 0.061458636 -0.05538134 -0.1271199
0000d0 1e 7d 1b 3e 1c bf 94 bd b8 03 e8 3d 34 99 6f 3d
       0.15184447 -0.07263014 0.11328834 0.058495715
0000e0 82 50 1d 3d 04 16 a1 bd 8a ce 38 3e 44 b4 92 bd
       0.038406856 -0.07865527 0.18047538 -0.07163289
0000f0 ca 0f dc bc 3b c5 62 3d 41 8f 03 bd 09 a0 00 bc
       -0.026862998 0.055363875 -0.03211904 -0.007850655
000100 9e 06 36 3e 52 ca f8 3d a6 47 0c 3e 4b d2 ea 3b
       0.17775962 0.121479645 0.13699207 0.007166182
000110 78 cc fb 3d 65 7f 82 bd 87 bc 99 bd d8 d7 2c be
       0.12294859 -0.06371955 -0.07506662 -0.16879213
000120 2b 8c 4c be ae 5d 6c 3e 17 f7 ae 3d 89 f5 95 3d
       -0.19975345 0.23082611 0.085432224 0.07322223
000130 0d 02 23 3e cb 1d 72 bd 91 33 0d bd 91 1d 39 bc
       0.15918751 -0.059110444 -0.034473006 -0.011298553
000140 46 a9 95 bb 1a 4d 9c bd 61 95 0c bd 48 4b 18 3e
       -0.004567298 -0.076318935 -0.034322146 0.14872468
000150 9e aa 3b 3d ac 97 81 be 50 6c 03 3d b4 e4 09 3e
       0.04581701 -0.2531103 0.032085717 0.1346615
000160 5c 4a 42 3c 42 f2 c9 bd 03 20 9f bd 13 ca eb 3c
       0.011858549 -0.0986066 -0.077697776 0.02878288
000170 e0 e6 98 3d 9b 2b b7 bd d6 a6 1c bc 80 c1 b6 bd
       0.07465911 -0.08943864 -0.009561261 -0.08923626
000180 30 7a 08 be 91 99 64 3d 84 5e 13 3d c8 04 32 3e
       -0.13327861 0.055810515 0.03597881 0.17384636
000190 15 d3 23 3e 5a f1 bf bc bf f5 f1 bd 90 25 3b be
       0.1599849 -0.023430515 -0.118144505 -0.18276048
0001a0 b1 98 ea bd 88 1a 31 3e 35 5e 1c bd 99 c2 e4 bd
       -0.11454905 0.17295277 -0.03817578 -0.11169929
0001b0 ab 54 a2 bd 79 dc 91 bd 87 a4 d5 bd f4 27 0f be
       -0.079263054 -0.0712213 -0.10431772 -0.13980085
0001c0 05 89 1f be 2d 81 ca 3b 0b ce 07 be f7 96 0b be
       -0.15579613 0.0061799497 -0.13262193 -0.13631807
0001d0 92 49 1d 3e 82 08 17 3d c9 2e 96 bd 06 cf 6e 3e
       0.15360096 0.036873348 -0.07333142 0.2332116
0001e0 1e 2c ff bd ac 93 ff bd 1e b5 47 bd e0 e3 fc 3d
       -0.124595866 -0.12479338 -0.04875671 0.12348151
0001f0 12 d2 35 3d d2 ed 76 bc bd db 8a 3b d3 1c 52 b9
       0.04438979 -0.015071349 0.0042376206 -0.00020037899
000200 0c c7 ab 3d 36 d6 39 be ce b7 15 be 06 4c 3d 3e
       0.083875746 -0.18148121 -0.14620897 0.18486032
000210 53 da 24 be b7 89 36 be 05 28 2c be 06 f9 bb 3d
       -0.16098909 -0.17825972 -0.16812141 0.09178357
000220 b6 10 c5 3d 2e 27 05 be 7b cd 66 3e 58 8c 55 be
       0.09622328 -0.13003227 0.22539322 -0.20854318
000230 c7 8e f9 bc 18 8f e6 bd b4 a8 62 bd 7e 8e c0 bd
       -0.03046359 -0.11257762 -0.05533667 -0.09402178
000240 91 29 1c bd 31 8e 31 be 84 4e 72 bc 15 40 15 3e
       -0.03812558 -0.17339398 -0.014789227 0.14575227
000250 18 1c 3d be 00 87 18 be 01 c2 1a bd 16 af 7c 3d
       -0.18467748 -0.14895248 -0.037782673 0.061690412
000260 ca 0e c3 bd 8f 7e c1 3d cb f8 d4 bd c9 f1 2b be
       -0.09524305 0.09447967 -0.10399016 -0.16791452
000270 e4 6f da bd 78 d4 cf bd 0b cd 23 3e f4 6a 95 3d
       -0.10665873 -0.10147947 0.15996186 0.0729579
000280 68 e9 9c 3d ef 88 c3 3d bd e0 00 be 51 34 29 3e
       0.07661706 0.095476024 -0.12585731 0.16523863
000290 95 a7 24 3e 33 fc 81 3d 53 b7 11 be dc 2f 26 bd
       0.16079552 0.06346931 -0.14230089 -0.040572986
0002a0 88 65 04 3d 3c 84 0e 3e 1c ae 12 3e 31 ae d0 bd
       0.03232339 0.13917631 0.1432423 -0.101894744
0002b0 ba 54 52 3e f3 c2 41 3e 84 47 2c be 89 9e 3b 3e
       0.20540133 0.18922023 -0.16824156 0.18322195
0002c0 ed 98 5b 3e af 14 e7 3c d4 71 47 3d 3f 13 96 bd
       0.21445055 0.028208105 0.04869254 -0.0732789
0002d0 e9 d6 d1 bd 2c 2d ce bc 5d ef 13 bd 49 d5 d1 bd
       -0.10246069 -0.025168024 -0.036116946 -0.10245759
0002e0 7a 4a b4 3c a3 ae ab 3d 69 99 ef 3d 0b ad 25 3e
       0.02200817 0.08382919 0.116991825 0.16179292
0002f0 d2 cb 96 3d a1 80 82 3c f0 a2 0b 3d 1d db 31 be
       0.073630944 0.015930476 0.034090936 -0.17368741
000300 04 bb 37 3e 2b a5 a0 bb 05 7e 8f 3c f5 1d fb 3d
       0.17942435 -0.004902502 0.017516145 0.12261573
000310 59 89 53 3e ba 37 0d be f0 56 77 3d e3 bb 82 bb
       0.20657863 -0.13790789 0.060385644 -0.003989683
000320 f6 c1 8e bd f9 50 a8 ba 1f 43 5e 3e 8c 1a 05 be
       -0.06970589 -0.0012841515 0.21705292 -0.12998408
000330 33 57 20 3e 26 ca dc 3d 77 9e 78 3c 1b 93 f6 bd
       0.15658264 0.10780744 0.0151745 -0.12039777
000340 be 38 01 3e 8e d0 9f bd 32 dd bb 3d 27 df 56 3e
       0.12619302 -0.078034505 0.09173049 0.20983563
000350 de 63 d8 bd a3 e7 37 3e 43 de 1f 3e 12 0a fa bd
       -0.10565923 0.17959456 0.1561213 -0.12208952
000360 45 f9 6b 3d 88 3f 32 be eb ee 2d 3e 87 34 12 3d
       0.05761077 -0.17407048 0.16985671 0.035694625
000370 3a 92 a5 3d a9 4c cf 3a f9 11 6d bd 43 17 1e 3e
       0.08084531 0.0015815693 -0.05787847 0.15438561
000380 86 25 ea 3a 02 04 d1 bd 86 19 01 3e b4 9a 34 be
       0.0017863966 -0.102058426 0.12607393 -0.1763714
000390 e4 65 9a 3b 4f c0 3b be a0 2b 2b bc e3 d7 cd 3d
       0.0047118533 -0.18335079 -0.010447413 0.10050943
0003a0 12 af d1 bd ab 4e d2 bd 21 f0 a3 bd 00 c9 4c be
       -0.1023847 -0.10268911 -0.08004785 -0.1999855
0003b0 d2 0a 11 be a8 72 b6 bd 30 14 ca bc aa 05 ce bd
       -0.14164284 -0.08908588 -0.02466783 -0.10059674
0003c0 0f 2c 24 bd b2 f6 a9 3d f9 4c 7d 3d be ee 53 be
       -0.04008108 0.082990065 0.061840985 -0.20696542
0003d0 d8 de 93 bd 57 d6 4d bc 5b fe 9b bd 3f 25 8a 3d
       -0.072202384 -0.01256331 -0.07616874 0.067453854
0003e0 d1 65 5a 3d 4f 34 78 bd 6b 85 27 bd ee 60 24 3e
       0.053319756 -0.06059676 -0.04089872 0.160526
0003f0 b9 c9 1d be 0e 0d a0 bd 1f 97 aa bc 6d 1d 50 3d
       -0.15408982 -0.0781499 -0.020824013 0.050809313

encoder.0.bias f4 [16]
000000 68 d4 1e be 15 da c6 bc de e7 c1 3b e1 cb 27 be
       -0.15510714 -0.024273911 0.0059175333 -0.16386367
000010 80 95 71 bd 15 c6 35 bb e3 33 59 bd d5 d9 70 3d
       -0.058980465 -0.0027736474 -0.053028 0.05880149
000020 6b f3 12 3e f6 08 a5 bd 4e 47 7c bc 9b 6c 96 bd
       0.14350669 -0.0805835 -0.01539786 -0.073449336
000030 53 83 49 bc 51 7a d3 3d 29 6a 5b 3d 6d 67 72 3d
       -0.012299377 0.103260644 0.05356804 0.059180666

encoder.1.weight f4 [16]
000000 58 e4 7b 3f 34 23 7b 3f db d8 80 3f 1d d3 77 3f
       0.983953 0.9810059 1.0066179 0.9680651
000010 47 5d 82 3f 6b 05 82 3f e7 e6 81 3f b1 63 83 3f
       1.0184716 1.0157903 1.0148591 1.0264798
000020 37 51 7f 3f e9 e4 74 3f 3c 74 80 3f 67 e0 7f 3f
       0.997333 0.9566179 1.0035472 0.99951786
000030 e3 ee 7a 3f 80 24 7d 3f c6 67 80 3f 6b 73 81 3f
       0.9802076 0.9888382 1.0031669 1.0113348

encoder.1.bias f4 [16]
000000 d1 2c 57 bb 67 ef 37 3c c3 cc f7 3c ae 17 74 3d
       -0.003283311 0.011226512 0.030249005 0.059592895
000010 8a 3f 10 3d 06 24 a8 3d 5d 89 ff 3c d5 23 b0 3d
       0.035216846 0.08209996 0.03119343 0.086005844
000020 9e 45 bf 3c e5 ed 85 3c 0a e9 3c 3d fa 96 38 3d
       0.023348626 0.016348789 0.04612068 0.045065857
000030 67 78 b4 3d 7f 26 80 3c b1 5b fc 3d 83 2b 86 3d
       0.088120274 0.015643356 0.12322176 0.06551268

encoder.1.running_mean f4 [16]
000000 8b a9 ed 3e 2b 46 ed be 25 43 ac 3e 5f 79 b1 be
       0.46418414 -0.46342596 0.33644977 -0.3466291
000010 bd 73 1c bf fd 39 a3 be 02 7a f0 3e be bd ff 3e
       -0.611141 -0.3188018 0.46968085 0.4994945
000020 1f b8 38 be b6 2d b9 be 79 68 14 3f 5b bf 16 3e
       -0.18038987 -0.36167687 0.5797191 0.14721434
000030 98 4a 63 be c4 78 ae be 1c e5 14 be 57 e5 65 3e
       -0.22196424 -0.34076512 -0.14540523 0.22450767

encoder.1.running_var f4 [16]
000000 65 18 db 3d e5 09 72 3d 14 70 1c 3d 54 9b 6e 3c
       0.10698012 0.059091467 0.038192824 0.0145634
000010 b8 1b cc 3d c3 32 06 3d f0 fc a7 3d 85 2e a4 3d
       0.099662244 0.032763254 0.08202541 0.080166854
000020 b1 fc 01 3d fc 51 0b 3d d7 1e e9 3d 1e 80 79 3c
       0.031735126 0.034013733 0.11382835 0.015228299
000030 d3 81 87 3c 5a e5 5d 3d aa cf 5d 3c 57 3b 1e 3c
       0.016541397 0.054173805 0.0135382805 0.009657702

encoder.3.weight f4 [32, 16, 3, 3]
000000 c3 6f 24 3d 9d c8 09 3c 75 72 1c bd 44 29 8d 3c
       0.040145647 0.008409646 -0.038195092 0.017231591
000010 59 9d 07 bd 0e 16 0f bd 0f e5 8b bd 8f 6c 18 bd
       -0.033109043 -0.034933142 -0.06830799 -0.037212905
000020 4a 96 4b bd cb 99 a3 3c bf ee 4c bd a5 d0 a4 3d
       -0.049703874 0.019970795 -0.050032374 0.08047608
000030 35 d9 f0 bc 51 0a 1f 3d 61 d9 8f bd 20 6e 81 bd
       -0.029400447 0.038828198 -0.070238836 -0.06319833
000040 fb 47 a7 bc 0b fc a2 bc 64 53 cc bd 73 54 ce bc
       -0.020420065 -0.019895574 -0.09976843 -0.025186753
000050 1f a9 64 bd 13 a1 e7 bd de c7 09 3d ed bb 78 3d
       -0.05582535 -0.11310019 0.033637874 0.060726095
000060 78 3c 80 ba 38 3e c0 3d 09 58 97 bd e7 1e 74 3b
       -0.0009783646 0.09386867 -0.07389838 0.0037249865
000070 8c cc 4d 3d 35 0b 72 ba 58 9a 8f 3d 60 4e e1 bd
       0.0502439 -0.00092332374 0.070118606 -0.11001277
000080 93 79 80 3d 36 15 1c bd 13 55 39 3b 43 af 19 3c
       0.062731884 -0.038106166 0.0028279468 0.009380165
000090 0f bf c2 3d 73 77 93 3c 4c 93 37 bc 73 73 d9 3c
       0.09509098 0.018001294 -0.011204552 0.026544308
0000a0 e0 f7 61 bd 20 24 2b bc 03 1d 5a 3d 56 4a 93 3c
       -0.055168033 -0.010445625 0.053250324 0.017979782
0000b0 8c 53 22 bc c4 4d 98 3c 8c 03 07 3b 3e c1 c1 bc
       -0.009907614 0.018591769 0.002060148 -0.023651715
0000c0 d5 6a e9 3d 9f 59 1f 3b 34 a5 19 3b 1d 0d 13 bc
       0.1139733 0.0024314893 0.0023444416 -0.008975294
0000d0 2e 0f c9 bd 69 ce b8 bb 7e cd 9e bd 72 c7 48 3d
       -0.098173484 -0.0056398404 -0.07754038 0.04901833
0000e0 f4 03 f1 3c 12 c0 80 bd 74 6e 42 3c 7e 78 a9 bc
       0.02942083 -0.062866345 0.011867154 -0.020687338
0000f0 57 a6 8e 3c 4b 39 11 bd 8c e8 5d bd 89 00 b9 bc
       0.017413301 -0.03545503 -0.054176852 -0.022583263
000100 ac 88 1c 3c e7 f7 0e 3c 30 99 cf bd 6a d4 bf bc
       0.0095540695 0.008726097 -0.1013664 -0.023416717
000110 26 5c 4c 3d 03 79 2e bd 60 78 3c bb dc 01 51 3d
       0.049892567 -0.042595875 -0.0028758273 0.051027164
000120 1f f7 1a bd 3a 2f 98 3d 5b 0f 98 3d 84 bf f3 3c
       -0.03783333 0.07430883 0.07424804 0.029754408
000130 5c 29 8e bc 9c 3f b3 3c 38 54 9c bd 90 e9 f2 bd
       -0.017353706 0.021880917 -0.07633251 -0.11860955
000140 33 ae b4 bd 9d ef 9b 3d 42 47 f9 3d 51 de de bc
       -0.08822288 0.07614062 0.121717945 -0.027205618
000150 15 61 ce bc bc 85 eb 3c 5c de 71 ba 70 68 20 bc
       -0.025192777 0.028750293 -0.00092265545 -0.009790525
000160 82 7b 91 3d b3 2b d4 bd e9 4d 99 bd f2 cb fb 3c
       0.07103635 -0.103598975 -0.07485563 0.030736897
000170 1f bc ff bc ae 80 02 3d 53 a3 c8 bd a0 12 64 bd
       -0.031217633 0.031861 -0.097967766 -0.055681825
000180 a7 e3 68 3c 61 6f e4 3c 60 67 ad bd 06 16 9e bd
       0.014214433 0.02788514 -0.08466983 -0.077190444
000190 8e 9a 51 bd 00 ee 12 bd d9 1b 40 bc 20 2c 7a bd
       -0.051172785 -0.035871506 -0.011725389 -0.061077237
0001a0 4f d0 49 3d 3c 73 4b 3d db 12 b4 bd a3 89 8d bb
       0.049270924 0.049670443 -0.08792659 -0.004319386
0001b0 e2 9f bd 3c d1 cc 6f bd 14 25 1b 3b 98 61 a5 bc
       0.023147527 -0.058544938 0.0023673223 -0.020188138
0001c0 18 6e 31 bd b4 21 fa 3c d5 08 2d bd e7 47 96 3c
       -0.043317884 0.030533649 -0.04224475 0.018344833
0001d0 00 a5 a1 3d a3 51 e2 bc a2 3a 78 bb 17 20 ae bc
       0.078927994 -0.027626818 -0.0037876745 -0.021255536
0001e0 6f a7 28 3d 02 08 df bd 8a bc c8 bc 2a 32 c2 bc
       0.041175302 -0.10890199 -0.024503965 -0.02370556
0001f0 95 a8 d7 bb 0e c2 ab 3b 87 09 6b 3c ce 88 bd 3c
       -0.006581376 0.005241639 0.014345533 0.023136523
000200 58 39 83 3d 35 f4 db 3d 8d 74 65 bc 8f ca 80 bd
       0.06407422 0.10739938 -0.014004839 -0.06288635
000210 d9 11 26 3d 56 46 87 3c 3e 91 38 bc df 77 de bd
       0.040544365 0.016513031 -0.011265097 -0.10862707
000220 bf 96 69 3d c5 8a a2 bd d9 b6 4e bd a1 5c 74 3d
       0.05702853 -0.079366244 -0.050467346 0.05965865
000230 1d df 93 bd a6 66 2b bd 6b b4 2e 3d 34 b2 74 3d
       -0.0722029 -0.04184594 0.04265253 0.05974026
000240 39 d4 79 bd 12 5d 39 3d 94 bc 46 bd 3b f1 23 3d
       -0.060993407 0.045254774 -0.048519686 0.040024977
000250 10 b1 d4 3c 63 b5 8e bd 6a 01 88 bd d8 c8 8d 3c
       0.025963336 -0.069681905 -0.06640895 0.017307684
000260 20 ab 2b 3d ce 0e 06 3d 7f fd e4 bc 2e 76 c7 bd
       0.041911244 0.032728963 -0.027952908 -0.09739338
000270 ad b4 8d 3b 5f f5 8d bc 02 05 ae bd d4 82 ed bc
       0.0043245167 -0.017328916 -0.08497049 -0.028993048
000280 dc dd 87 3c 7f b1 57 3d 57 03 0d bc 5d c3 1c bd
       0.016585283 0.052659508 -0.008606753 -0.03827225
000290 bd d8 ce 3c d2 e4 a9 ba ea c6 02 bc 09 ac 68 bd
       0.025249833 -0.001296187 -0.007981995 -0.05680469
0002a0 98 c6 64 bd 07 5b 8a 3d 00 f2 e7 3c 78 1a ea 3c
       -0.055853456 0.06755643 0.028313637 0.028577074
0002b0 8c 43 bf bd 10 7d ac 3d 2b b4 63 3c cd 43 7d bd
       -0.093390554 0.08422291 0.013897936 -0.061832238
0002c0 ee 90 ac bd 22 04 d6 3c e3 50 05 bd 30 4a 5b bd
       -0.08426081 0.026125018 -0.032547843 -0.053537548
0002d0 bc 44 c3 3c 94 2a 5f bd 3b 07 5b bd 63 de d0 3d
       0.023836486 -0.054483965 -0.053473692 0.10198667
0002e0 ea b2 e6 bd a7 ac 36 bd 2d 00 98 3d 84 d7 83 3d
       -0.11264594 -0.044598248 0.074219085 0.06437591
0002f0 18 f3 89 bc b3 ff ab 3d 7c a3 4c bd 64 74 e8 3b
       -0.016839549 0.0839838 -0.0499606 0.007093953
000300 e9 4d 87 3d 4c 16 ee bd 47 3a 2e 3e 7b 0f b6 3d
       0.06606657 -0.116253465 0.17014419 0.088896714
000310 72 a8 b5 bd 9a 6d e9 3d f4 a1 ab bc 29 b5 c6 3d
       -0.08870019 0.11397858 -0.020951249 0.09702522
000320 a3 f4 91 bc 92 f3 c1 bd 6e 09 47 3d c8 a0 41 3c
       -0.017816847 -0.094702855 0.048592977 0.011818118
000330 5b a3 ad bc 33 45 86 3d 8b 3b 6c bd 74 4b 9c bd
       -0.021196058 0.065561675 -0.057673972 -0.07631579
000340 2e 0f 89 3d 53 07 fb 3c e7 7a b7 bc b8 73 aa 3d
       0.066923484 0.03064314 -0.022397472 0.08322853
000350 8a 63 f0 bb 2a 1b 0d 3d 5b 8f 15 3b 07 54 7e 3c
       -0.0073360847 0.034449734 0.0022821042 0.015522963
000360 90 57 f3 bc 67 ed 86 3d dd ac 67 bc 20 ff 08 bd
       -0.029704839 0.0658825 -0.014140335 -0.03344643
000370 1b 6d 97 bc 2f 87 6c bb 5b 1c 8a 3d 82 a7 39 3d
       -0.018484643 -0.0036091318 0.067436896 0.045325764
000380 1d 27 b1 3d 20 f8 88 bb 65 d1 09 3c 4e a0 34 bd
       0.086500384 -0.0041799694 0.00841174 -0.04409819
000390 cd 88 46 3d c1 53 07 bd 61 42 ad 3c e4 70 a9 bc
       0.048470307 -0.03303886 0.021149816 -0.020683713
0003a0 4d 6c 32 3d e4 df 33 bb 4c e2 06 3d 27 2a 4c 3d
       0.043560315 -0.0027446682 0.032930657 0.049844887
0003b0 b2 08 f6 ba d7 ac 53 3d 91 a1 83 3d 0c 3a e8 3d
       -0.0018770902 0.051678505 0.06427301 0.113391966
0003c0 1c 27 46 bd 6a b3 44 bd fa db 70 3d 4b e5 86 3c
       -0.04837714 -0.048022665 0.058803536 0.016466757
0003d0 a5 27 bf 3c a5 5b a0 3d 9c 84 56 bc c3 da a7 3c
       0.023334334 0.0782998 -0.01309314 0.020490056
0003e0 e1 7f 4d 3d 03 ef b8 bc e1 5d 89 bd 2e 89 98 bd
       0.050170783 -0.022574907 -0.06707359 -0.0744804
0003f0 71 4c 77 3d 17 4c f7 bc d5 1e 18 bd 8c 3a 44 3d
       0.060375635 -0.03018765 -0.03713878 0.047907397

encoder.3.bias f4 [32]
000000 17 87 13 3c 99 e3 27 3d 8a 33 b6 bc 63 37 b8 bc
       0.009004376 0.04098854 -0.022241373 -0.022487348
000010 2b 25 cd bb 24 5c 2f bd 01 dc 89 3d e2 2b fd 3a
       -0.0062605343 -0.04281248 0.067314155 0.0019315446
000020 7a 22 70 bc ae 20 de bc 2d 39 42 3d ee 0a 00 3c
       -0.014656657 -0.027115192 0.04741781 0.007815106
000030 1c 80 86 bc 7b 68 e8 3c 37 9c ff bc 7f 6f 17 bd
       -0.01641851 0.028370133 -0.031202419 -0.036971565
000040 f3 2d a3 bc de b5 51 bd e1 09 47 bd 26 1b 99 bd
       -0.019919371 -0.051198833 -0.048593406 -0.07475881
000050 07 3b 43 3d 29 cb 35 3d 7c 61 98 3d d4 28 87 3a
       0.047663715 0.0443832 0.07440469 0.001031185
000060 aa 0e 27 bd fc 9d 9b bb 88 b8 a1 3d f9 59 a8 3d
       -0.04078547 -0.004749058 0.07896525 0.08220286
000070 5e 85 17 3d 09 1d 8a bd 3e eb 0f 3d 0f 3c 04 bc
       0.036992423 -0.06743819 0.035136454 -0.00807096

encoder.4.weight f4 [32]
000000 dd fd 76 3f 82 a2 87 3f e9 5a 83 3f 72 7f 80 3f
       0.96481115 1.0596468 1.0262119 1.0038893
000010 21 b9 7b 3f 17 d6 79 3f 01 00 76 3f 2a 79 7f 3f
       0.9832936 0.975923 0.96093756 0.99794257
000020 30 f6 81 3f ea a6 80 3f b0 75 78 3f bc bc 82 3f
       1.0153255 1.0050938 0.97054577 1.0213847
000030 19 2c 84 3f c7 ef 7c 3f 48 35 7d 3f 18 b5 83 3f
       1.0325958 0.9880337 0.98909426 1.028964
000040 65 a5 82 3f 5c 07 7f 3f 5c 8f 85 3f ce 71 75 3f
       1.0206724 0.99620605 1.0434375 0.9587678
000050 af 7d 7f 3f 69 a9 7f 3f 19 02 81 3f 25 7b 7c 3f
       0.9980115 0.99867874 1.0078765 0.98625404
000060 e8 27 79 3f 13 63 80 3f 49 01 7d 3f 5e fc 7e 3f
       0.9732652 1.0030235 0.98830086 0.9960383
000070 09 b4 7d 3f ca 37 7f 3f c3 5e 7d 3f 58 f9 7f 3f
       0.99102837 0.996945 0.9897272 0.99989843

encoder.4.bias f4 [32]
000000 15 fb 9b 3d a2 69 ed 3d a8 d3 72 3d 74 8f b8 3d
       0.076162495 0.115924135 0.059283882 0.090117365
000010 a4 ff c2 3a d4 79 ab 3c 18 62 ac 3c 73 f4 d5 bc
       0.0014877212 0.020932116 0.021042868 -0.026117539
000020 f7 e7 9d 3d 5d da 25 3d ca a1 09 3d eb 30 aa 3c
       0.077102594 0.04049145 0.03360156 0.020775279
000030 d8 3a 3e 3d 54 cb 1d bc 8b af 2c 3d 5d 45 00 3e
       0.046442837 -0.009630997 0.0421596 0.1252646
000040 7f 49 b3 3d 4b 29 88 3d b3 de 99 3d 82 79 a8 3d
       0.08754253 0.06648501 0.0751318 0.08226301
000050 6f ba 36 3d 95 f1 e3 3c 6f 56 79 3d 8e 8a 2a 3e
       0.04461139 0.027825156 0.060873445 0.16654417
000060 f1 3e ee 3c f0 ad b8 3d db 22 e0 3c be 08 21 3e
       0.029082747 0.09017551 0.02736037 0.15725991
000070 e3 ab ea 3b 3a 97 2e 3c 83 fb d5 3c 8d cf 2d 3d
       0.007161604 0.010656172 0.026120907 0.042434264

encoder.4.running_mean f4 [32]
000000 35 3c ef be 39 b2 48 3e b3 c7 b5 be b8 44 be bd
       -0.46725622 0.19599237 -0.3550392 -0.09290451
000010 cf e7 e6 bd 6c 9f 7b be 76 55 eb be 9a a9 81 3f
       -0.11274683 -0.24572533 -0.4596364 1.0129883
000020 41 68 94 bc 55 f1 c2 3d e6 5b 21 bd a7 e0 80 bd
       -0.018116118 0.09518687 -0.03939428 -0.06292849
000030 0a b5 81 be a7 b7 19 3e 72 84 4a be d4 64 c6 3e
       -0.25333434 0.15011464 -0.19777086 0.387488
000040 fa f0 8f 3e f0 64 75 3d 16 73 cb be 7f a0 06 3e
       0.28113538 0.059910715 -0.3973624 0.13147162
000050 f3 b7 5c be 4e 51 c3 bd 2d c8 b9 3e 64 b9 ad 3e
       -0.21554546 -0.09536992 0.36285535 0.33930504
000060 21 3f 11 be 40 1f a7 be ee 9b 9a bd 64 1e 71 bd
       -0.14184238 -0.3264103 -0.075492725 -0.058866873
000070 34 f0 71 be b6 18 10 3f c5 1a cd bc c0 cd f5 3e
       -0.23626786 0.56287706 -0.025037179 0.48008537

encoder.4.running_var f4 [32]
000000 24 00 df 3e c9 a4 29 3e a4 52 78 3e 41 4b 9c 3e
       0.43554795 0.16566767 0.24250275 0.30526164
000010 17 df 50 3f 21 91 4d 3f 88 6b 06 3f 34 3f e8 3e
       0.8159041 0.80299574 0.5250783 0.4536072
000020 bd 2e 94 3e 22 55 85 3e 45 5f 75 3e 4f 60 ad 3f
       0.28941908 0.26041514 0.23962124 1.3545016
000030 95 51 ee 3e 9b 18 68 3f bb 98 61 3f 88 ea 1d 3e
       0.46546617 0.90662545 0.88123673 0.15421498
000040 60 5c 28 3e 57 fb 96 3e 8e be e8 3e ec ad 85 3e
       0.16441488 0.29488632 0.45457882 0.26109254
000050 b4 8c b9 3e 94 5b 60 3e 4a 76 ef 3e 26 9f 8e 3e
       0.3624016 0.21909934 0.46769935 0.27855796
000060 88 a2 8c 3e 33 a4 81 3e 24 d9 0d 3f 83 15 0c 3e
       0.27467752 0.25320587 0.55409455 0.13680081
000070 2d b8 0c 3f bf ad 84 3e ce 9c 31 3f c3 70 3e 3e
       0.5496853 0.25913808 0.6937989 0.18597703

encoder.6.weight f4 [64, 32, 3, 3]
000000 c9 24 60 bb e1 8e d8 bb 4b c9 24 3d 9f 33 b1 bd
       -0.0034201613 -0.0066088294 0.04023103 -0.08652424
000010 bd 3a 10 bd 69 c7 65 3d 2e 73 b7 bc 6a 0c 69 3d
       -0.035212267 0.056098375 -0.02239379 0.056896605
000020 ab 57 6d 3c b8 fd 02 bc f3 5d 85 3d 0e f0 93 3d
       0.014486234 -0.007995062 0.0651206 0.07223521
000030 c3 ab fe bc 54 fc 49 3b e9 d6 73 3d 8d 2d 32 3d
       -0.031087762 0.0030820565 0.059531126 0.04350047
000040 28 e0 4a bd a9 65 02 bd 18 51 fc ba 44 60 72 3d
       -0.04953018 -0.031835232 -0.0019250242 0.059173837
000050 68 54 ed bc cb f5 c1 bc 46 1a 34 3c eb 84 f4 bb
       -0.028970912 -0.023676774 0.010992592 -0.007462134
000060 c0 5e f0 bb 82 dd 3e bd 1f ae 04 3d 41 f5 03 3d
       -0.007335514 -0.046597965 0.032392617 0.032216314
000070 86 17 a9 3c f7 31 29 bc 22 0f ca 3c 51 3e 14 bd
       0.0206411 -0.010326854 0.024665419 -0.036192242
000080 23 f7 0e 3d 0a f2 48 bd ce e1 85 bd 56 6f 3f 3c
       0.034903657 -0.04905895 -0.065372095 0.011684259
000090 a3 44 07 bd fa 17 16 bd 9f 55 70 bc 58 1c a9 bc
       -0.03302444 -0.03664396 -0.014668851 -0.020643398
0000a0 a1 68 73 bc a7 7f 54 bd b0 94 11 3d 47 d7 ea bb
       -0.014856488 -0.05187955 0.03554219 -0.0071667763
0000b0 98 59 20 bd e0 3d 08 bd c5 d9 7a ba e8 77 b6 3c
       -0.039147943 -0.033262134 -0.00095691934 0.022273973
0000c0 22 e5 22 bd ce ef 97 3c 28 97 9e 3c 86 6d e2 3c
       -0.0397693 0.018546965 0.019359186 0.027640115
0000d0 7b d5 98 3b 4f 37 2a 3c 1e 26 60 3d a3 52 58 bd
       0.0046641207 0.010389163 0.05472385 -0.052813184
0000e0 c2 c8 86 3c ce bb 06 bd 55 e9 11 bd 52 a4 41 bd
       0.01645315 -0.03289395 -0.035622913 -0.04727585
0000f0 06 56 a7 3c a8 d3 91 3c 83 fa 0f 3d 84 0b b6 3c
       0.020426761 0.01780112 0.035151016 0.022222288
000100 17 80 e5 3c 06 e7 87 3c 29 59 b6 3d 08 3e 2f bc
       0.02801518 0.016589653 0.08903725 -0.010695942
000110 3f 51 3c 3d 81 ac 53 3b 88 b6 c2 3c 7e 93 88 bd
       0.04597592 0.0032298865 0.023768678 -0.06668757
000120 50 36 16 3d 82 bc 68 3d c5 4c 2b 3d 78 3b 63 3d
       0.03667289 0.0568204 0.04182126 0.055476636
000130 a1 07 8a 3c 15 b3 2b bd 5a ae 27 bd ae fe ad bc
       0.01684934 -0.041918833 -0.04093776 -0.021239605
000140 a3 21 d3 3c 2a cb 3e bd e4 6c 6b 3d 96 e0 20 bb
       0.025772875 -0.04658047 0.057476893 -0.0024547926
000150 15 ba a8 bc 14 86 4d 3d f4 b1 8a 3d 41 2d 96 bc
       -0.020596543 0.050176695 0.06772223 -0.018332126
000160 8b ee 84 3d 30 dc 4c 3d ff 32 96 bc 06 05 73 bc
       0.06490811 0.050014675 -0.018334864 -0.014832741
000170 f2 b0 30 3b f6 89 f3 3c 43 38 b7 bc 78 78 d7 bd
       0.0026960936 0.02972887 -0.022365695 -0.105210245
000180 63 12 e3 3c da dc 61 bc ba e2 f9 ba 2e c9 42 3c
       0.027718728 -0.013785565 -0.0019064762 0.011888785
000190 54 fb 88 bb 0e 1b b6 3c 57 ac 3e bc 80 46 d2 3c
       -0.0041803513 0.022229698 -0.011637769 0.025668383
0001a0 6a 77 e7 bb 12 df 15 3c 49 f6 bd bc 97 91 b8 bc
       -0.007063796 0.009147422 -0.023188727 -0.02253036
0001b0 ba 56 b0 3c 43 d5 fc bb 7e e5 f6 bc 0c fc f2 bc
       0.02152573 -0.0077158525 -0.030138727 -0.029661201
0001c0 62 87 4c 3d 5c 7d 47 bd 7f 90 67 bb 39 31 76 3d
       0.0499338 -0.048703536 -0.003533393 0.060105536
0001d0 bb 9e 39 3d ce 40 47 3d 92 22 ac bc e0 72 88 bc
       0.045317393 0.048645787 -0.021012578 -0.01665634
0001e0 96 b4 23 bd e8 10 a5 bc 67 1d 1e 3b 66 f6 66 bd
       -0.039967142 -0.020149663 0.0024126412 -0.056387328
0001f0 47 7f 83 3c b6 25 fa bc 06 65 7a bd e1 60 f3 bb
       0.016051902 -0.03053556 -0.0611315 -0.0074273203
000200 31 38 4e bd 67 ba e9 bc 5f 16 58 bd 89 9b dd bc
       -0.050346557 -0.028531266 -0.05275571 -0.027051704
000210 58 52 49 bd 0a 79 22 bd ca 56 5c 3d b8 a2 05 3d
       -0.049150795 -0.039666213 0.053793706 0.032625884
000220 bd af 93 3c 23 9f 69 bc 84 e2 b5 3c f0 dc 75 3d
       0.018028134 -0.014259133 0.022202738 0.060025156
000230 21 d8 10 3d a2 a8 e2 3c ab ae 27 3d 4d 7c 34 3d
       0.035362367 0.027668301 0.04093806 0.044063855
000240 c8 8f 5a bc cd fb 0a bd 25 47 aa bd d8 4f bc ba
       -0.013339944 -0.033931542 -0.08314351 -0.0014367057
000250 5e d5 f3 3b 98 f7 10 bd 00 bc 37 3c 99 d5 b4 3d
       0.007441207 -0.035392374 0.011214256 0.08829803
000260 51 5d 84 3d a4 8c ce bb f9 ef ae 3c 4d 2c 07 bc
       0.06463111 -0.0063033868 0.021354662 -0.008250308
000270 ef 0c 8b 3d a7 f2 83 3d 6d a5 5a bc be 1a 00 bd
       0.06789576 0.06442767 -0.013345105 -0.031275503
000280 03 32 89 bc 99 20 83 3c 6e 21 0f bd 17 4d 14 3d
       -0.01674748 0.016006755 -0.03494399 0.03620633
000290 c0 3c ad bc 95 08 0f bd 85 66 01 bd 65 c4 e6 bc
       -0.021147132 -0.034920294 -0.03159191 -0.02816982
0002a0 6a f0 05 3d 8d 1f 20 3d 1e 0a 0e 3d 0b fe a2 3b
       0.03269998 0.03909259 0.034677617 0.004974132
0002b0 ee 12 82 3c 5a 00 2d 3d ca bf 17 bd 65 cb 13 bd
       0.015878167 0.042236663 -0.03704814 -0.036082644
0002c0 f8 2d ac 3c 2e 2e 2b 3d cb ce 77 bc 6e be 16 bd
       0.021018013 0.041792087 -0.015124987 -0.0368027
0002d0 c3 83 4d bd 62 c6 d4 bb 99 06 73 bc d1 78 07 bd
       -0.050174486 -0.0064933756 -0.014833116 -0.033074204
0002e0 3b 47 62 bd 2a d6 d9 3c fa 5f ed 3c c0 32 7f 3c
       -0.055243712 0.02659138 0.02897643 0.015576065
0002f0 e9 4d 33 bd 39 4b 71 3b 8f 0b 26 3c f6 87 21 3d
       -0.043775473 0.0036818518 0.010134592 0.039436303
000300 a2 0c 36 bc b0 22 2a 3c 92 d4 25 bd ad d2 e8 3b
       -0.01111141 0.010384247 -0.040485926 0.0071051926
000310 9b ed 51 3b 95 e3 1d bd f1 18 d5 bc 94 82 1a bc
       0.0032032493 -0.038547117 -0.02601287 -0.009430546
000320 e4 07 27 3d ba 0e 65 3c 82 91 72 bc 91 e7 ee 3a
       0.04077901 0.013980562 -0.0148052 0.0018226971
000330 59 c0 af 3c b6 54 78 3d 1a 73 68 bd 39 87 4b bc
       0.021454023 0.06062766 -0.056750394 -0.012422376
000340 46 db 10 bd 58 96 b6 bc 13 6e aa bb de a0 48 3d
       -0.035365365 -0.022288486 -0.00520111 0.04898154
000350 21 9f 1a bd 24 2c db 3c b2 75 a6 3d 66 01 7f 3c
       -0.037749413 0.026754446 0.08127917 0.015564298
000360 a7 f9 e4 bb be ac 39 bd 6a 24 8a bc 7e fd c1 3b
       -0.0069877687 -0.045330755 -0.016863067 0.005920111
000370 d0 d3 00 3d 05 c3 8d 3d 4a d5 40 3d 8e 85 5a 3d
       0.031452 0.06921963 0.04707841 0.053350024
000380 2a 8a 95 bc 91 f0 e1 3b fc e2 51 bd e5 0c e3 bb
       -0.018254358 0.006895133 -0.05124186 -0.0069290274
000390 8f ab ce bc a0 1b 51 3d 41 1a 8b bc 32 75 48 bd
       -0.02522829 0.051051736 -0.016980292 -0.04893989
0003a0 e1 2d b1 bc 80 04 ea bd 89 39 5c bd 9c e6 d5 3a
       -0.021628322 -0.114266396 -0.053765807 0.0016319337
0003b0 10 36 48 bd c5 59 6d bd ca cd bf 3c 31 07 1f 3d
       -0.048879683 -0.05794694 0.023413558 0.038825218
0003c0 6c db a8 3c 7f 28 b0 bc a2 3b 21 bd 0e 9c 50 ba
       0.020612441 -0.021503685 -0.03936351 -0.0007957824
0003d0 24 03 23 bb b7 75 ba 3b 1d 4f 34 3d 6c db 1d 3d
       -0.0024873698 0.0056903022 0.04402076 0.038539335
0003e0 6c 75 ef 3c 69 57 1e 3d 3b f6 96 bc 6c 6c c8 bc
       0.029230796 0.03865758 -0.018427959 -0.024465762
0003f0 8f b6 10 bd af 48 6f bb 35 b5 97 3c f5 d9 27 bc
       -0.03533035 -0.0036511829 0.018519023 -0.010244836

encoder.6.bias f4 [64]
000000 56 66 66 bd 01 39 20 bc bc bc 1c 3d b5 78 4a 3d
       -0.05624994 -0.009779216 0.03826593 0.04943152
000010 58 7a 5b bc 86 1c 84 3c a5 58 d4 bb cd a9 00 3c
       -0.013395868 0.016126882 -0.006480294 0.007852984
000020 32 c0 1d b9 da b3 21 b9 dc f0 8a bc 48 4b 4a bd
       -0.00015044285 -0.00015421156 -0.016960554 -0.0493882
000030 0e e3 4a bd 59 7e 02 bd 96 17 aa 3c b5 80 18 bd
       -0.049532942 -0.031858776 0.0207632 -0.03723212
000040 c5 db 31 bd b3 3c ac b9 0c 64 7a bc 16 2b 37 3d
       -0.04342248 -0.0003285162 -0.015282642 0.044718824
000050 85 3f 54 bc 7f 7b e5 bb 1e 1b 1b bd 6e dc a0 bc
       -0.012954597 -0.0070032473 -0.037867658 -0.019636359
000060 19 3d 4f 3d b3 2c 8e 3b 79 90 49 bd f9 25 62 bd
       0.050595377 0.0043388247 -0.049210045 -0.055211995
000070 e9 4c c0 bb 0f 49 0f 3d 1e ab 6c 3d a5 00 38 bd
       -0.0058685434 0.034981783 0.057780378 -0.04492249
000080 f4 db d6 bb 46 b1 30 3d 81 b6 8c bb 84 a0 3a bd
       -0.006556982 0.04313781 -0.004294217 -0.045563236
000090 ac 10 0e 3c a0 52 37 bd 8d 14 1f 3c ec c8 17 3c
       0.008670967 -0.04475653 0.0097094895 0.009264212
0000a0 8e c3 18 3c 5a ee 8a bb 4f 8d de bb 1c e3 28 bd
       0.009323968 -0.0042398395 -0.0067917476 -0.041232213
0000b0 23 57 50 3d ae 27 45 3d fb 3c 0e bd d5 e8 e2 3a
       0.05086435 0.048133545 -0.034726124 0.0017311821
0000c0 2d 4f 5e bd 7d 64 64 bd 6f d0 07 bd 11 e1 be 3c
       -0.054274727 -0.055759896 -0.033157762 0.02330068
0000d0 a2 35 19 bd 2a 5c 50 3b 02 98 0c bd e2 95 10 3d
       -0.037404664 0.0031793215 -0.034324653 0.03529919
0000e0 2a 31 d5 bc 6f 11 37 bd d0 e1 13 3d 2b 14 6c bd
       -0.02602442 -0.04469436 0.036104023 -0.05763642
0000f0 b9 23 e4 bc c0 8e 6a 3d b2 42 6c 3d 65 07 5d bd
       -0.027849065 0.057265043 0.057680793 -0.05396213

encoder.7.weight f4 [64]
000000 60 18 82 3f c8 bf 80 3f 38 3e 81 3f ff 00 81 3f
       1.0163689 1.0058527 1.0097113 1.0078429
000010 44 95 80 3f 63 d3 83 3f 69 4d 7b 3f 4f 69 83 3f
       1.0045552 1.0298885 0.98164994 1.0266513
000020 7b f9 7a 3f a7 ec 80 3f fe 81 84 3f b6 05 80 3f
       0.98036927 1.007222 1.035217 1.0001743
000030 ea 84 7e 3f eb 34 7e 3f 1c be 7f 3f 94 9e 81 3f
       0.9942156 0.99299496 0.9989946 1.0126519
000040 6b 95 7c 3f ee 86 81 3f 3f 40 7f 3f 43 6f 85 3f
       0.98665494 1.0119302 0.99707407 1.0424579
000050 f2 b2 78 3f df 3f 82 3f 7d 1f 7c 3f 48 cc 81 3f
       0.9714805 1.0175742 0.9848555 1.0140467
000060 3c b2 71 3f 43 99 7d 3f 2b ff 7e 3f d6 2f 7a 3f
       0.9441259 0.99061984 0.99608105 0.9772924
000070 bf 21 80 3f 57 60 7b 3f f2 50 7a 3f 8e 88 78 3f
       1.0010298 0.9819388 0.9777976 0.97083366
000080 6d 1c 7c 3f 3e 49 84 3f 35 ec 7b 3f 80 3c 74 3f
       0.98480874 1.0334852 0.984073 0.95404816
000090 dc 4a 83 3f bf 05 81 3f 32 65 82 3f 50 f2 81 3f
       1.025722 1.0079879 1.0187132 1.0152073
0000a0 de 41 87 3f 4f 29 82 3f 3a 92 80 3f 17 b5 71 3f
       1.0566976 1.0168856 1.0044625 0.94416946
0000b0 fb 70 6d 3f 97 01 86 3f 70 7c 7d 3f a3 58 7f 3f
       0.9275052 1.0469235 0.99018 0.99744624
0000c0 fc 37 76 3f de bf 7e 3f 01 4d 81 3f 67 77 85 3f
       0.96179175 0.99511516 1.0101625 1.0427064
0000d0 22 dc 77 3f 2a a6 80 3f 1c ac 7a 3f e6 57 7e 3f
       0.9682027 1.0050709 0.9791887 0.9935287
0000e0 c5 f3 79 3f 3c f6 7e 3f 46 c2 7d 3f 13 e3 7a 3f
       0.9763759 0.99594474 0.9912456 0.9800274
0000f0 cc b2 7a 3f 0d 5b 81 3f a1 53 7c 3f 15 8d 76 3f
       0.9792907 1.0105911 0.9856511 0.96309024

encoder.7.bias f4 [64]
000000 89 89 b1 3d 33 7d 25 3c c8 20 b7 3d 0a 76 02 3d
       0.08668811 0.010100651 0.089417994 0.031850852
000010 f1 10 e9 3c aa 9e dd 3d d4 a7 81 3d 21 57 9c 3d
       0.028450461 0.108212784 0.06330839 0.07633806
000020 21 55 d6 3d b1 c2 c5 3d 64 b6 b7 3d 2b ad b7 3d
       0.10465456 0.09656275 0.08970335 0.08968576
000030 23 0b 76 3d f6 08 9d 3d a9 16 2b 3e 42 0f 41 3d
       0.060069215 0.07667725 0.16707863 0.04713369
000040 5a 55 88 3d 75 41 3d 3d 2f 62 8e 3d 4f c8 f7 3d
       0.066569045 0.046205003 0.06952321 0.12098753
000050 b3 6f 08 3e af ef 81 3d a2 7e 43 3d b5 e1 f2 3d
       0.1332386 0.06344544 0.04772819 0.118594564
000060 88 de 4f 3e ab b8 19 3d c8 60 39 3d b3 9f da 3d
       0.20299733 0.03752963 0.045258313 0.106749915
000070 e9 ef 80 3d 42 89 64 3d 4e e9 ba 3d a5 21 86 3d
       0.06295759 0.05579496 0.091265306 0.06549386
000080 10 d2 01 3e 79 46 9c 3d 1b d7 85 3d 49 bc b1 3c
       0.12677789 0.07630629 0.06535169 0.021696227
000090 16 c9 86 3d 58 b8 ca 3d 30 52 13 3e 04 e3 cb 3d
       0.06581323 0.09898442 0.14386821 0.09955409
0000a0 03 ba f7 3d 8d e1 13 3d 0e db 5b 3d 8c cb bc 3b
       0.12096026 0.036103774 0.053675704 0.0057615694
0000b0 ec 3b 10 3e 10 c4 d0 3d 1d 3e 74 3d 7b 4b d2 3c
       0.14085358 0.10193646 0.05962955 0.025670758
0000c0 1a e7 ff 3d ca b5 9e 3d 27 a1 97 3d 24 de e7 3d
       0.12495251 0.07749517 0.07403784 0.11321667
0000d0 ad 74 6e 3d 8b ce 97 3d 59 40 3d bb b0 cf 0c 3e
       0.05821674 0.07412442 -0.0028877466 0.13751101
0000e0 6e d2 19 3e 98 07 81 3c a6 b7 a6 3d 50 b3 05 3e
       0.15021679 0.015750691 0.08140497 0.13056684
0000f0 db 81 d4 3b 9f a8 a6 3d be 63 da 3c e9 a3 63 3d
       0.0064852065 0.08137631 0.026658889 0.05557624

encoder.7.running_mean f4 [64]
000000 16 c0 b4 3d 6c bc 3b 3d 03 db 89 be 80 5d 99 3d
       0.088257 0.04583399 -0.26924905 0.07488537
000010 48 82 0a be c0 37 cc bc 2d 9a 04 3c 3c 30 32 be
       -0.13526261 -0.024928927 0.008093399 -0.17401212
000020 9b c9 79 3e dc c7 27 be ff 49 c8 bb 62 7d cf 3e
       0.24393313 -0.16384834 -0.0061123366 0.40525347
000030 c0 80 07 bf b5 2f dc be b2 cc 49 3f cc d6 de be
       -0.5293083 -0.43005148 0.78827965 -0.43523252
000040 3c 2b 06 be cf 2f ca 3d 4d 9c e0 be 82 fd da be
       -0.1310243 0.098724 -0.43869248 -0.42771536
000050 b2 4a bf 3d 86 69 f3 3d 2e 8f 29 bd 2b 31 9c 3e
       0.09340419 0.118853614 -0.041396312 0.30506262
000060 95 bf 2c bd 06 04 c4 be 05 ff 74 3e 23 60 cb 3e
       -0.042174894 -0.3828432 0.23925407 0.39721784
000070 16 0d 84 3e 07 14 e4 3e e2 10 63 be cf 23 0b 3e
       0.25791234 0.4454653 -0.22174409 0.13587879
000080 7c f9 c5 bd 4f 32 27 3e 84 33 60 be 58 56 10 3d
       -0.09666726 0.16327785 -0.21894652 0.035238594
000090 5a 90 20 3f 1b e2 dc 3d 49 81 2c 3e 1b 6c 59 3d
       0.62720263 0.10785314 0.16846193 0.053081613
0000a0 16 67 df bd 22 b2 e0 be 8f a5 ec bd ef 1d e5 bc
       -0.10908334 -0.43885905 -0.11555015 -0.027968375
0000b0 f4 4c d0 3d 42 eb 50 3e c3 07 3f be 09 a5 7a 3d
       0.10170928 0.20402244 -0.18655305 0.061192546
0000c0 25 8d 14 bf 72 d8 73 bd 2a 2d c3 bd 65 2c 8b be
       -0.5802787 -0.05953259 -0.09530099 -0.27182308
0000d0 b4 f1 01 3f f0 02 cb be ef d6 8d 3d 3a 70 ab 3e
       0.50759435 -0.3965068 0.06925761 0.3348406
0000e0 19 7f ca 3b 84 d8 88 3e a0 7c d0 3e ae 66 a1 be
       0.006179702 0.26727688 0.4072008 -0.3152365
0000f0 e5 14 c8 3e 88 5e 0a 3f b8 80 1c 3f 94 43 c9 be
       0.3907844 0.54050493 0.6113391 -0.3930937

encoder.7.running_var f4 [64]
000000 24 5b 07 3f a0 13 2e 3f 25 e9 30 3f 5f a9 8a 3f
       0.52873445 0.67998695 0.6910575 1.0832938
000010 a6 97 39 3f bc 15 27 3f 8a 17 cd 3e 4c c6 23 3f
       0.7249702 0.6526754 0.4005702 0.6397445
000020 ac 8e 68 3e e1 bc d8 3e 76 74 7b 3f d4 af 26 3f
       0.22710675 0.42331603 0.9822458 0.6511204
000030 7a cd bc 3e 1a bb 14 3f fb f5 ad 3e d5 e5 e9 3e
       0.36875516 0.58097994 0.3397673 0.4568316
000040 79 ea bc 3e 88 01 33 3f 1a 41 d1 3e 17 9d 32 3f
       0.36897638 0.6992421 0.4086998 0.6977095
000050 39 46 9f 3e 67 9c 11 3f 30 fa 13 3f b9 8b 4d 3e
       0.31108263 0.56879276 0.5780363 0.20072831
000060 d4 70 55 3e fc e4 e8 3e ea e8 b4 3e 7d 2e 00 3f
       0.20843822 0.454872 0.3533395 0.50070935
000070 fb 7f c6 3e 7f 09 07 3f 12 47 d0 3e 29 31 09 3f
       0.38769516 0.52748865 0.40679222 0.5359064
000080 bb a7 ea 3e 8d e2 23 3f 21 f6 5a 3e 90 1d f6 3e
       0.45831093 0.64017564 0.21382953 0.4806943
000090 d4 36 16 3f a6 38 cf 3e cf e8 09 3f a6 b8 18 3f
       0.5867741 0.40472907 0.5387086 0.5965675
0000a0 1c 74 8e 3f 5a e4 71 3f 9e df 91 3e 18 6f b9 3e
       1.1129184 0.9448906 0.2849092 0.3621757
0000b0 cc cc 74 3e a6 7e f9 3e b5 d3 a2 3e a8 5b ae 3e
       0.23906249 0.48729438 0.31802145 0.34054303
0000c0 88 e1 da 3e f7 89 11 3f 48 ad 7a 3e 7a 1f 58 3f
       0.42750192 0.5685114 0.24480164 0.8442303
0000d0 11 ed 67 3e d9 26 9a 3e d3 9a 37 3f 51 27 7a 3e
       0.22649027 0.30107763 0.7172062 0.2442906
0000e0 eb d7 96 3e 4c 19 57 3f 44 b8 b5 3e c9 8d ae 3e
       0.29461607 0.84022975 0.35492146 0.34092548
0000f0 11 0c 15 3f 9e e2 eb 3e 0f f6 e4 3e ca 61 fa 3e
       0.58221537 0.46071333 0.44718978 0.48902732

decoder.0.weight f4 [64, 32, 3, 3]
000000 29 26 f7 bc 95 f6 65 3c 64 f9 37 ba cb 0c ad bc
       -0.030169563 0.0140358405 -0.0007018058 -0.021124264
000010 c7 c9 ba 3b c9 58 d8 39 f7 bf c0 bc 89 64 19 bc
       0.0057003233 0.0004126488 -0.023529036 -0.009362348
000020 7d cd 3e bd 95 37 2d 3b db ab b0 bc 69 59 7d 3d
       -0.046582688 0.0026430835 -0.021566322 0.061852846
000030 3e b4 52 bc b4 df 68 3d a9 7f de bb 0a 08 dd bc
       -0.012860356 0.056853965 -0.0067901206 -0.026981372
000040 3e 26 36 3d 0e ac 94 bc 2f be 1b bd fa 49 41 3d
       0.044470064 -0.018148448 -0.03802317 0.04718969
000050 c3 a6 eb bc df ae 87 b9 ba 53 f8 bb e5 4a cd bd
       -0.028766042 -0.00025879496 -0.0075783404 -0.100240506
000060 f7 d9 f1 bc 9f a2 f9 3c ad 05 7b 3b 73 75 7c bd
       -0.029522879 0.030473052 0.0038302944 -0.061635446
000070 d7 f5 28 bd a2 2f e9 3c 1f a4 44 bc 52 14 8c 3d
       -0.041250076 0.028465096 -0.01200202 0.06839813
000080 c2 41 58 3d 59 09 18 3d 91 0c 7f 3d de 62 87 3c
       0.052797087 0.03711829 0.062267844 0.016526636
000090 c9 86 cf bc c1 01 25 3c 01 cf b6 bc 60 a7 66 3d
       -0.025332825 0.010071219 -0.022315504 0.056311965
0000a0 18 ac dd 3c f3 d4 0e 3d 84 57 d3 bc 9c 4d 87 bd
       0.0270596 0.034871053 -0.025798567 -0.066066
0000b0 d5 9f 11 3c 33 82 fa 3c 66 5a 69 3d c0 93 ee ba
       0.008888205 0.030579662 0.056970976 -0.0018201992
0000c0 d1 0b fb bc da d2 1b 3d 39 da 71 3d 42 fb a4 bb
       -0.030645283 0.03804288 0.059046004 -0.005034835
0000d0 e7 02 2a bd ff c1 48 3d 29 74 a8 3c 4e f9 21 3d
       -0.041506674 0.049013134 0.020563202 0.039544396
0000e0 d9 fd 80 bd c9 ed 10 bd 83 d6 1b bd 67 33 9a bd
       -0.062984176 -0.03538302 -0.03804637 -0.075293355
0000f0 0e 91 be 3c 2d 03 52 3c e1 18 17 bd 5c d0 9e 3c
       0.023262527 0.01281814 -0.03688896 0.019386463
000100 9d 0a 71 bd ac 3a b8 3c 5e 83 df bc 14 0b 8b 3a
       -0.058848012 0.022488914 -0.02728432 0.001060816
000110 d4 8b da bc b9 28 12 3d 43 27 28 bd 73 e6 23 bd
       -0.026678003 0.035683367 -0.041053068 -0.040014695
000120 97 e4 2d bd 17 05 83 bd e8 88 d7 bc 24 ac 19 bd
       -0.04245433 -0.06397455 -0.0263104 -0.03751768
000130 a0 10 51 bc d5 b8 0d bd d0 0b 37 3d 5f 37 01 3b
       -0.012760311 -0.034600098 0.044689 0.0019716842
000140 a4 31 0b bd 51 81 31 3c 49 24 5d 3d dd 7b 23 3d
       -0.033982888 0.010834054 0.053989682 0.039913047
000150 62 6d ad 3c 11 b5 b0 bc 53 d8 37 3c b2 55 db bc
       0.021170322 -0.021570714 0.011221009 -0.026774261
000160 57 dd 2a 3b 27 d9 e9 bb 58 09 c1 bb b1 20 17 bd
       0.002607187 -0.0071364823 -0.0058910064 -0.03689641
000170 33 d5 21 bc 55 1d c5 3c 8a c0 a2 3c 5d d2 52 3b
       -0.009877491 0.024061838 0.0198672 0.0032168843
000180 7a 86 71 3d 49 bd 19 3d 87 e7 91 3c a3 f4 b5 bc
       0.058966137 0.037534032 0.017810596 -0.022211378
000190 83 d2 04 bd d3 fc 46 3a 03 fc 02 3d 33 c2 16 3c
       -0.032427322 0.00075907743 0.03197862 0.009201574
0001a0 46 d7 88 bc 92 8e 26 3d 21 ce 17 bc a6 9d af bd
       -0.016704213 0.04066331 -0.009265454 -0.08574991
0001b0 a5 7a d0 3c f1 0d 0a 3d 8b 9c 27 38 0d 4a 0f bd
       0.025449106 0.0337047 3.9961695e-05 -0.03498273
0001c0 4f b5 87 3d 8f 59 f2 3c 2a 1f 42 3d 2e 47 aa 3c
       0.06626379 0.02958372 0.047393 0.020785894
0001d0 c6 c4 d7 3d dc 4e b6 3c de b1 3f 3d c6 00 8e bb
       0.105355784 0.0222544 0.046800487 -0.0043335883
0001e0 12 66 52 3d a9 5d ef bc 72 54 b4 bb b4 62 3b 3c
       0.051366873 -0.029219465 -0.0055032307 0.011437107
0001f0 95 b6 01 bd bd a9 37 bd 25 1c ef ba 75 0c ab bc
       -0.031668264 -0.04483961 -0.0018242641 -0.020879963
000200 52 0b 10 3b a4 7b 31 bd 85 80 82 bd e9 a7 9c bc
       0.0021979404 -0.043330804 -0.063721694 -0.019123035
000210 e2 3a b4 3b e3 81 af 3c 46 e8 2d 3d 3c 09 91 3c
       0.0055001834 0.02142424 0.04245784 0.017704599
000220 b6 71 84 bb 3f fa 83 bd 31 75 cf 3c ba 30 c2 bb
       -0.0040418757 -0.06444215 0.025324436 -0.005926219
000230 53 57 1f bd 52 25 d6 bc 93 b4 fd bb 3e f8 74 3d
       -0.03890164 -0.026140843 -0.0077424734 0.059807055
000240 e4 2b 58 bc 96 50 bf bc 5e 46 69 3c bb 09 24 bd
       -0.013194058 -0.023353856 0.014237968 -0.040048342
000250 88 7a 27 bd 9a 53 8d 3c 4e 89 2d 3d 27 d0 4b 3d
       -0.04088834 0.017251778 0.042367272 0.049759056
000260 7f 37 67 3c dd 04 03 bd 32 76 7c 3c 0c 73 dd 3b
       0.014112352 -0.03198706 0.015409039 0.0067580994
000270 ab 65 10 bb eb 0b 05 3d 1d a8 0d bb f1 0e 09 bd
       -0.0022033255 0.03248207 -0.0021615096 -0.033461515
000280 f7 03 92 ba d2 29 94 bd d9 54 cb 3c c3 5c 2f bd
       -0.0011140098 -0.07234539 0.024820732 -0.042813074
000290 4f 52 ce bd 92 73 3d 3c 92 45 e5 3c 6a 09 ca bc
       -0.10074293 0.011563199 0.027987275 -0.024662692
0002a0 74 9d b5 3d 38 0a c9 3d 39 9e 56 3d c0 b8 2a bd
       0.088679224 0.09816402 0.052396987 -0.041680098
0002b0 aa 37 2e bc 80 16 55 bd cd b8 5e 3d 8f 6e ae bb
       -0.0106333885 -0.05202341 0.05437546 -0.005323238
0002c0 3d 27 39 bd 66 28 3a bd ee 27 2e bd 0c 2a 0d bd
       -0.045203436 -0.045448683 -0.04251855 -0.034463927
0002d0 44 0d 0a bd 48 98 86 3d 3e d2 b4 3c 9b 51 7f 3d
       -0.033704057 0.06572014 0.022072908 0.062333684
0002e0 cc ed bc 3d 2d a0 e4 bc 01 22 67 bc 2f be 69 bb
       0.09225044 -0.027908409 -0.014107228 -0.0035666337
0002f0 95 89 d2 bc 8d 02 b1 3c 51 9f 18 3c 4c 83 1d 3d
       -0.02570037 0.021607662 0.009315328 0.038455293
000300 02 2c 36 bc 24 31 81 bd a4 bc 5e 3d e1 68 db 3c
       -0.011118891 -0.06308201 0.05437912 0.026783409
000310 38 94 cd bc ed ab 01 bd b3 14 5b bd db 27 a2 bc
       -0.02509509 -0.0316581 -0.053486537 -0.019794395
000320 6b 3a 0d bd b1 7d 4e bd cc 37 1d bd d3 3b fe 3c
       -0.03447954 -0.050412837 -0.03838329 0.031034386
000330 37 62 48 bd 11 d7 9e 3c 26 5f 12 3d 8c c1 02 bd
       -0.04892179 0.019389661 0.035735272 -0.031922862
000340 ec 78 eb bb 42 f2 63 bd 60 8b 5a bd 80 c6 fc bc
       -0.007186046 -0.055650957 -0.053355575 -0.03085637
000350 e3 87 45 bd 93 31 01 bc 2b b2 1f bc 50 11 9e bd
       -0.048225295 -0.007885355 -0.009747068 -0.07718146
000360 f9 ef 85 3c a3 b2 7d bd a8 e5 b3 bc 24 a9 63 3d
       0.01634978 -0.06193794 -0.021960095 0.055581227
000370 02 18 55 bd e1 75 65 bd 1f 1c 46 3a e0 69 ee 3b
       -0.05202485 -0.05602062 0.0007557291 0.007275805
000380 c2 54 a3 bd c0 17 bb 3c 3c 52 a0 3c 6d 15 39 bb
       -0.07975151 0.022838473 0.019570462 -0.002824153
000390 62 52 8a 3c 20 b5 56 3d f6 bd 3a bc 4b 8a 32 3d
       0.016884986 0.052418828 -0.011397829 0.043588918
0003a0 17 80 a6 3d f9 c1 19 3d 2c ab c4 3c 4f 69 c5 3c
       0.081299 0.037538502 0.024007402 0.024098067
0003b0 13 e3 34 3d b8 e2 b6 bc 19 e2 1d 3d e5 63 20 3c
       0.044161867 -0.022324905 0.0385457 0.009789442
0003c0 b7 b8 0e bd 3d 0c 99 bd c2 0e f6 bc e4 2f 63 3b
       -0.034844127 -0.074730374 -0.030036334 0.0034665996
0003d0 7f af 07 bc 04 1c 49 3d c6 6f 48 bd 4a 6e 03 3a
       -0.008281588 0.049098983 -0.04893472 0.0005013688
0003e0 4d 80 12 3d 66 c9 8f bc 38 22 e7 3b 86 c5 b0 3c
       0.03576689 -0.017552089 0.0070536397 0.021578562
0003f0 8b ad 43 bb 00 2d 1d bd e6 0e 92 bd 0a 5a 58 bd
       -0.0029858078 -0.038372993 -0.07131748 -0.052820243

decoder.0.bias f4 [32]
000000 9e b2 57 bc 18 a1 5a 3d af 73 fa 3b 5e d4 5e bc
       -0.013165144 0.053376287 0.007643185 -0.013600437
000010 0a c1 de 3b 50 53 02 bb cb ac 02 3d df 00 04 bc
       0.0067979144 -0.0019886084 0.03190307 -0.008056848
000020 a8 e2 f8 bc aa 11 a5 bc f3 93 62 bd 8b 64 09 3d
       -0.030381516 -0.020150024 -0.055316877 0.03354315
000030 14 7e 9a 3c 8b 54 30 bd b2 7c 0a bd 91 67 a2 bc
       0.018858947 -0.043049376 -0.033810325 -0.019824775
000040 6f a0 51 3b 2b 71 96 3c b7 35 50 3c 09 f5 1e bd
       0.0031986495 0.01836451 0.012708119 -0.038807902
000050 10 60 2e 3d e1 cf 40 3d 69 b7 84 3c 9b ee 90 3c
       0.04257208 0.04707325 0.016200738 0.017691901
000060 07 e8 06 bb 89 d6 be 3c 7f c4 24 3d 73 a6 bf 3c
       -0.0020585076 0.023295658 0.040226456 0.023394799
000070 68 31 0b bd 9f 7f 01 bd d3 6f c7 bc 32 04 4f bd
       -0.033982664 -0.03161585 -0.024345314 -0.05054111

decoder.1.weight f4 [32]
000000 18 4f 76 3f 65 18 7e 3f cc 75 6a 3f f9 05 7c 3f
       0.9621444 0.99255973 0.91585994 0.98446614
000010 89 da 82 3f 64 97 73 3f 5f 0f 77 3f 25 47 81 3f
       1.0222942 0.9515288 0.9650783 1.0099837
000020 44 b3 86 3f ff b4 84 3f e5 01 83 3f 3f 47 81 3f
       1.0523458 1.0367736 1.0234953 1.0099868
000030 15 fc 7b 3f 39 94 79 3f f2 05 84 3f 34 86 7e 3f
       0.9843152 0.97491795 1.0314314 0.9942353
000040 5f 4f 80 3f 4f 01 7c 3f f5 10 85 3f 07 9c 79 3f
       1.0024222 0.98439497 1.03958 0.97503704
000050 a1 b7 82 3f 8f 96 80 3f d9 19 7f 3f 49 ed 7d 3f
       1.0212289 1.0045947 0.99648815 0.99190193
000060 aa 1f 7c 3f 6e b8 85 3f 20 8c 7b 3f 90 af 81 3f
       0.98485816 1.0446908 0.9826069 1.0131702
000070 fb 08 79 3f 5e 62 81 3f 40 c1 71 3f a3 d8 7e 3f
       0.9727933 1.0108144 0.944355 0.9954931

decoder.1.bias f4 [32]
000000 4b d3 30 bd 82 ec 3e 3d 6b c9 50 bd f9 d6 e2 3c
       -0.043170255 0.04661227 -0.050973337 0.027690398
000010 b1 2a 99 3d 06 05 47 bd 08 b8 f1 bc 41 ae a3 3c
       0.07478846 -0.048588775 -0.029506698 0.019980552
000020 ed 18 eb 3d 3b fb 96 3d 30 c1 59 3d c8 f6 3c 3c
       0.114793636 0.07372137 0.053162754 0.011533447
000030 98 ae 8b 3d 94 75 f4 ba 04 0c 5f 3d c9 6e 87 3c
       0.068204105 -0.0018650764 0.05445482 0.016532319
000040 28 28 eb 3d c6 83 85 3c d4 3a cb 3d 49 0d 38 bc
       0.114822686 0.016298186 0.0992333 -0.011233636
000050 c3 a1 33 3d 27 d4 09 3d 05 58 dd 3c 90 90 03 3d
       0.04385544 0.03364959 0.02701951 0.032120287
000060 1f 30 1b 3d 25 43 5f 3d b0 07 c2 3b 8f 97 a8 3d
       0.03788769 0.054507393 0.0059213266 0.082320325
000070 f1 d4 02 bd 35 e0 15 3d 34 66 99 bd e1 53 fc bb
       -0.031941358 0.036590774 -0.07490197 -0.007700429

decoder.1.running_mean f4 [32]
000000 a5 e8 9b be da 90 37 3c ee ba 82 3d 90 34 3e bd
       -0.3045093 0.011203969 0.0638331 -0.046436846
000010 e9 45 4f 3d cf 67 04 3e 97 31 29 be 54 d1 38 be
       0.05060378 0.12930225 -0.16522823 -0.18048602
000020 8d 44 b5 be 88 34 73 be 46 5a 24 bd d6 3a 70 3d
       -0.35403863 -0.23750508 -0.040125154 0.05864986
000030 79 9f 97 be f4 61 2c be 6e c9 28 bd 4d c4 9e be
       -0.29613855 -0.16834241 -0.041207723 -0.3100914
000040 db 91 83 bd fe 31 e1 bd e0 65 9f 3c ec da 97 be
       -0.06424304 -0.109958634 0.019457757 -0.29659212
000050 8a 11 7d 3e b9 9a b7 3d 6e ac 5c bd 68 ce 21 be
       0.24713722 0.08965058 -0.05387538 -0.15801394
000060 df 16 c0 bd 62 fc f0 be 1a fc 90 3d 0f 49 7b 3c
       -0.09379362 -0.47067553 0.070793346 0.015337243
000070 93 cb a3 be 47 30 84 be b2 c0 88 bd 48 76 b4 be
       -0.31991252 -0.25818083 -0.06677379 -0.3524649

decoder.1.running_var f4 [32]
000000 21 38 85 3f fa fa 1e 3e 78 3a 8b 3e a2 e3 65 3e
       1.0407754 0.15525427 0.27193046 0.22450116
000010 dc 7d 78 3e c7 2e d4 3e 2b 2b 04 3f 00 2d 1d 3f
       0.24266762 0.41441938 0.5162837 0.6139679
000020 45 ca 7f 3e 06 62 8a 3e 49 84 88 3e 1e b3 12 3e
       0.24979503 0.2702791 0.26663426 0.1432614
000030 e5 d0 89 3e 64 81 15 3e d1 5b 6f 3e a7 5a 56 3f
       0.26917186 0.1460014 0.23374869 0.83732074
000040 dc 91 61 3e d5 9f 14 3f 49 79 e2 3d 31 c2 21 3f
       0.22028297 0.58056384 0.110582896 0.6318694
000050 d3 d9 5c 3e 85 a0 cc 3e 0c 3c c2 3e 6f 8f 89 3e
       0.21567468 0.39966217 0.37936437 0.26867244
000060 cc 8f 23 3e a4 c5 ce 3e 87 a4 b1 3e 2f ed 0a 3e
       0.15972823 0.40385163 0.34695837 0.13567041
000070 a7 08 57 3f a3 8f 88 3e 9d 44 b3 3e 47 d7 a3 3e
       0.8399758 0.26672086 0.35013285 0.3200018
