models/ae_conv_conn1.pth (torch, 203766 bytes, 32 tensors)

encoder.0.weight f4 [16, 3, 3, 3]
0.087968804 0.024036275 -0.13308018 0.12454567 0.10474282 -0.066437095 0.11233108 0.10070598
0.1066814 -0.0032306442 0.16320844 0.033198714 -0.09545148 0.2618514 0.23252825 -0.15438056
0.102765456 0.13809632 0.08434047 -0.094885886 0.0822674 -0.0013072131 0.16232568 -0.12422235
-0.22135039 0.1756707 0.20262346 -0.04122099 0.15161616 -0.025405457 0.011539725 0.17250672
0.09873348 -0.12494408 0.22894317 0.0191242 -0.010381926 0.09101657 0.062338304 0.17538242
0.14334983 -0.19828998 -0.07902627 0.12933226 -0.02133662 0.07682937 0.034104887 -0.19925603
0.09251253 0.08126823 0.08115174 0.17869925 -0.057141017 0.11911615 -0.15218493 -0.093806714
0.07616375 0.08632647 0.15459023 0.1590149 -0.12893078 -0.09347324 0.110101834 0.20444968
-0.1443747 0.13791917 -0.019880138 -0.073096626 0.10823209 -0.012416706 -0.0041943733 -0.0030353628
0.1866788 -0.1956746 0.06006354 0.027092943 0.1769954 -0.16025381 -0.029950371 0.1729562
0.10168816 -0.018444564 -0.08103266 -0.18660232 0.1556627 -0.19537088 0.10487507 0.17589284
0.035209056 0.06367043 -0.16089274 -0.16276222 -0.065978445 0.11807178 -0.04268398 0.16041628
0.14146018 -0.15440097 0.031001443 -0.15011857 0.026230989 -0.14326224 -0.10551158 0.08084783
-0.09165122 -0.026160758 0.12261044 -0.04967961 0.16296797 0.02226065 0.08854655 0.013720387
-0.16513114 0.027211655 0.2423159 0.026091086 0.09793671 -0.092092745 -0.006336038 -0.048443392
0.15060338 -0.11112018 -0.091663234 0.23962851 0.2202323 0.13455282 -0.06483294 0.016895786
-0.06767135 0.081614256 -0.10965476 -0.08793698 0.2008253 -0.033401936 -0.011834583 0.02542475
-0.037470285 0.03587682 0.14761716 0.1846639 0.030645987 -0.1620684 -0.107575476 -0.07680856
0.15640423 0.15671471 -0.13222834 0.07819182 0.18972017 -0.049047682 0.0072918897 -0.1444099
0.08293405 0.09827545 0.1382165 0.13800357 -0.07437528 -0.045042645 -0.06611255 -0.10904749
-0.035819773 -0.11504486 0.097245894 0.08166791 0.036233995 0.12217672 0.082444906 -0.05713596
0.11371428 0.05059444 0.12306923 -0.015320971 0.21455418 -0.09302823 -0.15444055 0.058552194
0.17450836 -0.09282831 -0.13368697 -0.10529313 0.12631051 0.20239684 -0.019240778 -0.16535859
-0.008018429 0.01311125 -0.14639802 0.12805575 -0.05031774 0.05176335 -0.027393997 0.08979016
-0.15150239 0.11354556 -0.06616707 -0.12784487 -0.13832918 0.058019225 0.1599567 0.09555442
0.20466001 0.13476561 0.16242172 0.023639811 0.11762579 -0.089975476 0.08107981 -0.15670767
0.17444716 0.0960788 -0.123818524 0.055859875 0.1498242 -0.14358057 -0.065307595 -0.08289159
-0.16598737 -0.15229145 -0.0003063372 -0.18018371 -0.0696917 0.06755926 0.15424089 0.0133883115
0.04564672 0.10381859 0.007207846 -0.02806571 0.12268451 0.093242064 0.07482976 -0.011624305
-0.1327241 -0.067883074 0.13769186 -0.10290962 0.057881117 -0.07970384 0.13052157 -0.11404467
-0.18212819 -0.16626664 0.018099057 -0.1104574 -0.07911891 0.013055881 -0.13973962 -0.18345056
0.02879807 -0.09668385 0.089393415 0.008244825 0.21089296 -0.15120922 0.160515 0.011142776
00000000: fd28 b43d b9e7 c43c 2c46 08be cd11 ff3d
00000010: 6783 d63d 2c10 88bd d60d e63d f03e ce3d
00000020: c77b da3d 37b9 53bb 1d20 273e 60fb 073d
00000030: 117c c3bd 6311 863e e31b 6e3e f015 1ebe
00000040: b276 d23d 1f69 0d3e b2ba ac3d 8853 c2bd
00000050: d07b a83d cb56 abba b438 263e 4a68 febd
00000060: ada9 62be 05e3 333e 867c 4f3e 57d7 28bd
00000070: 4441 1b3e 1b1f d0bc 1d11 3d3c 9aa5 303e
00000080: c734 ca3d afe2 ffbd 1470 6a3e 5baa 9c3c
00000090: f418 2abc e566 ba3d 7356 7f3d 7397 333e
000000a0: 4cca 123e 870c 4bbe 86d8 a1bd ad6f 043e
000000b0: 23ca aebc b758 9d3d 91b1 0b3d c609 4cbe
000000c0: 3677 bd3d f56f a63d e232 a63d f0fc 363e
000000d0: b30c 6abd 2bf3 f33d 5ed6 1bbe bc1d c0bd
000000e0: bdfb 9b3d efcb b03d e74c 1e3e cdd4 223e
000000f0: 6e06 04be e66e bfbd 127d e13d 425b 513e
00000100: f6d6 13be af3a 0d3e acdb a2bc afb3 95bd
00000110: c9a8 dd3d 716f 4bbc f470 89bb f0ec 46bb
00000120: ba28 3f3e ec5e 48be 3005 763d 05f2 dd3c
00000130: 483e 353e 9319 24be 7b5a f5bc 6e1b 313e
00000140: e241 d03d 0e19 97bc 74f4 a5bd ae14 3fbe
00000150: 0b66 1f3e 4e0f 48be bec8 d63d 411d 343e
00000160: 5f37 103d a465 823d 11c1 24be 24ab 26be
00000170: b51f 87bd 9ecf f13d 66d5 2ebd 2a44 243e
00000180: f0da 103e 4a1b 1ebe bdf6 fd3c afb8 19be
00000190: 5fe2 d63c 56b3 12be 7516 d8bd 8c93 a53d
000001a0: a3b3 bbbd 164f d6bc 2f1b fb3d d97c 4bbd
000001b0: 13e1 263e f75b b63c e557 b53d 79cb 603c
000001c0: 2318 29be faea de3c a921 783e f9bc d53c
000001d0: 0b93 c83d 1f9b bcbd 8a9e cfbb 946c 46bd
000001e0: c637 1a3e fa92 e3bd efb9 bbbd 2d61 753e
000001f0: 9384 613e 37c8 093e 22c7 84bd 0869 8a3c
00000200: 4797 8abd 6025 a73d ad92 e0bd 4e18 b4bd
00000210: 26a5 4d3e 78d0 08bd d7e5 41bc 9147 d03c
00000220: 717a 19bd 93f3 123d f428 173e 8918 3d3e
00000230: 4b0d fb3c 42f5 25be 8850 dcbd ce4d 9dbd
00000240: 6e28 203e d279 203e de66 07be 0823 a03d
00000250: 0146 423e 39e6 48bd cef0 ee3b 30e0 13be
00000260: 54d9 a93d a444 c93d a088 0d3e cf50 0d3e
00000270: 1152 98bd a37e 38bd 0466 87bd 4a54 dfbd
00000280: c1b7 12bd a49c ebbd db28 c73d 8141 a73d
00000290: 196a 143d ca37 fa3d e0d8 a83d 6507 6abd
000002a0: 08e3 e83d 1e3c 4f3d b80b fc3d cf04 7bbc
000002b0: 17b4 5b3e 9685 bebd aa25 1ebe 6dd4 6f3d
000002c0: 52b2 323e c51c bebd 3de5 08be eda3 d7bd
000002d0: 8b57 013e 1e41 4f3e d69e 9dbc c353 29be
000002e0: bb5f 03bc 91d0 563c 5de9 15be 0c21 033e
000002f0: f919 4ebd ce05 543d 6069 e0bc e7e3 b73d
00000300: 7123 1bbe 938a e83d 9a82 87bd c4e9 02be
00000310: 2aa6 0dbe 91a5 6d3d b0cb 233e 09b2 c33d
00000320: 6592 513e ffff 093e e151 263e 47a8 c13c
00000330: cae5 f03d 1045 b8bd 2c0d a63d fa77 20be
00000340: 47a2 323e f6c4 c43d 9194 fdbd 53cd 643d
00000350: 846b 193e c906 13be fdbf 85bd 11c3 a9bd
00000360: 98f8 29be 4af2 1bbe e29b a0b9 1482 38be
00000370: 86ba 8ebd 825c 8a3d 53f1 1d3e a65a 5b3c
00000380: 0ef8 3a3d d79e d43d cb2f ec3b 0fea e5bc
00000390: 0442 fb3d b2f5 be3d 5840 993d de73 3ebc
000003a0: d4e8 07be 4806 8bbd 18ff 0c3e 47c2 d2bd
000003b0: c014 6d3d c43b a3bd 72a7 053e 4090 e9bd
000003c0: d07f 3abe cd41 2abe 7944 943c 7d37 e2bd
000003d0: 1809 a2bd 55e8 553c e717 0fbe 77da 3bbe
000003e0: eee9 eb3c 2f02 c6bd e513 b73d 4d15 073c
000003f0: 53f4 573e 97d6 1abe 0b5e 243e 3190 363c

encoder.0.bias f4 [16]
-0.16524854 0.08099175 0.037719794 -0.12003341 -0.17228246 -0.0547444 0.008187131 0.09194338
0.12300764 -0.14007968 -0.173389 -0.19154756 -0.041594453 0.18992215 0.061293807 0.040846042
00000000: ea36 29be 01df a53d 1280 1a3d 14d4 f5bd
00000010: d06a 30be aa3b 60bd 5123 063c d04c bc3d
00000020: 6eeb fb3d 0c71 0fbe e38c 31be 0b25 44be
00000030: f25e 2abd f47a 423e 370f 7b3d 2e4e 273d

encoder.1.weight f4 [16]
1.0036875 1.0013828 0.9769644 1.0051521 0.9991117 0.9754736 0.99921894 0.9946137
1.0234108 1.0411325 0.9998117 1.0174778 0.9880332 0.90641165 1.0201203 1.0147662
00000000: d578 803f 502d 803f 571a 7a3f d3a8 803f
00000010: c9c5 7f3f a3b8 793f d0cc 7f3f 019f 7e3f
00000020: 20ff 823f d443 853f a9f3 7f3f b63c 823f
00000030: beef 7c3f 980a 683f 4d93 823f dce3 813f

encoder.1.bias f4 [16]
0.001428522 0.021068547 -0.02791575 -0.01603295 0.025662914 0.0703092 0.024668802 0.052845374
0.0098512545 0.041821826 0.020130942 -0.0284345 0.05136214 0.12605721 0.0608952 -0.0021411066
00000000: 3f3d bb3a f297 ac3c 92af e4bc 8857 83bc
00000010: 083b d23c 45fe 8f3d 3a16 ca3c 6474 583d
00000020: 2867 213c 5d4d 2b3d a5e9 a43c 78ef e8bc
00000030: 1b61 523d 2415 013e 3f6d 793d cf51 0cbb

encoder.1.running_mean f4 [16]
0.59807336 0.7287857 0.3898964 -0.33923814 0.28079885 0.10789108 0.32031274 0.41396
-0.10848759 -0.43484563 0.29422858 -0.62781024 0.46347284 0.21313216 0.19202797 -0.33358827
00000000: 561b 193f b391 3a3f 80a0 c73e 9fb0 adbe
00000010: dec4 8f3e 00f6 dc3d 0800 a43e 91f2 d33e
00000020: be2e debd 16a4 debe 21a5 963e 2cb8 20bf
00000030: 504c ed3e 513f 5a3e fba2 443e 15cc aabe

encoder.1.running_var f4 [16]
0.13511764 0.097238235 0.028543252 0.018998079 0.054621704 0.012678327 0.026523331 0.032184187
0.012306554 0.021850089 0.04997774 0.04342671 0.05877327 0.0030615327 0.005363801 0.03290522
00000000: 475c 0a3e d724 c73d 8ad3 e93c dca1 9b3c
00000010: 02bb 5f3d c2b8 4f3c 7547 d93c 91d3 033d
00000020: 6ea1 493c f5fe b23c 75b5 4c3d 35e0 313d
00000030: 3ebc 703d ffa3 483b d3c2 af3b a0c7 063d

encoder.3.weight f4 [32, 16, 3, 3]
0.0026819364 0.030540537 0.020890187 0.031210365 -0.059570692 0.0148652475 -0.062219653 -0.0268067
-0.09244869 -0.050177764 0.017312191 0.03877427 0.0055326275 -0.047788527 -0.06765197 -0.004503039
-0.03962576 -0.07508066 0.022664746 -0.054415986 0.09066689 -0.028115246 0.019788513 -0.053966317
-0.010625151 0.062396865 -0.05646194 0.0025819452 -0.1057399 -0.0012625151 -0.0004181116 -0.09548037
-0.11271686 -0.02197584 -0.046271577 -0.016248332 0.023760578 0.048272926 0.0039240518 -0.07143141
-0.058024865 -0.056866627 0.046308145 0.0099118175 -0.084280185 0.032304395 0.018662412 0.07976689
-0.0050839665 0.105089754 0.08694349 -0.07135233 -0.020920813 -0.05893317 -0.00441799 0.062106434
-0.031248096 -0.0028536823 -0.03538633 -0.012545617 0.07101759 0.014475199 0.040426616 0.029908901
0.097623445 0.020440228 0.00081305165 0.025807953 -0.03351162 -0.066513464 0.013590517 -0.07353633
0.12003145 -0.073111 -0.032582615 -0.021180142 -0.0148418825 -0.031353954 -0.0016134625 -0.056105953
-0.06497234 -0.024149965 -0.109329246 -0.09204628 0.026207723 -0.04530633 0.06647538 0.038225755
0.06018066 0.0203738 0.047201406 0.028377824 0.06475086 0.037138168 -0.06029377 -0.014512955
-0.041938536 -0.011555572 -0.05272286 -0.03569149 -0.047537807 -0.08830844 0.0924877 -0.020066923
0.02629084 -0.05575352 0.026342047 -0.044779897 -0.025942825 0.009689755 -0.021700291 0.029423656
0.078415245 0.042614304 -0.019940415 -0.010170424 -0.006032202 -0.016058754 -0.01811058 -0.012369901
-0.043839235 -0.029742107 -0.047992148 0.045172743 0.024303447 0.066235125 -0.054854043 0.09200546
0.061619233 -0.062510855 0.058770023 0.025819456 0.0026935 0.0834711 0.04285869 -0.0023482565
-0.06289783 -0.06388928 -0.013052912 -0.0278324 0.04976615 -0.055705674 0.0658089 -0.03450852
0.020631328 -0.031109938 0.06628874 0.05560385 0.0020961945 -0.06250744 0.050522078 0.043014877
0.035183314 -0.028944781 0.040109318 -0.052860804 0.0011475148 -0.0034141857 0.073148265 -0.0238295
0.05595324 -0.04930485 -0.03625358 0.05851366 -0.029527303 0.08348717 0.013373947 -0.006006431
0.05578836 0.08007242 0.05065416 0.0042980122 -0.042506106 -0.02426285 -0.031838983 0.016410837
0.07665862 -0.060682673 0.043099616 -0.009640593 -0.05218689 -0.060530577 0.011625006 -0.0049698865
0.073528364 0.020990934 -0.03155461 0.0365165 0.047303896 0.002907818 -0.011622327 -0.027682485
-0.06262286 -0.07274432 -0.033011407 -0.08663528 0.07737906 -0.03943323 -0.010937905 0.038354903
0.045681298 0.08371307 0.0081866635 0.015999958 0.044959337 0.09403733 -0.032512538 -0.05636613
-0.03757651 -0.011522641 0.07328172 0.054965526 -0.023927642 0.006267245 -0.054141838 -0.00019765375
-0.03827824 0.058220956 0.011639824 0.099721484 -0.051376313 0.05969941 0.07711949 -0.038253807
-0.042611502 0.08412725 0.039758883 0.056939226 0.04002568 0.003532642 0.0015195127 0.00074326235
-0.0734287 0.046080578 0.015055695 -0.08275458 -0.07749554 -0.019675983 0.05601484 -0.040761627
-0.045044012 -0.043801885 0.07777385 0.08840963 -0.06757302 0.0584653 -0.022529535 -0.082693055
0.035471246 -0.08406361 -0.051169187 0.013845488 0.011469947 0.07926792 0.009786299 0.0038301707
00000000: 6dc3 2f3b 2630 fa3c e621 ab3c e1ac ff3c
00000010: 6600 74bd 5e8d 733c 09da 7ebd b999 dbbc
00000020: bd55 bdbd 3387 4dbd 4cd2 8d3c c5d1 1e3d
00000030: 0b4b b53b e7bd 43bd 1e8d 8abd 3b8e 93bb
00000040: 9f4e 22bd e4c3 99bd 6bab b93c 4ce3 5ebd
00000050: 90af b93d f251 e6bc 851b a23c c90b 5dbd
00000060: 1d15 2ebc db93 7f3d a344 67bd da35 293b
00000070: 298e d8bd fa7a a5ba fd35 dbb9 368b c3bd
00000080: 19d8 e6bd ad06 b4bc 4487 3dbd 391b 85bc
00000090: 8ba5 c23c d5b9 453d 5595 803b a24a 92bd
000000a0: 7bab 6dbd fbec 68bd 9cad 3d3d 2d65 223c
000000b0: 179b acbd 9d51 043d eae1 983c d35c a33d
000000c0: 6797 a6bb 4c39 d73d 6e0f b23d 2c21 92bd
000000d0: 2062 abbc e863 71bd c9c4 90bb 5163 7e3d
000000e0: 02fc ffbc d804 3bbb 42f1 10bd 228c 4dbc
000000f0: ac71 913d 6329 6d3c 6196 253d 8303 f53c
00000100: cdee c73d 4472 a73c f922 553a 336b d33c
00000110: 7b43 09bd 3638 88bd c3aa 5e3c 379a 96bd
00000120: 0dd3 f53d 38bb 95bd 5975 05bd fa81 adbc
00000130: 5e2b 73bc 016d 00bd d17a d3ba 5bcf 65bd
00000140: 3810 85bd 26d6 c5bc 03e8 dfbd c382 bcbd
00000150: 94b1 d63c 2193 39bd 3e24 883d 9c92 1c3d
00000160: ff7f 763d f5e6 a63c 4356 413d 9c78 e83c
00000170: 199c 843d 311e 183d 9af6 76bd bfc7 6dbc
00000180: bec7 2bbd 9553 3dbc edf3 57bd 3d31 12bd
00000190: 01b7 42bd 0edb b4bd 316a bd3d 6363 a4bc
000001a0: e35f d73c ce5d 64bd 47cb d73c 206b 37bd
000001b0: 0c86 d4bc c7c1 1e3c cfc4 b1bc e109 f13c
000001c0: 2c98 a03d 568c 2e3d 155a a3bc daa1 26bc
000001d0: c7a9 c5bb a68d 83bc a45c 94bc 20ab 4abc
000001e0: c590 33bd b8a5 f3bc 6a93 44bd 0e07 393d
000001f0: 0618 c73c 48a6 873d a2ae 60bd 5c6d bc3d
00000200: 7364 7c3d b105 80bd d6b8 703d 5383 d33c
00000210: 6e85 303b e5f2 aa3d 988c 2f3d 35e5 19bb
00000220: 94d0 80bd 62d8 82bd e2db 55bc c600 e4bc
00000230: 97d7 4b3d a22b 64bd d1c6 863d ce58 0dbd
00000240: 0803 a93c 45da febc 64c2 873d ddc0 633d
00000250: 4f60 093b e703 80bd 3df0 4e3d 5e30 303d
00000260: 611c 103d 9b1d edbc ab49 243d 9284 58bd
00000270: 3568 963a 88c0 5fbb c2ce 953d 1536 c3bc
00000280: 392f 653d e2f3 49bd a27e 14bd 05ac 6f3d
00000290: 3ee3 f1bc 52fb aa3d 661e 5b3c 98d1 c4bb
000002a0: 5682 643d 02fd a33d bd7a 4f3d 57d6 8c3b
000002b0: e21a 2ebd e2c2 c6bc 9869 02bd 0570 863c
000002c0: 32ff 9c3d 658e 78bd 3989 303d 94f3 1dbc
000002d0: ecc1 55bd e9ee 77bd cf76 3e3c 6eda a2bb
000002e0: 0a96 963d 2ef5 ab3c 683f 01bd 5392 153d
000002f0: bbc1 413d 1791 3e3b 936b 3ebc 61c6 e2bc
00000300: 6a40 80bd f9fa 94bd f836 07bd d66d b1bd
00000310: ea78 9e3d bd84 21bd e634 33bc 081a 1d3d
00000320: 501c 3b3d c271 ab3d 5b21 063c 5812 833c
00000330: 4827 383d a596 c03d de2b 05bd 2ce0 66bd
00000340: d4e9 19bd 76c9 3cbc ba14 963d 8823 613d
00000350: e703 c4bc 765d cd3b d5c3 5dbd 4641 4fb9
00000360: a5c9 1cbd 1979 6e3d f6b4 3e3c c73a cc3d
00000370: f86f 52bd 5e87 743d d3f0 9d3d 06b0 1cbd
00000380: 6689 2ebd e84a ac3d 36da 223d 1b39 693d
00000390: f8f1 233d e683 673b 632a c73a 7ed7 423a
000003a0: c961 96bd fdbe 3c3d 29ac 763c 3c7b a9bd
000003b0: fbb5 9ebd 872f a1bc d16f 653d aaf5 26bd
000003c0: 1280 38bd 9b69 33bd e547 9f3d 1c10 b53d
000003d0: b963 8abd 4f79 6f3d dc8f b8bc fa5a a9bd
000003e0: 4c4a 113d 8b29 acbd c896 51bd 30d8 623c
000003f0: 72ec 3b3c 3857 a23d b756 203c 9a03 7b3b

encoder.3.bias f4 [32]
-0.043878935 -0.04669665 -0.01826019 -0.025501002 0.005831858 0.013037509 -0.009698123 -0.0092842365
0.026113423 -0.029745251 -0.041467573 -0.01712809 0.0738822 0.021277519 -0.068947196 -0.08267422
-0.005511383 0.039376304 -0.03771709 -0.07016076 0.028659869 0.03043238 -0.08226372 -0.053823646
0.037519526 -0.04774235 -0.021922417 0.02537694 0.057332836 0.000866879 -0.0063989535 0.030443927
00000000: 66ba 33bd fd44 3fbd 6596 95bc 7ae7 d0bc
00000010: 2c19 bf3b 479b 553c e0e4 1ebc e91c 18bc
00000020: d1eb d53c 50ac f3bc e7d9 29bd 3550 8cbc
00000030: 8d4f 973d 314e ae3c 3034 8dbd 1a51 a9bd
00000040: d598 b4bb 0c49 213d 3c7d 1abd 72b0 8fbd
00000050: 1ac8 ea3c 544d f93c e279 a8bd 2f76 5cbd
00000060: 13ae 193d 7b8d 43bd a496 b3bc 4de3 cf3c
00000070: d6d5 6a3d 443f 633a 50ae d1bb 8b65 f93c

encoder.4.weight f4 [32]
0.95314306 0.978544 0.98747116 1.0053473 0.99905026 1.0213914 0.9951279 0.9945953
1.0244797 1.0257165 1.00394 0.9830167 0.9878944 1.0020466 0.9854865 0.9648507
0.9553796 0.9894421 1.0414401 1.0025791 1.0014129 1.002653 0.9922424 1.0132939
0.9999297 0.99622816 0.9915035 0.99471194 0.97384673 1.0122865 1.0036467 1.0013838
00000000: 2f01 743f dc81 7a3f e9ca 7c3f 38af 803f
00000010: c2c1 7f3f f4bc 823f b4c0 7e3f cc9d 7e3f
00000020: 2722 833f ae4a 833f 1b81 803f fca6 7b3f
00000030: a6e6 7c3f 1043 803f d848 7c3f 7500 773f
00000040: c293 743f 144c 7d3f e94d 853f 8354 803f
00000050: 4c2e 803f ef56 803f 9903 7e3f 9db3 813f
00000060: 65fb 7f3f cf08 7f3f 2cd3 7d3f 71a5 7e3f
00000070: 054e 793f 9b92 813f 7f77 803f 582d 803f

encoder.4.bias f4 [32]
0.05878685 0.05268996 0.042815913 0.040824782 0.0020220545 0.030706406 0.02643378 0.017732078
0.22522448 0.09790373 0.0155748045 0.056308422 0.025714472 0.02509918 -0.057030834 -0.12676392
-0.010365279 -0.020125214 0.03680547 0.028292866 0.009920224 0.008585992 0.022031927 0.04366834
0.019898456 0.10773717 0.005583839 0.021047916 0.10265893 0.011789273 0.03641423 0.0075388825
00000000: 7bca 703d 6dd1 573d bd5f 2f3d e337 273d
00000010: 7284 043b 008c fb3c a88b d83c dd42 913c
00000020: 3fa1 663e c081 c83d 772d 7f3c a9a3 663d
00000030: 28a7 d23c cc9c cd3c 2a99 69bd 67ce 01be
00000040: 22d3 29bc a2dd a4bc 55c1 163d 71c6 e73c
00000050: 6f88 223c 43ac 0c3c 4d7c b43c 93dd 323d
00000060: 1602 a33c 4ea5 dc3d a3f8 b63b ae6c ac3c
00000070: d83e d23d cb27 413c 1627 153d bb08 f73b

encoder.4.running_mean f4 [32]
-0.41209233 0.2682543 -0.18550786 0.22562052 -0.04574509 0.54990894 -0.16085503 0.29082292
-0.115391225 -0.27446142 0.03714898 -0.46433204 0.03804179 0.21078154 0.5724547 0.8896497
-0.0758526 0.021421738 -0.13977833 -0.37258774 -0.037953626 -0.4136361 0.18776664 -0.1447591
-0.41235334 -0.12757756 -0.29215068 0.47439548 0.00494559 -0.16660835 0.44328558 0.24085267
00000000: c4fd d2be a158 893e c6f5 3dbe 1109 673e
00000010: 345f 3bbd d5c6 0c3f 2eb7 24be bee6 943e
00000020: 3c52 ecbd 3586 8cbe 8729 183d eebc edbe
00000030: b5d1 1b3d 1ed7 573e 648c 123f 15c0 633f
00000040: 9c58 9bbd a47c af3c 0d22 0fbe d2c3 bebe
00000050: 4375 1bbd 1cc8 d3be e645 403e bb3b 14be
00000060: fa1f d3be b1a3 02be c694 95be f7e3 f23e
00000070: 9e0e a23b 619b 2abe 54f6 e23e 15a2 763e

encoder.4.running_var f4 [32]
0.38564557 0.15021682 0.31102479 0.4579782 0.44741726 0.5120294 0.37893486 0.13697813
0.13027547 0.29040504 0.6105345 0.38191453 0.33545992 0.16093917 0.30412602 0.17862782
0.6898083 0.5940993 0.38765424 0.46286863 0.52259636 0.6544848 1.1034092 0.16000035
0.8664862 0.10624953 0.3515197 0.16242717 0.22981833 0.75244766 0.2362655 0.07642236
00000000: 5673 c53e 70d2 193e a43e 9f3e 1e7c ea3e
00000010: e013 e53e 5c14 033f c003 c23e ff43 0c3e
00000020: ef66 053e f8af 943e fd4b 1c3f 4d8a c33e
00000030: 67c1 ab3e 3dcd 243e 68b6 9b3e 36ea 363e
00000040: 4797 303f e416 183f 9e7a c63e 1efd ec3e
00000050: e0c8 053f 518c 273f 833c 8d3f 22d7 233e
00000060: 0ad2 5d3f 5b99 d93d 64fa b33e 4f53 263e
00000070: 7f55 6b3e 69a0 403f 95ef 713e 5483 9c3d

encoder.6.weight f4 [64, 32, 3, 3]
-0.0019032069 0.019517506 0.027277242 -0.009045157 0.018904379 0.020840788 0.0077591124 0.0958182
0.047438543 -0.04295466 0.05220358 -0.00879592 -0.014898973 -0.014796242 -0.010890116 0.014122654
-0.03423738 0.01505117 -0.018299984 0.0037904389 -0.01246873 0.046064142 -0.049155116 0.00918079
0.022024535 -0.005423253 -0.03858029 -0.027965067 -0.0009496632 0.028418098 0.00258836 -0.03551906
-0.012861583 -0.028362714 -0.07347471 0.038394485 0.037234806 0.057755675 0.026519293 -0.0061350632
-0.05972467 0.03864765 0.028846605 0.04260146 -0.041843537 0.028769393 -0.03756815 0.03269984
0.017834742 -0.061811436 -0.047476236 0.0005693427 0.008185199 0.0038176924 -0.0069694263 0.018640675
-0.00032092756 -0.053920597 -0.046048816 -0.05059508 -0.029324386 -0.03426277 0.022924753 0.02061593
0.011937494 0.020518117 0.053229213 -0.041280914 0.016820213 0.007937237 0.065545276 -0.0729349
0.053071715 0.0049878336 -0.03500367 -0.01822868 0.048763193 0.021695191 -0.008059129 0.035403166
0.03639651 0.013582903 0.013253017 -0.04727757 -0.009153497 -0.08831827 0.016436938 -0.039706
0.029876724 -0.083020106 0.009049915 -0.04867758 -0.019472292 -0.029700445 0.021332571 -0.02220572
0.050328773 0.00022974683 -0.021893984 0.023945095 -0.028312288 -0.004683471 0.030360356 0.017278297
0.0021931452 -0.03955941 0.09523931 0.035872053 0.006449445 -0.006173114 0.02914844 0.0029817964
-0.0057618064 0.0074105836 0.017198192 0.05842499 0.0083888285 -0.0319461 0.023944747 0.0151827065
0.038261432 0.00037969984 0.043523002 -0.065735474 0.047486853 0.027739052 -0.010748437 -0.024767522
-0.01389554 0.06527966 -0.046551883 -0.016386563 -0.019801117 -0.014623009 -0.0066565005 -0.04264558
-0.043374132 -0.04160624 0.028013127 -0.04563459 0.029605018 -0.016319461 -0.012431008 0.024649294
0.036395695 -0.07043554 -0.040391922 -0.027806306 -0.00544409 -0.06689626 0.0055400054 0.029501518
0.00067730027 0.0043091127 -0.025095023 0.03379299 -0.03472367 0.05862941 0.047565095 -0.009056688
0.0076400153 -0.032859076 -0.014866005 0.03676753 -0.00662519 -0.010261106 0.0094885025 -0.0026496504
0.0018926412 0.17814896 0.006923395 -0.006173265 -0.011220086 -0.0543939 0.0065370984 0.020284759
-0.07500621 0.023150323 -0.052618314 -0.008277926 0.010128169 -0.010947308 0.02506436 -0.01175799
0.0496858 0.06666862 -0.014165595 0.008599957 -0.005744003 0.023061367 -0.03783441 0.003914062
0.0416693 0.0076872273 -0.022582108 -0.021923374 0.01932908 -0.0029730208 0.04219373 -0.06255089
-0.0014573708 -0.033934314 0.02229926 -0.064982034 0.008968572 -0.052107662 -0.0072976835 0.013817569
-0.04793385 0.048985552 -0.01589574 -0.016707245 0.03503688 0.005897134 0.050964784 -0.016239299
0.032007117 0.018449692 0.035931613 0.045279007 0.017808773 0.004705346 0.008042097 -0.021587921
0.052573305 -0.0013366 -0.0028444738 -0.046833616 -0.0064694346 0.06272023 0.0055592093 0.04998833
-0.049500458 0.049756564 -0.030720767 0.002051084 -0.032118984 -0.011675999 -0.06381247 -0.0025964698
-0.008617931 0.044771425 -0.08073185 -0.015125982 0.014639299 -0.01161289 0.011460806 0.016816072
0.034212366 -0.018029904 0.057427417 0.028909422 0.019473903 -0.047862627 -0.0060207075 -0.01579961
00000000: 0775 f9ba 2de3 9f3c 8674 df3c 2332 14bc
00000010: 5bdd 9a3c 4dba aa3c 2740 fe3b 553c c43d
00000020: eb4e 423d 3af1 2fbd 6cd3 553d c31c 10bc
00000030: d21a 74bc f06b 72bc 756c 32bc b462 673c
00000040: 7f3c 0cbd 2f99 763c d9e9 95bc 0369 783b
00000050: a549 4cbc c1ad 3c3d e056 49bd 066b 163c
00000060: cc6c b43c 8bb5 b1bb 5e06 1ebd ff16 e5bc
00000070: d2f2 78ba 12cd e83c 7aa1 293b 6f7c 11bd
00000080: 64b9 52bc ec58 e8bc e979 96bd 8943 1d3d
00000090: 8683 183d 3791 6c3d fd3e d93c a408 c9bb
000000a0: dba1 74bd 004d 1e3d b74f ec3c de7e 2e3d
000000b0: 2164 2bbd caad eb3c 0fe1 19bd 44f0 053d
000000c0: 2a1a 923c fd2d 7dbd 7176 42bd f13f 153a
000000d0: 371b 063c 4032 7a3b c95f e4bb 54b4 983c
000000e0: 2b42 a8b9 d8db 5cbd af9d 3cbd c93c 4fbd
000000f0: b239 f0bc 1e57 0cbd b1cc bb3c bde2 a83c
00000100: 7b95 433c 9c15 a83c e006 5a3d 2d16 29bd
00000110: 8bca 893c 2f0b 023c 9a3c 863d e55e 95bd
00000120: ba61 593d fb70 a33b 0260 0fbd 5054 95bc
00000130: eabb 473d 1dba b13c 700a 04bc e902 113d
00000140: 8214 153d d38a 5e3c 2f23 593c 20a6 41bd
00000150: 8df8 15bc 36e0 b4bd c2a6 863c c2a2 22bd
00000160: 08c0 f43c 7206 aabd 1846 143c 2462 47bd
00000170: 5b84 9fbc 594e f3bc a5c1 ae3c c5e8 b5bc
00000180: 8b25 4e3d 32e8 7039 035b b3bc 8128 c43c
00000190: 2cef e7bc cd77 99bb 48b6 f83c 378b 8d3c
000001a0: dfba 0f3b 0c09 22bd d40c c33d 93ee 123d
000001b0: de55 d33b d547 cabb b6c8 ee3c 3e6a 433b
000001c0: 89cd bcbb 7bd4 f23b 39e3 8c3c 0b4f 6f3d
000001d0: 4c71 093c ead9 02bd c627 c43c e3c0 783c
000001e0: 05b8 1c3d 7312 c739 2d45 323d 52a0 86bd
000001f0: 9381 423d 023d e33c 361a 30bc 42e5 cabc
00000200: 1eaa 63bc 58b1 853d 30ad 3ebd 1d3d 86bc
00000210: f435 a2bc 5895 6fbc c61e dabb 22ad 2ebd
00000220: 13a9 31bd 4e6b 2abd c97b e53c 56eb 3abd
00000230: 3986 f23c 64b0 85bc 6dab 4bbc 51ed c93c
00000240: a713 153d 8240 90bd 0072 25bd 0dca e3bc
00000250: 5664 b2bb e800 89bd ef88 b53b 2bad f13c
00000260: da8c 313a 7533 8d3b 1494 cdbc 856a 0a3d
00000270: 683a 0ebd 6425 703d 9ed3 423d 8162 14bc
00000280: 1859 fa3b 3d97 06bd 8b90 73bc 8d99 163d
00000290: 1f18 d9bb 331e 28bc aa75 1b3c c2a5 2dbb
000002a0: 8012 f83a ae6c 363e a6dd e23b 1a49 cabb
000002b0: 74d4 37bc 23cc 5ebd 2835 d63b 392c a63c
000002c0: db9c 99bd bfa5 bd3c 4d86 57bd 23a0 07bc
000002d0: 9ff0 253c 565c 33bc c653 cd3c 96a4 40bc
000002e0: 5683 4b3d 8f89 883d d016 68bc d6e6 0c3c
000002f0: 3138 bcbb 31eb bc3c 41f8 1abd 8841 803b
00000300: 6ead 2a3d 23e5 fb3b 1dfe b8bc a698 b3bc
00000310: 0558 9e3c 03d7 42bb 55d3 2c3d ae1a 80bd
00000320: 4005 bfba b5fe 0abd f0ac b63c 4d15 85bd
00000330: ebf0 123c d86e 55bd 6821 efbb 1663 623c
00000340: 4956 44bd 13a5 483d c837 82bc a2dd 88bc
00000350: d582 0f3d bf3c c13b 73c0 503d 4708 85bc
00000360: e519 033d cf23 973c 072d 133d 7b76 393d
00000370: b4e3 913c 4e2f 9a3b 00c3 033c 27d9 b0bc
00000380: 1b57 573d db30 afba 5a6a 3abb 9bd4 3fbd
00000390: 8dfd d3bb 7773 803d 072a b63b 90c0 4c3d
000003a0: fec0 4abd 8acd 4b3d 1eaa fbbc 7b6b 063b
000003b0: 328f 03bd b04c 3fbc 1db0 82bd 8929 2abb
000003c0: 3932 0dbc 3e62 373d bd56 a5bd f8d2 77bc
000003d0: acd9 6f3c fe43 3ebc 1bc6 3b3c dcc1 893c
000003e0: 4422 0c3d 73b3 93bc 0339 6b3d 74d3 ec3c
000003f0: bc87 9f3c 9a0b 44bd 5b49 c5bb 2f6e 81bc

encoder.6.bias f4 [64]
-0.040579394 -0.05873415 0.030540537 0.05302761 -0.027726058 -0.0037771817 -0.024911923 -0.03756571
-0.056202497 -0.0367054 -0.0077902353 0.04746325 -0.040663198 -0.0077831917 0.04985792 -0.013896103
0.056954652 -0.0067097875 0.029660998 0.038852558 -0.01662823 -0.0057711466 -0.02287651 0.027303327
0.010980427 0.037718598 -0.04839429 -0.03743059 0.029036298 -0.011887301 -0.0015694842 0.001950514
0.049261615 -0.033357393 0.012698036 0.030635536 0.01206559 -0.056095127 0.04993235 0.005083491
-0.017710302 -0.050480027 0.024421383 0.018480996 0.008790738 0.0076096333 -0.02725399 -0.05780067
-0.010569202 0.036156733 0.04820228 0.0022070645 -0.03766666 -0.0023091866 0.013875394 0.02704376
0.055699993 -0.025182124 -0.04657342 0.019855594 -0.043806 0.050496444 0.03109923 0.003739109
00000000: 9436 26bd 3893 70bd 2630 fa3c 7b33 593d
00000010: c221 e3bc 988a 77bb 1714 ccbc 80de 19bd
00000020: 9734 66bd 6758 16bd 3b45 ffbb d368 423d
00000030: 748e 26bd 250a ffbb d137 4c3d 7bac 63bc
00000040: 4849 693d c7dd dbbb 9ffb f23c dc23 1f3d
00000050: ed37 88bc e31b bdbb 8567 bbbc 3aab df3c
00000060: 40e7 333c d17e 1a3d 1739 46bd d150 19bd
00000070: 88dd ed3c f4c2 42bc 27b7 cdba 64a8 ff3a
00000080: 8cc6 493d c3a1 08bd 6c0b 503c 60f7 fa3c
00000090: c1ae 453c 01c4 65bd dd85 4c3d 6a93 a63b
000000a0: 3215 91bc 25c4 4ebd 5a0f c83c 7565 973c
000000b0: 0707 103c 3b5a f93b c243 dfbc 65c0 6cbd
000000c0: 722a 2dbc 1519 143d c16f 453d 66a4 103b
000000d0: 5b48 1abd b955 17bb 9f55 633c e08a dd3c
000000e0: ad25 643d be4a cebc c5c3 3ebd 33a8 a23c
000000f0: ec6d 33bd 5cd5 4e3d d0c3 fe3c d70b 753b

encoder.7.weight f4 [64]
1.0350547 0.98003155 1.0020621 0.9887116 0.9855908 0.9536603 1.0270143 0.96186197
0.99359757 1.0005863 0.9812119 1.0654215 0.97994244 1.0011822 1.0056397 0.98083246
0.99709266 0.9556717 1.0334805 1.0226822 1.011777 0.99170816 0.99719775 1.0179754
0.98937976 0.9901065 1.014488 1.0321784 0.9901451 0.98375297 0.9937959 1.0424027
1.0343378 1.0098606 0.9847678 1.0104707 1.0085124 1.0002147 1.0183027 0.9718197
0.99361604 1.0586671 1.0222043 0.9801978 0.97949076 0.94348305 0.9988474 1.0076007
1.0012895 0.94624084 1.0182621 1.0132567 1.040163 0.9843001 0.9941016 0.92815214
0.983412 0.9917486 1.0125265 1.0045979 0.97612417 0.9995593 0.99370754 0.97908723
00000000: ac7c 843f 59e3 7a3f 9243 803f 341c 7d3f
00000010: ae4f 7c3f 1523 743f 3475 833f 963c 763f
00000020: 695c 7e3f 3613 803f b430 7b3f bb5f 883f
00000030: 82dd 7a3f bd26 803f cdb8 803f d617 7b3f
00000040: 7741 7f3f e7a6 743f 1749 843f 40e7 823f
00000050: e981 813f 96e0 7d3f 5a48 7f3f 054d 823f
00000060: fe47 7d3f 9f77 7d3f beda 813f 6c1e 843f
00000070: 267a 7d3f 3cd7 7b3f 6869 7e3f 746d 853f
00000080: 2e65 843f 1d43 813f be19 7c3f 1b57 813f
00000090: ef16 813f 0907 803f be57 823f 2dc9 783f
000000a0: 9f5d 7e3f 6782 873f 97d7 823f 3eee 7a3f
000000b0: e8bf 7a3f 1b88 713f 77b4 7f3f 0ff9 803f
000000c0: 412a 803f d73c 723f 6a56 823f 65b2 813f
000000d0: 1024 853f 17fb 7b3f 717d 7e3f 619b 6d3f
000000e0: e4c0 7b3f 3ce3 7d3f 789a 813f aa96 803f
000000f0: 46e3 793f 1ee3 7f3f 9e63 7e3f 76a5 7a3f

encoder.7.bias f4 [64]
0.116861105 0.0906447 0.090621635 0.0059602186 0.029352548 0.08661276 0.049646664 0.042710215
0.07147568 0.07682579 -0.0044666487 0.056716092 0.003989381 0.059361927 0.04769809 -0.0039620036
0.0764652 -0.01432413 0.05824906 0.089032464 0.020934047 0.040380206 0.020416353 0.046248514
0.12907 0.06242355 0.015405507 0.09442279 0.039491944 0.024595877 0.0444588 0.06367133
0.12517282 0.1044316 0.09247341 0.13317215 0.01969604 0.044686865 0.05430065 0.00033729986
0.017905233 0.14445108 0.105447635 0.028374683 -0.013172995 0.1366266 0.024418533 0.039091848
0.01310984 0.14272091 0.07286735 0.06047234 0.0856368 0.04477238 0.016330674 0.05787917
0.042945247 0.06665618 0.016985912 0.0178535 0.044259425 0.04970227 0.07726862 0.0053428994
00000000: e054 ef3d eea3 b93d d697 b93d f04d c33b
00000010: c174 f03c 0862 b13d 4d5a 4b3d e8f0 2e3d
00000020: d761 923d d756 9d3d f75c 92bb 224f 683d
00000030: 5ab9 823b 7e25 733d 135f 433d b2d3 81bb
00000040: c999 9c3d c1af 6abc 9196 6e3d a756 b63d
00000050: e17d ab3c b765 253d 3240 a73c 156f 3d3d
00000060: ed2a 043e d6af 7f3d 6167 7c3c bc60 c13d
00000070: 4ec2 213d 4b7d c93c 6e1a 363d 1d66 823d
00000080: 4e2d 003e 3ce0 d53d b362 bd3d 485e 083e
00000090: 9759 a13c 9309 373d 5c6a 5e3d 9fd7 b039
000000a0: ffad 923c fcea 133e eef4 d73d 0672 e83c
000000b0: 8cd3 57bc d8e7 0b3e 6009 c83c c61e 203d
000000c0: a8ca 563c 6e25 123e 7a3b 953d d8b1 773d
000000d0: 5962 af3d 3e63 373d e8c7 853c b512 6d3d
000000e0: 5be7 2f3d 0983 883d 0a26 8b3c 8141 923c
000000f0: 5f49 353d 9c94 4b3d 033f 9e3d 7d13 af3b

encoder.7.running_mean f4 [64]
0.039464157 0.18782419 0.030303182 -0.3665572 -0.24251825 -0.09225809 0.21175815 -0.1501524
-0.050137315 0.047960084 -0.39013457 0.17390108 0.58091944 -0.30668092 -0.22863038 -0.12774117
-0.31657007 -0.085845605 0.24254498 -0.43744668 -0.10612323 -0.47365215 -0.42105642 -0.40460685
0.34467164 0.006734314 0.2820756 -0.3251682 -0.044428088 -0.23727141 -0.4365383 0.07637264
0.09951511 -0.04442328 -0.07645095 -0.45347518 0.077435106 -0.057243627 -0.048447475 -0.23465212
0.08406286 -0.069938235 -0.33354804 -0.09745852 -0.40998602 0.4672535 -0.14596793 -0.0783432
-0.4319944 -0.01541876 0.28755566 -0.23391911 -0.17725018 -0.4228852 0.07214961 -0.080780864
-0.39053684 0.04704948 -0.16932519 0.054394938 0.1918968 0.4157986 -0.13699846 -0.0016990678
00000000: 2ba5 213d fc54 403e 613e f83c 63ad bbbe
00000010: b456 78be cff1 bcbd 21d7 583e 8dc1 19be
00000020: c95c 4dbd cb71 443d b8bf c7be 2013 323e
00000030: 23b7 143f 4805 9dbe 151e 6abe 95ce 02be
00000040: 7915 a2be d2cf afbd b65d 783e 03f9 dfbe
00000050: 2357 d9bd 8982 f2be b594 d7be a128 cfbe
00000060: cd78 b03e 85ab dc3b 376c 903e 727c a6be
00000070: 3afa 35bd 47f7 72be f381 dfbe 4269 9c3d
00000080: 94ce cb3d 2ff5 35bd 5192 9cbd e62d e8be
00000090: 4c96 9e3d 4b78 6abd dc70 46bd a548 70be
000000a0: 2629 ac3d c73b 8fbd cfc6 aabe 5598 c7bd
000000b0: b0e9 d1be da3b ef3e 9e78 15be 6672 a0bd
000000c0: 5f2e ddbe f79e 7cbc 7f3a 933e 7e88 6fbe
000000d0: 1281 35be 6984 d8be 2dc3 933d 7070 a5bd
000000e0: 72f4 c7be f5b6 403d 9563 2dbe 3acd 5e3d
000000f0: 9880 443e 8ee3 d43e 5349 0cbe 41b3 deba

encoder.7.running_var f4 [64]
0.46351013 0.25464395 0.50043535 0.5910436 0.52364105 0.3226972 0.9881869 0.24140929
0.6008274 0.4513753 0.5934327 0.86928505 0.32684994 0.42229706 0.7056516 0.9138196
0.23612057 0.40737408 0.96578497 0.47258535 0.96181 0.5130964 0.6437389 0.62958837
0.5119111 0.5021135 0.74246866 0.5413496 0.47970304 0.4279623 0.6584359 0.630814
0.51357204 0.22522503 0.3893174 0.6498356 1.5417538 0.534385 0.82038116 0.6485448
0.44707423 0.55461055 0.5862964 0.7078329 0.8319526 0.3091267 0.6554161 0.42972878
0.90680975 0.29587746 0.96555585 0.63066155 0.4160779 0.5280975 0.46674415 0.4131849
0.70514417 0.39658365 0.67970073 0.9204706 0.6730409 0.3891094 0.44951499 0.67890584
00000000: 3351 ed3e b160 823e 881c 003f a24e 173f
00000010: 570d 063f 9138 a53e d1f9 7c3f ff33 773e
00000020: d3cf 193f aa1a e73e 35eb 173f 7789 5e3f
00000030: e058 a73e 5237 d83e 95a5 343f 15f0 693f
00000040: 97c9 713e 5693 d03e af3d 773f b5f6 f13e
00000050: 2e39 763f 495a 033f 13cc 243f b42c 213f
00000060: 9b0c 033f 838a 003f 6d12 3e3f e395 0a3f
00000070: a39b f53e e01d db3e 418f 283f 077d 213f
00000080: 7579 033f 64a1 663e 9c54 c73e a05b 263f
00000090: 3058 c53f 75cd 083f 8004 523f 0807 263f
000000a0: eae6 e43e f5fa 0d3f 8517 163f 8934 353f
000000b0: d8fa 543f db45 9e3e 59c9 273f 6905 dc3e
000000c0: af24 683f 407d 973e ab2e 773f 0973 213f
000000d0: 2a08 d53e 6631 073f 17f9 ee3e f98c d33e
000000e0: 5484 343f 030d cb3e de00 2e3f f6a3 6b3f
000000f0: 694c 2c3f 5939 c73e d426 e63e c6cc 2d3f

decoder.0.weight f4 [64, 32, 3, 3]
-0.033964433 -0.060677394 0.01744571 -0.009744425 -0.053954307 -0.005202408 -0.052147727 -0.02392024
0.030271482 -0.053564094 0.004016428 0.019386923 -8.582024e-05 -0.061851867 -0.048874848 0.04207089
-0.026960665 -0.049326144 -0.053069573 0.006171491 -0.06805922 -0.0178047 0.0041721156 0.014081172
-0.010192518 -0.026449403 0.030310387 0.01416976 0.016666159 0.007553882 -0.07793329 0.009947973
-0.017175926 -0.009740926 -0.013746643 0.004853333 0.0035482938 -0.033532444 0.005236958 0.055269886
-0.033000164 0.03787267 -0.025624411 0.07700853 -0.07067355 0.008811317 -0.0043648337 -0.041050155
0.03292075 -0.033965204 0.013070672 -0.06256183 0.06613599 -0.006891255 -0.028726008 0.008310694
0.014026509 0.064744465 0.024480408 0.009016581 -8.929353e-05 -0.014186247 0.006138198 -0.027371453
-0.0027240203 0.031466383 -0.011473857 0.0032962693 0.004339567 0.0010255267 0.108366616 -0.039683133
-0.013186403 -0.03796382 -0.008316829 0.0076952614 -0.033246424 -0.0074954317 -0.044254664 0.106858164
-0.01260681 -0.00997466 0.01473713 0.03234398 0.06368037 0.0455581 0.06455483 0.021681525
0.019026363 0.02461747 0.01195775 -0.007028137 -0.03491922 -0.060873054 -0.10779898 -0.0037744648
0.048775475 -0.08177295 0.011384433 -0.061174825 -0.020373588 0.05087857 -0.0054454124 -0.03501545
0.06829639 -0.039824348 0.027681015 0.028830145 0.0056177117 0.02687841 0.055599917 0.027349316
-0.059114777 0.05384784 -0.02780396 0.037242264 0.010692597 -0.02461093 -0.056436423 0.012322705
-0.05341774 0.0032455558 0.030049771 -0.059660032 -0.0044047553 0.049937498 -0.0022193345 -0.04130957
-0.041301545 0.0016277779 -0.049793933 0.007819279 0.055988595 -0.027846994 -0.034282107 -0.010902661
-0.022569165 -0.010834127 0.005736632 0.015639264 -0.013102812 0.010202963 0.019128561 -0.034488138
0.02045747 0.007594219 -0.043936666 -0.0697249 -0.030714763 0.023127489 0.09743568 0.01817716
-0.0029412888 -0.008893846 -0.012081655 -0.038843732 -0.005488871 0.02342385 -0.028941935 0.012341494
-0.040261965 -0.015717208 0.01684227 -0.01760648 0.05372775 0.041864537 -0.029164357 0.00052175013
-0.027279392 0.06355645 -0.040315524 0.012003003 -0.026339646 -0.009258041 -0.047925867 -0.09067913
-0.03797709 0.018609317 -0.04365484 -0.028084893 -0.01746153 0.0060884985 -0.019909117 -0.0025331054
0.0004839125 -0.0062129046 -0.012848868 0.0050178203 -0.024285015 -0.04676051 -0.054856185 -0.026204355
-0.011391439 -0.05453661 -0.00385464 -0.021058798 0.009476283 0.034254786 -0.013099786 0.026593274
0.07196564 -0.012712658 -0.044199407 -0.023950152 -0.034821834 -0.0557975 0.005229987 0.018206684
-0.06673971 0.020816442 0.019542625 0.034631867 -0.023175132 -0.004607135 -0.05982193 0.02762726
-0.035358593 0.002414085 0.06450477 -0.041302565 0.021384798 0.03809591 -0.018217245 -0.003379323
-0.025429886 0.019457327 0.0016469356 0.011204004 -0.011445206 0.027343888 -0.0016325518 0.013267762
-0.024142826 -0.017621364 -0.0283205 -0.026363157 0.050734293 -0.019289602 0.027368853 -0.01320736
0.0155637795 -0.063609496 0.022943843 0.020452615 0.017442118 0.0042416113 0.023003746 0.10586065
0.0085775 -0.010735916 0.048650477 0.017156348 -0.008688111 0.0047069257 -0.015696537 -0.013717071
00000000: 4a1e 0bbd dc88 78bd 4eea 8e3c 15a7 1fbc
00000010: 31ff 5cbd f678 aabb db98 55bd 61f4 c3bc
00000020: e6fb f73c 0666 5bbd 3d9c 833b 53d1 9e3c
00000030: 64fa b3b8 6258 7dbd fe30 48bd 8752 2c3d
00000040: 9ddc dcbc 360a 4abd 7b5f 59bd 383a ca3b
00000050: a262 8bbd 2adb 91bc 3eb6 883b b7b4 663c
00000060: 85fe 26bc 6bac d8bc 7d4d f83c 4828 683c
00000070: 7887 883c 8e86 f73b 7d9b 9fbd d3fc 223c
00000080: 87b4 8cbc 6898 1fbc 9a39 61bc b508 9f3b
00000090: 7e8a 683b 5159 09bd ca9a ab3b ad62 623d
000000a0: 2e2b 07bd 5f20 1b3d 49ea d1bc a6b6 9d3d
000000b0: 4bbd 90bd 585d 103c e106 8fbb 3524 28bd
000000c0: e9d7 063d 191f 0bbd 5f26 563c 6b20 80bd
000000d0: 4e72 873d 09d0 e1bb ce52 ebbc 9429 083c
000000e0: 71cf 653c bf98 843d 238b c83c 48ba 133c
000000f0: 1943 bbb8 6f6d 68bc f022 c93b 193a e0bc
00000100: 7a85 32bb e5e2 003d d8fc 3bbc 3906 583b
00000110: ed32 8e3b f76a 863a 51ef dd3d c88a 22bd
00000120: c80b 58bc f37f 1bbd 4f43 08bc 8828 fc3b
00000130: 672d 08bd 3d9c f5bb 6144 35bd 74d8 da3d
00000140: cb8c 4ebc c26c 23bc 0174 713c 1f7b 043d
00000150: db6a 823d 219b 3a3d 5335 843d 749d b13c
00000160: 2ddd 9b3c 94aa c93c 70ea 433c 494c e6bb
00000170: 7507 0fbd 0656 79bd b6c5 dcbd 035d 77bb
00000180: cbc8 473d 9478 a7bd c685 3a3c 7492 7abd
00000190: 83e6 a6bc 0c66 503d 6e6f b2bb 5c6c 0fbd
000001a0: fade 8b3d db1e 23bd 4cc3 e23c 322d ec3c
000001b0: c814 b83b 1c30 dc3c bdbc 633d ac0b e03c
000001c0: 5622 72bd 8d8f 5c3d 21c5 e3bc 588b 183d
000001d0: 0130 2f3c dc9c c9bc e129 67bd 2ce5 493c
000001e0: 8fcc 5abd 64b3 543b f02a f63c 145e 74bd
000001f0: c455 90bb 438b 4c3d 4172 11bb 3934 29bd
00000200: cf2b 29bd 2a5b d53a b9f4 4bbd 6f1c 003c
00000210: 4c54 653d 611f e4bc 656b 0cbd 13a1 32bc
00000220: f8e2 b8bc 9f81 31bc 5bfa bb3b ea1d 803c
00000230: 2dad 56bc 542a 273c 80b3 9c3c 6f43 0dbd
00000240: 6d96 a73c edd8 f83b eff6 33bd eecb 8ebd
00000250: 879d fbbc dc75 bd3c 5c8c c73d 44e8 943c
00000260: a3c2 40bb 7eb7 11bc 22f2 45bc 9b1a 1fbd
00000270: fddb b3bb 60e3 bf3c a317 edbc fa33 4a3c
00000280: bbe9 24bd 60c1 80bc cdf8 893c 773b 90bc
00000290: a111 5c3d 267a 2b3d 17ea eebc 0fc6 083a
000002a0: 0879 dfbc e229 823d e421 25bd 3ea8 443c
000002b0: 3ec6 d7bc 0aaf 17bc ea4d 44bd fbb5 b9bd
000002c0: dd8d 1bbd 9172 983c 6bcf 32bd 4a12 e6bc
000002d0: 7c0b 8fbc 0782 c73b 7218 a3bc 7502 26bb
000002e0: a3b5 fd39 9f95 cbbb 0f84 52bc 876c a43b
000002f0: 5ef1 c6bc f387 3fbd e1b0 60bd 84aa d6bc
00000300: 28a3 3abc c861 5fbd 219e 7cbb 8083 acbc
00000310: 6942 1b3c bf4e 0c3d 7ca0 56bc 23da d93c
00000320: b962 933d c148 50bc 700a 35bd 1c33 c4bc
00000330: 57a1 0ebd eb8b 64bd 5060 ab3b 2f26 953c
00000340: d4ae 88bd 3e87 aa3c db17 a03c 25da 0d3d
00000350: c6d9 bdbc 73f7 96bb d707 75bd 9052 e23c
00000360: 2cd4 10bd a035 1e3b 141b 843d e12c 29bd
00000370: 2c2f af3c 750a 1c3d 553c 95bc a277 5dbb
00000380: 5652 d0bc f964 9f3c fddd d73a 0091 373c
00000390: ac84 3bbc 4a00 e03c 59fb d5ba 0761 593c
000003a0: 2dc7 c5bc ae5a 90bc 6500 e8bc 8cf7 d7bc
000003b0: c3ce 4f3d 3a05 9ebc a534 e03c af63 58bc
000003c0: 39ff 7e3c b245 82bd baf4 bb3c 3e8c a73c
000003d0: c6e2 8e3c 37fd 8a3b 5a72 bc3c 78cd d83d
000003e0: a488 0c3c b2e5 2fbc b945 473d 788b 8c3c
000003f0: 9458 0ebc 8e3c 9a3b 0696 80bc 91bd 60bc

decoder.0.bias f4 [32]
-0.040853553 0.016548146 0.028470771 0.042779986 -0.053175513 -0.026842415 0.010918453 -0.054564696
-0.053976975 0.002877708 -0.02155856 0.013809393 -0.0416878 0.007945442 0.0061697727 -0.040205766
-0.03068626 -0.057191107 -0.022113003 0.0515718 0.048330862 0.057732973 0.05450461 -0.034085564
0.056957226 0.016643826 0.042173773 0.032772414 0.0006556031 0.014846945 -0.045374174 -0.042585637
00000000: 0e56 27bd fa8f 873c 893b e93c 113a 2f3d
00000010: 91ce 59bd a0e4 dbbc 50e3 323c 3b7f 5fbd
00000020: f616 5dbd ee97 3c3b 949b b0bc cb40 623c
00000030: d4c0 2abd 992d 023c ce2b ca3b cdae 24bd
00000040: c061 fbbc 3941 6abd 5426 b5bc f43c 533d
00000050: 95f6 453d 6979 6c3d 3a40 5f3d 4e9d 0bbd
00000060: fb4b 693d a258 883c 68be 2c3d 5e3c 063d
00000070: c7dc 2b3a 9a40 733c 45da 39bd 476e 2ebd

decoder.1.weight f4 [32]
0.979929 1.0008199 0.9789605 0.9856713 1.0301297 1.0064877 0.9799599 1.0482867
0.9939137 1.0111134 1.0027046 0.9515082 1.0443193 1.0322417 0.95897216 0.976492
1.0113012 1.0139225 1.0207053 1.0316442 0.94490564 0.9525573 1.0128652 0.9939593
0.946577 1.0184561 1.0524406 1.0587596 0.9583592 1.0035416 0.9813724 0.9530899
00000000: a0dc 7a3f de1a 803f 289d 7a3f f454 7c3f
00000010: 4adb 833f 97d4 803f a7de 7a3f 422e 863f
00000020: 2171 7e3f 2a6c 813f a058 803f 0b96 733f
00000030: 41ac 853f 7f20 843f 337f 753f 61fb 793f
00000040: 5172 813f 36c8 813f 79a6 823f eb0c 843f
00000050: 56e5 713f ccda 733f 91a5 813f 1e74 7e3f
00000060: df52 723f c55c 823f 60b6 863f 6f85 873f
00000070: 0757 753f 0d74 803f 393b 7b3f b3fd 733f

decoder.1.bias f4 [32]
-0.029441291 0.023012169 -0.030769361 -0.0016312171 0.04581845 0.04986116 -0.028132597 0.07554279
0.011543793 0.026894093 0.031911377 -0.03414188 0.093236186 0.05904706 -0.013230698 -0.001947351
0.012551979 0.029184798 0.03296375 0.0533314 -0.067586854 -0.03631326 0.05201638 0.07691797
0.011350584 0.0290613 0.0402735 0.1608044 -0.04976051 -0.0014161535 0.008215723 -0.014360528
00000000: dd2e f1bc 0484 bc3c 0710 fcbc 90ce d5ba
00000010: 21ac 3b3d 373b 4c3d 5576 e6bc 2eb6 9a3d
00000020: 2d22 3d3c 0051 dc3c 81b5 023d 5bd8 0bbd
00000030: 9df2 be3d 54db 713d 92c5 58bc 423e ffba
00000040: d1a6 4d3c f514 ef3c ff04 073d 0772 5a3d
00000050: fa6a 8abd 37bd 14bd 210f 553d 2b87 9d3d
00000060: cdf7 393c f711 ee3c d3f5 243d e9a9 243e
00000070: add1 4bbd 3a9e b9ba 3d9b 063c 6c48 6bbc

decoder.1.running_mean f4 [32]
-0.028863687 -0.027650515 -0.23845784 -0.027830917 -0.1762813 -0.03752214 -0.13690564 -0.16879024
-0.06589344 -0.10009407 -0.1251901 -0.2518526 -0.059843916 0.06271201 -0.15072706 -0.1471096
0.0048193093 -0.079513006 -0.044547547 -0.10377639 -0.33726785 -0.45636836 -0.32838055 -0.09203868
0.09624597 0.015482158 -0.26652634 -0.18436643 -0.19310647 -0.23074122 -0.24504557 -0.2385605
00000000: 8a73 ecbc 5583 e2bc 4b2e 74be aafd e3bc
00000010: 1683 34be d1b0 19bd fe30 0cbe 59d7 2cbe
00000020: 24f3 86bd 1ffe ccbd d531 00be d3f2 80be
00000030: e51e 75bd 286f 803d 3258 1abe e6a3 16be
00000040: 4ceb 9d3b b7d7 a2bd 7d77 36bd b788 d4bd
00000050: 5fae acbe 1da9 e9be 7f21 a8be c77e bcbd
00000060: 9b1c c53d e1a8 7d3c 2476 88be 8eca 3cbe
00000070: b4bd 45be 6d47 6cbe 3aed 7abe 3449 74be

decoder.1.running_var f4 [32]
0.33907434 0.49907684 0.37010762 0.72958034 0.22229666 0.20575891 0.27125415 0.22025385
0.11329244 0.35336244 0.51286286 0.64050394 0.22786956 0.09661183 0.46278715 0.8269383
0.10063644 0.28810793 0.21705565 0.32101792 0.6062677 1.4904926 0.115761325 0.30089042
0.36494032 0.26877397 0.19208868 0.20399825 0.48196632 0.33679232 0.28970936 0.5049577
00000000: 279b ad3e 0087 ff3e bf7e bd3e c7c5 3a3f
00000010: bca1 633e 77b2 523e d3e1 8a3e 3a8a 613e
00000020: de05 e83d eceb b43e fb4a 033f 11f8 233f
00000030: a356 693e 6cdc c53d 70f2 ec3e 3ab2 533f
00000040: 7a1a ce3d e282 933e d643 5e3e 765c a43e
00000050: 5c34 1b3f 76c8 be3f 4614 ed3d 4f0e 9a3e
00000060: 75d9 ba3e be9c 893e e5b2 443e ebe4 503e
00000070: 4ac4 f63e 0b70 ac3e c954 943e e844 013f

decoder.3.weight f4 [32, 16, 3, 3]
0.0045926515 0.06811321 0.014555894 -0.075625055 0.022189708 0.062137708 -0.083863564 -0.041338097
-0.00012986126 -0.04937567 0.021800553 -0.010878753 -0.031051556 0.073627755 0.061083637 -0.039482012
0.024867982 -0.07196776 0.04250338 0.015067321 -0.06374211 -0.08673771 -0.06483066 0.09031061
-0.0048288833 0.012034376 0.037016436 0.041092686 0.008680802 0.009230224 -0.038079996 0.0035284534
-0.035586294 0.057112776 0.08256626 0.011393252 0.010693807 0.016312407 0.03816912 -0.0065778643
0.106329 0.06089542 -0.0659719 -0.016649367 0.07416401 -0.018381316 0.01963188 -0.02410604
0.052662406 0.02521137 -0.022821825 0.04996214 0.11360961 0.047204733 0.068297856 -0.047022272
-0.005257706 -0.00862798 -0.002409618 -0.058384255 0.04647238 0.101775646 0.07246328 -0.07380487
0.030806448 0.04428236 -0.041139565 0.025380619 -0.005554439 0.0043438566 0.072682954 0.08596585
0.030386884 -0.050610118 0.03336148 0.039466 0.029092064 -0.038936682 -0.10144352 -0.0849897
0.0030837082 0.015134682 0.03469878 0.042422786 0.041693863 0.061912086 -0.0010484668 0.06952426
-0.04181617 -0.05432889 0.03951041 0.021808874 0.070627496 0.041655485 0.07101379 0.050739624
0.041791685 -0.07097536 -0.016262505 0.043329637 0.043572936 0.007879243 0.053854268 0.018498143
-0.043629333 -0.09038735 0.08167544 -0.04273999 -0.03600015 -0.1029947 -0.063976325 0.049016353
-0.034036458 0.010151939 0.009745841 -0.037781127 -0.051986575 0.013745752 0.05577614 0.0010980956
-0.002030573 0.060515925 -0.04711909 -0.07392988 -0.025802258 -0.04999229 0.005753992 0.0011493894
0.040024344 -0.037172552 0.044991046 -0.058759302 0.046769787 0.1387047 -0.010069749 -0.07168298
0.015454889 -0.026022542 0.048255783 -0.004563942 -0.010428786 0.08315054 0.048869055 0.027524695
0.08249793 -0.06455846 -0.042169258 0.06841787 0.090078086 0.061229568 -0.012765265 0.057815023
-0.032606516 0.03397151 -0.07079165 0.01167558 0.050892204 0.06674211 0.039503843 0.03691284
0.033422817 0.003731359 -0.005882716 -0.03409459 -0.026798662 -0.046288222 0.051175382 0.040702563
0.034816153 0.04003972 -0.02654067 -0.078971036 0.058061544 -0.0501304 0.044235557 -0.04194572
-0.045822114 0.04217259 -0.11283019 -0.07481519 -0.014772035 0.007167612 0.07907288 0.06919525
0.017008131 0.06264005 -0.012827885 0.07021274 0.049166586 0.0091537945 0.107949555 -0.05820756
0.012158098 0.07056149 -0.03681367 -0.04168865 -0.0140668275 -0.017319385 -0.0053491103 0.041660033
0.057498753 0.026360516 0.03520271 -0.022450661 0.0031612874 -0.072146155 0.031123346 -0.029135685
0.002064839 0.019273736 -0.09512427 0.044688962 -0.012832655 0.01517676 -0.049446333 -0.06548451
0.018010288 0.06749245 0.04388659 0.026983935 0.09092974 0.057776045 0.07445428 0.050583836
0.013606336 0.024380986 -0.035150677 0.06716 0.019530257 0.07307843 -0.07273581 0.052813582
0.11825023 0.085449636 -0.0136803435 -0.05008604 0.012931014 0.023295883 0.10348716 0.055963166
-0.038361005 0.11953364 -0.03436838 0.057634797 0.025819413 0.048615307 0.008741208 0.059113484
0.007318033 0.0353498 0.11205352 0.020138605 -0.087172195 -0.05609435 -0.059802722 0.0028448019
00000000: f47d 963b f07e 8b3d d87b 6e3c 4fe1 9abd
00000010: 31c7 b53c 1c84 7e3d a9c0 abbd 2352 29bd
00000020: 5e2b 08b9 243e 4abd 1397 b23c cc3c 32bc
00000030: d55f febc 26ca 963d d632 7a3d e4b7 21bd
00000040: f0b7 cb3c d563 93bd 0618 2e3d eddc 763c
00000050: 398b 82bd 8aa3 b1bd f0c5 84bd c5f4 b83d
00000060: 9c3b 9ebb d52b 453c 8c9e 173d ce50 283d
00000070: ec39 0e3c 5e3a 173c c5f9 1bbd a03d 673b
00000080: efc2 11bd 16ef 693d 8018 a93d c3aa 3a3c
00000090: 1435 2f3c 99a1 853c 3957 1c3d 208b d7bb
000000a0: 05c3 d93d 7a6d 793d 471c 87bd 4164 88bc
000000b0: 4de3 973d 6a94 96bc 09d3 a03c 087a c5bc
000000c0: 89b4 573d 1388 ce3c d6f4 babc 1aa5 4c3d
000000d0: 28ac e83d c059 413d bfdf 8b3d 6d9a 40bd
000000e0: d648 acbb 5f5c 0dbc afea 1dbb 5424 6fbd
000000f0: d359 3e3d c06f d03d a167 943d 0227 97bd
00000100: ce5d fc3c 6b61 353d f681 28bd 04eb cf3c
00000110: 0302 b6bb e956 8e3b cdda 943d dd0e b03d
00000120: eaed f83c 8e4c 4fbd 0ca6 083d 1aa7 213d
00000130: 7b52 ee3c 127c 1fbd 9fc1 cfbd 140f aebd
00000140: 0a18 4a3b 75f7 773c 4f20 0e3d 84c3 2d3d
00000150: 2fc7 2a3d 8797 7d3d b56c 89ba bc62 8e3d
00000160: 6f47 2bbd f887 5ebd abd5 213d 86a8 b23c
00000170: 26a5 903d f19e 2a3d ae6f 913d 5ad4 4f3d
00000180: c22d 2b3d 885b 91bd f238 85bc 6b7a 313d
00000190: 8979 323d f117 013c 4b96 5c3d 6b89 973c
000001a0: acb4 32bd 011d b9bd 7445 a73d 2110 2fbd
000001b0: e574 13bd e3ee d2bd 0506 83bd 5fc5 483d
000001c0: d069 0bbd 5154 263c 05ad 1f3c 62c0 1abd
000001d0: e0ef 54bd dd35 613c 8675 643d f9ed 8f3a
000001e0: 5d13 05bb 8cdf 773d f2ff 40bd 8d68 97bd
000001f0: 425f d3bc b7c4 4cbd fc8b bc3b 1ca7 963a
00000200: 91f0 233d 3f42 18bd 8848 383d 98ad 70bd
00000210: ad91 3f3d 9b08 0e3e 97fb 24bc 87ce 92bd
00000220: 8136 7d3c 3a2d d5bc dba7 453d 1f8d 95bb
00000230: 80dd 2abc d54a aa3d eb2a 483d 787b e13c
00000240: adf4 a83d 3a37 84bd acb9 2cbd ab1e 8c3d
00000250: dc7a b83d dbcb 7a3d 6725 51bc 72cf 6c3d
00000260: 698e 05bd b625 0b3d 36fb 90bd ef4a 3f3c
00000270: 5874 503d 16b0 883d c8ce 213d eb31 173d
00000280: 5de6 083d d189 743b ccc3 c0bb c5a6 0bbd
00000290: de88 dbbc b898 3dbd 479d 513d bbb7 263d
000002a0: 629b 0e3d b000 243d d26b d9bc 91bb a1bd
000002b0: f1d1 6d3d 8955 4dbd 5830 353d 46cf 2bbd
000002c0: f8af 3bbd 2abd 2c3d 8413 e7bd b538 99bd
000002d0: 6806 72bc 4ade ea3b f6f0 a13d 3db6 8d3d
000002e0: a354 8b3c 6d49 803d 0d2c 52bc b2cb 8f3d
000002f0: e762 493d ccf9 153c a814 dd3d 0d6b 6ebd
00000300: c232 473c 8b82 903d eec9 16bd b8c1 2abd
00000310: 8d78 66bc 62e1 8dbc 9747 afbb b6a3 2a3d
00000320: d083 6b3d 02f2 d73c b830 103d 73ea b7bc
00000330: 9a2d 4f3b 5dc1 93bd 63f6 fe3c f6ad eebc
00000340: 4052 073b f4e3 9d3c 83d0 c2bd c60b 373d
00000350: 0e40 52bc f2a7 783c 3d88 4abd be1c 86bd
00000360: 508a 933c 7b39 8a3d 6dc2 333d 6a0d dd3c
00000370: 5f39 ba3d 93a6 6c3d 7c7b 983d ff30 4f3d
00000380: 1ced 5e3c a2ba c73c 28fa 0fbd 2f8b 893d
00000390: ebfd 9f3c 25aa 953d 83f6 94bd 0e53 583d
000003a0: 2d2d f23d 3800 af3d 8523 60bc 0527 4dbd
000003b0: 9bdc 533c 02d7 be3c 13f1 d33d a239 653d
000003c0: 6e20 1dbd 0ece f43d dcc5 0cbd 7712 6c3d
000003d0: 3c83 d33c d820 473d 4937 0f3c fb20 723d
000003e0: 1ccc ef3b f4ca 103d 517c e53d b7f9 a43c
000003f0: 5687 b2bd 30c3 65bd b3f3 74bd db6f 3a3b

decoder.3.bias f4 [16]
0.009347258 0.07473766 -0.010245268 0.082009956 -0.013250805 0.043931905 0.033183966 0.021241643
-0.06264637 -0.042501185 0.0727078 -0.05140623 -0.04210674 -0.0070957844 0.060914703 -0.054144707
00000000: 3e25 193c 0f10 993d c5db 27bc d6f4 a73d
00000010: e819 59bc f1f1 333d e9eb 073d f402 ae3c
00000020: bd4c 80bd b915 2ebd d4e7 943d 578f 52bd
00000030: 1e78 2cbd c183 e8bb b281 793d d7c6 5dbd

decoder.4.weight f4 [16]
1.1397796 1.1010547 1.114727 0.9958086 1.10248 1.0075626 1.0860916 1.0651766
1.1452032 1.077357 1.129868 1.090765 0.96713835 1.0676839 1.090496 1.1104896
00000000: 4ce4 913f 5cef 8c3f 60af 8e3f 50ed 7e3f
00000010: 111e 8d3f d0f7 803f 0d05 8b3f b557 883f
00000020: 0596 923f d6e6 893f 849f 903f 309e 8b3f
00000030: 6196 773f dea9 883f 5f95 8b3f 8624 8e3f

decoder.4.bias f4 [16]
0.13700882 0.10828002 0.1310527 -0.014791302 0.118801266 -0.0037578612 0.07836438 0.07879912
0.17002021 0.0862142 0.14591783 0.09942664 -0.045499135 0.07934082 0.08928495 0.09799621
00000000: 0a4c 0c3e eac1 dd3d ae32 063e 3857 72bc
00000010: 144e f33d 7346 76bb 817d a03d 6f61 a13d
00000020: c719 2e3e 1291 b03d 7c6b 153e 32a0 cb3d
00000030: 4d5d 3abd 717d a23d 07db b63d 3db2 c83d
