models/ae_conv_conn8.pth (torch, 203766 bytes, 32 tensors)

encoder.0.weight f4 [16, 3, 3, 3]
000000 17 a6 e1 bd 2b 8b a6 bd 6e 1c 2d 3e de cb 50 3d
       -0.11018007 -0.08132013 0.16905376 0.050975673
000010 7e 0d 36 3e 4d bc c6 3d 96 8e af 3c 78 01 16 3e
       0.17778584 0.09703884 0.021430295 0.14648998
000020 e0 2a 36 3d 26 48 4a bd 64 47 34 be cb 1f fc bd
       0.044474483 -0.049385212 -0.17605358 -0.123107515
000030 77 db 2f be 2f 92 3a bd c5 e7 63 bc 6e 58 42 3d
       -0.17173563 -0.045549568 -0.013910239 0.047447614
000040 8e db 60 bc 68 51 8a bd b3 75 14 3e a4 0c 2d 3e
       -0.013724221 -0.06753808 0.14498024 0.16899353
000050 98 ce 16 3d f9 49 18 3d 61 95 ab bc 20 5b 3f 3e
       0.036818117 0.03717992 -0.020945253 0.18687105
000060 4f 1a 46 3c cf 34 82 3a 44 e8 81 bd f8 49 8e bd
       0.012091233 0.0009933951 -0.06343129 -0.06947702
000070 ee 0a b7 3d 7e d5 d8 bd c2 75 04 3e d6 49 69 be
       0.089376315 -0.105875954 0.12935546 -0.22782072
000080 d2 8e 80 be 7c 66 ab 3d 16 c3 8f 3c e3 73 9e bd
       -0.25108963 0.08369157 0.017549079 -0.077369474
000090 a8 1f a6 bd 02 ac 6f 3d 69 05 00 3e ef 3a 40 bd
       -0.08111507 0.05851365 0.12502064 -0.046931203
0000a0 87 a1 1c be 9d 49 15 bd 0b f1 91 bd 3e bd 89 bd
       -0.15295993 -0.036447156 -0.071260534 -0.06725548
0000b0 21 54 80 bd e4 3f df bd 89 a6 bb bc ac fc 8b bd
       -0.06266046 -0.10900858 -0.022906559 -0.06835303
0000c0 ea f0 5c bd b0 6c a3 be 32 5b 15 3d 15 81 70 3d
       -0.05394069 -0.3191886 0.036463924 0.058716852
0000d0 b7 48 26 3e 80 4a 0b 3e c7 05 3e be 97 86 a3 3c
       0.16238676 0.13602638 -0.18556891 0.019961638
0000e0 18 d8 b7 bc 9e ea 0a 3e 10 43 19 3e 9c 2f 5b 3d
       -0.022441909 0.13566062 0.14966989 0.0535122
0000f0 a9 03 06 3e f2 20 40 3e ff d1 aa bd 70 9d 11 3e
       0.13087334 0.18762568 -0.08340835 0.14220214
000100 8e 8a 09 be be e4 3b 3e 41 1f 78 bd a3 99 60 3e
       -0.1343176 0.18348977 -0.06057668 0.21933608
000110 87 07 23 3e dd e3 51 3e b6 43 4e 3e 53 7d 2a 3d
       0.1592084 0.20497079 0.20143017 0.041623425
000120 b0 48 57 3d 0b 73 d6 3d 83 aa e5 bc 03 04 b5 bd
       0.052559555 0.104711615 -0.028035408 -0.08838656
000130 73 78 66 3d df 8a df bd a0 0b 18 3c e6 90 49 3e
       0.056267213 -0.109151594 0.009280115 0.1968418
000140 4d 19 18 be 6b 95 7b be 5e bf 08 3d 16 0b 3b bb
       -0.14853401 -0.24568717 0.033385627 -0.0028540543
000150 aa 4b 71 3d 64 9f 25 3e af 4d 21 3e f3 f8 5d bd
       0.05891005 0.16174084 0.1575229 -0.054192495
000160 6c ab f4 3c ab 55 e4 3c 12 0b 83 bc 3f b4 ce 3c
       0.029866897 0.02787288 -0.01599649 0.025232432
000170 cb 46 87 3d 28 92 3f be 95 eb a1 bd 03 c8 e5 bd
       0.066052996 -0.18708098 -0.07906262 -0.1121979
000180 e0 49 1f be a2 dc 27 3e be cf 34 3d a7 dd 4b 3d
       -0.15555525 0.16392758 0.04414343 0.04977193
000190 c7 d5 08 3e 8a b1 1a 3e 02 db 10 3e 26 16 ab 3d
       0.133628 0.15106788 0.14146045 0.08353834
0001a0 e9 a1 58 bd 1c ea 7c 3d f2 60 09 3e 0e cb 23 be
       -0.052888785 0.0617467 0.13415888 -0.15995428
0001b0 f2 2f 00 bd 76 ef d4 3b 19 36 56 bd 21 3f b9 3d
       -0.031295724 0.0064982725 -0.052297685 0.09045244
0001c0 29 3b 3f 3e 13 b5 46 3d 31 51 b2 3d c3 65 d0 3c
       0.18674912 0.04851253 0.08706892 0.025439149
0001d0 7a 8d ff 3b 37 cf 7b 3d 1b 83 18 3e 79 9e 32 bd
       0.0077988477 0.061476912 0.14893763 -0.043608163
0001e0 ef 26 ad bd 40 73 af bd 71 7f ff bd 32 32 b2 bd
       -0.084546916 -0.08566904 -0.124754794 -0.0870098
0001f0 2f 81 04 3e b8 6b 16 be 27 08 e8 bd 73 e8 34 3e
       0.12939905 -0.14689529 -0.1132968 0.17666797
000200 36 e6 3d 3e 51 83 0e 3e 22 dc 28 3e f8 7d 28 bd
       0.1854485 0.1391728 0.16490224 -0.04113576
000210 0a 5f bd 3d cc d0 34 be ad 51 1e be 15 db 8a 3d
       0.09246643 -0.17657775 -0.15460844 0.06780068
000220 e9 19 15 bd 7a ed 49 3e 18 ec f9 3d 7c a6 20 be
       -0.036401663 0.19719496 0.122032344 -0.15688509
000230 fd 0d 3a 3e 73 ef 5d bd 9a ed bd bd ae 31 e9 bd
       0.18169399 -0.054183435 -0.092738345 -0.11386429
000240 07 a2 17 bd c5 93 2c bd 36 f5 17 3e c3 e6 44 be
       -0.037019756 -0.04213311 0.14839634 -0.19228654
000250 b2 b7 a2 3c b9 d6 0d 3e 3d 68 3e bd 56 ee e3 bd
       0.019862983 0.13851441 -0.046486128 -0.11129443
000260 ce 4c 9f 3d 05 3e 0a 3e ee d7 20 3d 9d 06 49 3e
       0.07778321 0.13500221 0.039268427 0.19631429
000270 28 22 05 be c3 43 3c 3e 75 93 46 3d 4b e1 1d be
       -0.13001311 0.18385224 0.04848047 -0.15417974
000280 95 f5 8e 3c 0a f9 a4 3c c1 c4 6d 3d 63 05 a5 bd
       0.017451087 0.020138282 0.058048967 -0.08057668
000290 24 c8 b5 bd 33 7e 33 3e 09 3a c5 3c e9 be fc 3d
       -0.088760644 0.1752861 0.024075525 0.12341101
0002a0 38 a2 3b 3d 9b cc 26 3c 43 42 89 bd 17 0d 30 be
       0.045809 0.010180618 -0.067020915 -0.17192493
0002b0 1f e5 48 3d 9b be d4 bc a4 8e 34 ba da 75 52 3e
       0.049046632 -0.025969794 -0.000688771 0.2055277
0002c0 45 f5 c2 3d 71 e6 17 be 9b 8b 18 be 2c 2e 8d 3d
       0.09519438 -0.14834 -0.14897005 0.06893572
0002d0 67 d2 a8 bc 94 ae 00 3e df 88 06 3e c4 ec c2 bc
       -0.02060814 0.12566596 0.1313815 -0.02379454
0002e0 3f e4 4a bc 1c 93 03 3e 56 08 08 3d 99 a7 79 bd
       -0.01238352 0.12849087 0.033211075 -0.06095085
0002f0 90 df 6f bb 7f 53 00 3e c2 17 f5 bd 25 a2 a1 bd
       -0.003660176 0.12531851 -0.11967422 -0.07892255
000300 b0 54 13 3e 63 47 28 3e ff 39 07 bd 56 15 e3 bd
       0.14387774 0.16433482 -0.033014294 -0.11088054
000310 8c 1d 7c 3d c2 a6 47 3e 7b 15 81 3d 74 57 35 3c
       0.061551616 0.19497207 0.06302925 0.011068214
000320 b9 42 7a 3d 95 b7 a3 bd c0 5f 47 3e dc 31 19 be
       0.061098788 -0.07994 0.1947012 -0.14960426
000330 af cc 23 3d b7 db 4d 3e 8c 6b b9 3d df d3 d9 bd
       0.039990123 0.20103346 0.09053716 -0.10636114
000340 6e a8 c9 bc d9 1f 1b bd 22 ad b4 3a 3b d9 5b bd
       -0.024616446 -0.03787217 0.0013784508 -0.053673964
000350 60 79 94 bb 34 5b 2c be 34 b8 3e 3e 7d d3 2e bc
       -0.0045310706 -0.16831666 0.18624955 -0.01067054
000360 24 1e f7 3d 3f 89 44 bd 3f fc 45 3e 38 dd 14 3e
       0.12066296 -0.04798245 0.19334505 0.14537513
000370 f3 cf b9 3d fc 19 cd bd ac 6c 62 bd 3c ac 3a 3e
       0.09072866 -0.10014722 -0.05527942 0.18229765
000380 92 13 ad bd b5 bc 87 bd 9a 6a 8e 3c 8d f7 6f 3d
       -0.08450998 -0.0662779 0.017384816 0.058585692
000390 9e b7 b4 3c db bd 4b bc a3 64 00 3d a1 6b e5 bc
       0.022060212 -0.012435402 0.031345975 -0.028005423
0003a0 57 e9 50 3e e5 c7 d8 bd 2b ca 8c 3c 76 17 d8 bd
       0.20401512 -0.10585002 0.017186245 -0.1055135
0003b0 4f 7f 14 3e 91 10 c1 bd 05 39 a9 3d b5 31 db bc
       0.1450169 -0.09426988 0.08262829 -0.0267571
0003c0 88 d5 ec 3d 0f 06 15 be 79 da ce bd e6 ae 8f 3d
       0.11564165 -0.14553092 -0.10100264 0.07015781
0003d0 49 17 54 3e 32 00 0f be 3e b6 40 be b0 0b 59 3d
       0.20712008 -0.13964918 -0.1881952 0.05298966
0003e0 2e c1 d0 3d f2 4c ea 3d 53 db e7 bb 3c a4 2d 3e
       0.10193096 0.114404574 -0.007075706 0.16957182
0003f0 ac 67 09 3e aa da 50 3e 37 b1 c7 3d 1e 78 17 3d
       0.13418454 0.20395914 0.09750598 0.036979787

encoder.0.bias f4 [16]
000000 92 93 f5 3c 02 12 1f be 2c 88 28 be d8 43 9f bd
       0.029977594 -0.15534213 -0.16458195 -0.07776612
000010 ce ef fc 3d d6 f7 af 3d 62 2e 45 3e 9f 8f a0 bb
       0.123504266 0.08592193 0.19255975 -0.0048999335
000020 13 53 87 bd 66 9c 7d bd cc 66 dd 3d ed 18 49 3d
       -0.06607642 -0.06191673 0.108106226 0.049096037
000030 60 cc 4b 3d 56 61 26 bd f7 43 8d bc 01 01 3f bd
       0.049755454 -0.04062017 -0.017244322 -0.046631817

encoder.1.weight f4 [16]
000000 e8 e2 7a 3f 57 a8 88 3f ca 49 7d 3f ae 3e 79 3f
       0.9800248 1.0676373 0.9894072 0.97361267
000010 63 43 71 3f 53 63 6e 3f 9f 2b 7b 3f a5 9a 74 3f
       0.9424345 0.93120307 0.98113436 0.9554847
000020 c4 fd 77 3f 0d ad 78 3f 93 54 7a 3f 43 8d 7e 3f
       0.9687159 0.97139055 0.977853 0.994343
000030 ad f5 87 3f 78 a3 87 3f fe a4 5e 3f 82 1c 8e 3f
       1.0621849 1.0596762 0.8697051 1.110245

encoder.1.bias f4 [16]
000000 f5 83 7f 3d 70 f3 9d bb 16 02 6a 3d 54 b9 98 3c
       0.062381703 -0.00482028 0.057130896 0.018643059
000010 a5 07 d3 3d 95 3b eb 3d 72 4f 85 3d b6 59 d1 3d
       0.103041925 0.11485974 0.065092936 0.10222189
000020 e6 40 08 3d 8d ab 60 3d 56 1f ce 3d 75 b4 88 3d
       0.033265017 0.054851104 0.100645706 0.066750444
000030 ea f6 24 bd 5e 2a 74 bc a9 dd cb 3d e6 26 de bd
       -0.040274538 -0.014902679 0.09954388 -0.10847263

encoder.1.running_mean f4 [16]
000000 87 c4 36 3e 6d af fd be 7c 64 af 3e ca 2b b4 3d
       0.17848407 -0.49547902 0.3425635 0.087974146
000010 e0 66 8a 3e 98 99 77 3e 94 d2 b2 3e 68 a2 4e 3e
       0.27031612 0.24179685 0.34926283 0.2017914
000020 86 50 c7 3d db 6d 06 3f db f1 5a 3e 5c 3e 85 3e
       0.097321555 0.52511376 0.21381323 0.2602414
000030 35 f3 a7 be 21 78 94 be dd 72 b8 3d 6d 7c 57 be
       -0.3280274 -0.289979 0.090062834 -0.21043558

encoder.1.running_var f4 [16]
000000 e9 20 32 3c 65 52 69 3d 5b f1 fd 3d 0b 87 6f 3c
       0.010872104 0.056963343 0.123995505 0.014619599
000010 91 f4 5d 3c 1a 21 c1 3c e5 0f 5c 3c e7 bb bd 3c
       0.013547079 0.023575354 0.013431524 0.023160888
000020 69 9c 5c 3c 26 d5 25 3e 8d 39 e9 3b 41 1b c6 3c
       0.013465025 0.16194591 0.0071174563 0.024182918
000030 19 80 8d 3d 00 1f 06 3d df fb 1e 3c 94 e3 5c 3c
       0.06909198 0.032744408 0.009703605 0.013481993

encoder.3.weight f4 [32, 16, 3, 3]
000000 6d 1b a5 bc a4 68 05 bd 9a 63 31 bb f7 77 a0 bc
       -0.02015468 -0.032570496 -0.0027067424 -0.019588454
000010 94 42 c2 3d 6c 3a 19 bd 60 c3 8c bd 50 f3 9a 3d
       0.09485355 -0.03740923 -0.06873202 0.075659394
000020 50 8a 02 bb 9e bc bb 3d d5 72 20 3d ec e5 ee 3d
       -0.0019918866 0.09166835 0.039172012 0.11664948
000030 ff 86 fb 3d c2 22 8c ba 42 2e c0 bd db 7d d2 3d
       0.12281608 -0.0010691511 -0.09383823 0.10277911
000040 b3 ca 1e 3d 75 82 29 bd 3b f5 75 3d 59 8b d4 3c
       0.038767528 -0.04138418 0.060048323 0.025945352
000050 10 41 1f 3a a7 0f 76 bd 6f 8d 52 bd 52 fe d6 3d
       0.0006075064 -0.06007352 -0.051404413 0.104977265
000060 a6 26 14 bc 74 3a 6c 3d 43 1a 2c 3d 26 c1 32 3d
       -0.009042418 0.057672933 0.042017233 0.043641232
000070 47 cf 91 bd 10 f8 6c 3c c4 a8 ac 3c 67 44 25 3d
       -0.07119613 0.01446344 0.021076567 0.040348437
000080 9b 03 4a 3d f1 a0 e6 3a f6 0e 9b bd f8 8e 7a 3d
       0.049319845 0.0017595572 -0.07571213 0.061171502
000090 41 9b 20 3d ba d8 d0 bd 46 b6 bd 38 ba 8c 80 bc
       0.03921056 -0.10197587 9.046173e-05 -0.015692104
0000a0 62 f7 1d 3d 19 cd 87 3d be 3c 94 3b ec aa 97 3d
       0.038566 0.06630916 0.0045238426 0.07405648
0000b0 5e f4 a6 3d 15 1c 01 3d 5e 90 27 bc 0c f4 70 bc
       0.08152078 0.03152092 -0.010227291 -0.014706623
0000c0 6d 45 0a bd d5 d5 8c bd f8 b3 af 3c de bd 8a 3c
       -0.033757616 -0.06876723 0.02144812 0.016936239
0000d0 2b 28 f0 3d ea 09 ed bb f1 73 a2 bd 54 74 6f 3c
       0.117264114 -0.007233848 -0.0793227 0.014615137
0000e0 1c 15 35 bc 9b d4 f2 bc 43 30 19 3c 77 0c bd bb
       -0.011052396 -0.029642394 0.009349885 -0.005769308
0000f0 de f7 a6 bd 66 57 91 3d 16 77 32 bd 7b 9c be bc
       -0.08152746 0.07096748 -0.0435706 -0.023267975
000100 52 bc eb 3c fd 1f 5d 3c d9 ab 44 bd 29 b1 01 bd
       0.028776322 0.013496396 -0.04801545 -0.031663094
000110 ae 24 0c 3d e8 57 93 3c b6 6d 17 bc 19 f2 3c bd
       0.034214668 0.017986253 -0.009242466 -0.04612932
000120 67 9f 52 3c cb ee 89 bc 85 73 63 bb 65 59 96 3c
       0.012855387 -0.016837498 -0.0034706306 0.018353174
000130 19 91 ab bd ff 3b 43 3d fc f9 37 bc 07 2a e4 bc
       -0.083772846 0.04766464 -0.0112290345 -0.027852071
000140 4d 16 a3 bc d0 76 04 3d 91 e7 05 3d f7 78 56 bd
       -0.019908095 0.03233987 0.032691542 -0.052361455
000150 93 c1 02 bd e2 73 af 3c 2b 46 95 3d 33 2a 16 bd
       -0.031922888 0.021417562 0.07288774 -0.036661338
000160 2a 8c 5c bd 2f a8 33 3d f3 98 42 3d 46 9a 34 bb
       -0.05384461 0.043861564 0.047509145 -0.0027557774
000170 f6 27 c4 bc 8c 06 68 bc 79 46 1d bd 68 4b d1 3d
       -0.023944836 -0.014161717 -0.038397286 0.10219461
000180 19 27 8d 3c 0f 7d 81 bc c5 d8 33 bc 28 34 bd bd
       0.017230557 -0.015806703 -0.010976975 -0.09238464
000190 bb 35 62 bd b7 27 e1 3c 7c 29 f1 3c 00 91 42 3d
       -0.055227023 0.027484758 0.029438727 0.047501564
0001a0 6a 42 3d 3d c1 9b d6 3b 8f 70 26 bd 46 2f 6a 3d
       0.046205916 0.006549329 -0.040634688 0.05717399
0001b0 7e f2 91 3c e8 91 8e 3d 49 5c cb bc 70 16 00 3e
       0.017815825 0.06961423 -0.024824278 0.12508559
0001c0 b3 43 5c bc cd f3 2a be d3 1e cf ba ee 95 79 3d
       -0.013443875 -0.16694565 -0.0015802033 0.060934
0001d0 66 45 f8 bb 64 05 e2 3c 71 09 60 bd 64 4c de bc
       -0.0075766323 0.027590461 -0.054696504 -0.027136035
0001e0 e8 7c 8b 3d 01 91 91 bd 04 c0 60 3b 9e 5c a5 bc
       0.06810933 -0.071077354 0.0034294138 -0.020185765
0001f0 a3 65 00 3d 86 a6 8e 3d 10 e1 08 bd 65 bc 48 bd
       0.03134693 0.069653556 -0.03341776 -0.049007792
000200 02 e1 3a bb 5a 03 7b 3d 03 aa 13 bd c5 dd ff 3d
       -0.0028515463 0.061282493 -0.036050808 0.12493471
000210 8a 74 57 3d fd 6c 81 3c e3 10 98 bc d7 b0 b1 3d
       0.052601375 0.01579904 -0.01856274 0.08676308
000220 af ea ac 3d 96 5c 3c bd 00 1c bb 3d 97 bb 03 bd
       0.084432 -0.045986734 0.091362 -0.03216132
000230 93 8a 70 bd da 4f ad 3d 95 5c 10 be d8 36 79 bd
       -0.058725905 0.08462496 -0.14097817 -0.06084332
000240 e5 76 3d bc 7a 71 92 3c 7f f5 37 bd 4d 27 66 3c
       -0.011563991 0.017876375 -0.044911858 0.014047456
000250 db 74 0a 3c dc f3 3b bd 91 d5 8d bc 38 63 70 3d
       0.008450712 -0.04588686 -0.01731375 0.058688372
000260 9c 59 bf 3d b8 40 5d 3d b1 ab f2 ba 67 4c 2d bd
       0.093432635 0.0540168 -0.0018514303 -0.04230919
000270 95 c9 ee bb c7 55 9f bd ec d1 8d bd 79 eb 3c bd
       -0.007287214 -0.077800326 -0.06924805 -0.046123
000280 5d 2a 7d bd 93 76 e0 bc e6 3f 5f bd 05 90 cf bc
       -0.06180798 -0.02740029 -0.054504298 -0.025337229
000290 53 de 9e 3c c9 8c 92 bd 7e cf 78 3d 46 5a 58 bd
       0.019393122 -0.07155759 0.060744755 -0.052820466
0002a0 63 f2 42 3d 57 7d 6b 3d ee c8 4b 3d e6 d0 de 3c
       0.04759444 0.05749258 0.04975217 0.02719922
0002b0 86 49 e8 bb 2c 64 17 3c e1 62 28 bd 43 96 08 bd
       -0.007088843 0.009240191 -0.041109923 -0.033346426
0002c0 8f f7 38 3c a7 12 02 3d 7c 24 72 3d 00 bb 2e 3c
       0.011289491 0.03175607 0.059116825 0.010664701
0002d0 b6 fa c5 3c 98 df 92 3c 57 b5 ff bc 87 5d 5a 3d
       0.0241674 0.017928883 -0.0312144 0.05331185
0002e0 35 ae 44 3d 8f e6 c7 bd 83 4a 56 3d de 02 3a bd
       0.0480177 -0.097607724 0.052317154 -0.04541289
0002f0 b1 68 6b 3d 81 a4 41 3d e6 0a 91 3d 66 74 65 3d
       0.05747289 0.047276024 0.07082157 0.05601921
000300 74 13 f5 bc f4 f3 6b 3c cf 0e 87 bd 04 18 53 3d
       -0.029916503 0.014401425 -0.065946214 0.051536575
000310 20 3a a5 3d 65 4f d0 3c b8 1a bb bb f5 97 83 bb
       0.08067727 0.025428483 -0.005709972 -0.0040159174
000320 61 28 b1 3c df 82 49 bd e2 08 45 bd 01 46 3b 3d
       0.0216257 -0.049197074 -0.048104174 0.045721058
000330 9c 67 86 bc 5d ef b5 3d d5 5f be 3d 68 29 28 3d
       -0.016406827 0.088835455 0.09295622 0.041055113
000340 e9 2a 32 3d da da 9e bd 9c d9 56 3d 63 bf 8f 3d
       0.043497954 -0.077565864 0.052453622 0.07018926
000350 9a 92 1e 3d 94 f5 8f 3d 42 f9 20 bc 99 0a f1 3c
       0.03871403 0.07029262 -0.009825053 0.029423999
000360 22 51 56 bd f7 02 24 bc b0 03 a8 bd 44 d9 0d bd
       -0.052323468 -0.0100104725 -0.08203828 -0.03463103
000370 0a bd b3 bd 67 5a 53 3d b4 42 cb bc 78 5d c9 3d
       -0.08776291 0.051599886 -0.02481208 0.09832281
000380 93 7e b8 bc 15 13 94 3c e7 f5 35 bd 06 b0 9d bd
       -0.022521293 0.018075505 -0.044423964 -0.076995894
000390 54 ed 8c 3d 8d c2 02 3c a8 3f a1 3d 98 0d 42 bd
       0.06881204 0.007980955 0.078734696 -0.047376245
0003a0 28 c0 bb 3d 54 4e 40 3c dc b5 3f 3d f9 ac 81 3d
       0.0916751 0.011737425 0.046804294 0.0633182
0003b0 44 ef bf bd 65 e6 58 bd 8a 75 d5 3c 50 6f 8e bd
       -0.09371808 -0.052954096 0.026057024 -0.06954825
0003c0 df 3e 05 3d b3 40 24 bd 26 c5 a0 3d 90 5d a5 3c
       0.03253066 -0.040100764 0.07850103 0.020186216
0003d0 93 78 5d 3c a8 53 08 bc b0 ac 57 bd 49 90 48 3d
       0.013517517 -0.008320726 -0.052654922 0.048965726
0003e0 15 8c af 3d f1 b0 97 bd d3 a0 cc 3d c6 d3 51 3b
       0.085716404 -0.07406796 0.09991612 0.0032017096
0003f0 02 c2 95 bb d6 3f 49 bd 22 68 84 bc ac 93 85 3b
       -0.0045702467 -0.049133144 -0.016162936 0.0040764417

encoder.3.bias f4 [32]
000000 5f b8 a2 bd 3e 97 4d 3b 3a 74 20 3b 59 00 57 3d
       -0.07945322 0.0031370665 0.002448334 0.052490566
000010 04 d8 99 bd a7 ab 02 bd e9 2a 8a bc 37 6a 81 bd
       -0.07511905 -0.03190198 -0.016866164 -0.06319087
000020 08 4b 13 bd 58 1e e4 bc 86 04 1e 3d 41 50 64 3b
       -0.035960227 -0.0278465 0.038578533 0.0034837874
000030 e9 39 99 bc ec 09 76 bd d5 56 88 3d 82 8d 8b 3c
       -0.018704372 -0.060068056 0.06657187 0.01703525
000040 90 85 9b 3d 3d 5d 89 3c 50 63 7a 3d 8c d2 ed bc
       0.075938344 0.016768092 0.061129868 -0.02903106
000050 42 e4 9a bd 3c 1d e9 ba fe 92 29 3d 8a 89 5a 3d
       -0.07563068 -0.0017785202 0.04139995 0.053353824
000060 87 5b 28 bb 09 17 87 3d 8f 98 3d 3d 61 a6 85 bd
       -0.002568932 0.065961905 0.04628807 -0.06525875
000070 28 26 95 3c 54 15 1c bd d5 18 92 bd 29 d3 26 3d
       0.01820667 -0.038106278 -0.071336426 0.04072872

encoder.4.weight f4 [32]
000000 b7 3b 80 3f 82 7c 7a 3f 10 3c 80 3f c6 2f 7f 3f
       1.0018224 0.97846234 1.001833 0.9968227
000010 ce d4 80 3f e7 40 7d 3f b6 e8 7e 3f cd e4 7a 3f
       1.0064943 0.9892716 0.9957384 0.9800537
000020 ed b6 87 3f 71 1a 81 3f 0c 46 78 3f 77 af 7b 3f
       1.06027 1.0086194 0.96981883 0.98314613
000030 d7 6d 82 3f 42 14 7b 3f a4 2b 6c 3f f2 8a 7e 3f
       1.018977 0.98077786 0.9225409 0.99430764
000040 ef c5 83 3f 14 e6 7f 3f 99 7a 80 3f ea b5 78 3f
       1.029478 0.99960446 1.0037414 0.9715258
000050 5d 93 82 3f f9 64 85 3f f5 e4 87 3f 72 db 88 3f
       1.0201222 1.042144 1.0616747 1.0691969
000060 52 62 7e 3f fa f0 81 3f 26 9d 7f 3f 3d d1 6e 3f
       0.99368775 1.0151665 0.99849164 0.9328802
000070 33 fc 81 3f 31 f5 7a 3f e6 38 7c 3f 8a a5 81 3f
       1.015509 0.9803038 0.9852432 1.0128644

encoder.4.bias f4 [32]
000000 19 7e b5 3d 47 f4 45 3d cc 3b ef 3d 9e 19 23 3d
       0.08861942 0.048328664 0.11681327 0.039819352
000010 74 85 5e bc 6a 19 97 bc d0 5c 6a 3d 15 8f c8 bc
       -0.013581622 -0.018444736 0.05721742 -0.02448229
000020 dd e3 af 3b 30 5b 45 3e 31 ee 78 3d 5a cb 5b 3e
       0.0053677396 0.19273067 0.060774032 0.21464291
000030 ee b1 57 3d ce e2 47 3d 2e 05 99 3d 43 6a 8c 3c
       0.05265992 0.048800282 0.07471691 0.017140513
000040 69 50 37 3d c8 a1 aa 3d 18 77 20 3c bd 25 68 3d
       0.04475442 0.083316386 0.009794019 0.056676615
000050 02 4d 1b 3d 18 40 06 3d ae 1a 14 3b 11 e0 5f 3d
       0.037915237 0.03277597 0.002259891 0.054657046
000060 35 e9 33 3e 07 f1 d7 3d 13 cb 17 3d 8e b3 71 3d
       0.1756943 0.10544019 0.0370589 0.059009127
000070 58 64 0c bc cb 28 6d 3c 85 b4 bf 3d af 3b d4 3c
       -0.008568846 0.014475058 0.09360603 0.025907366

encoder.4.running_mean f4 [32]
000000 6f da 96 3e 78 86 41 3e 3d 32 cb bd fd cc 0a 3f
       0.29463527 0.18898952 -0.099216916 0.5421904
000010 5d df d2 be 3a 34 06 3f 8d 95 3d 3e 48 e6 46 3f
       -0.41186038 0.5242344 0.1851408 0.7769513
000020 eb 39 de be dd 77 9f 3c a4 23 f7 bd ff fc 4c bd
       -0.43403563 0.019466335 -0.12067345 -0.050045963
000030 2e 9a 63 3d 6f 1a e1 ba 84 f6 9f 3e dd 9c 9f be
       0.05556696 -0.0017174016 0.31242764 -0.31174365
000040 23 f7 56 bd d9 71 91 be 02 d9 e4 3d 60 6c 87 be
       -0.05248178 -0.2840717 0.111742035 -0.2644987
000050 24 4c c0 bd 9a 12 1a 3f 93 fb 3b 3f 4c ff cb 3e
       -0.09389523 0.60184634 0.73430747 0.39843214
000060 4d 0d f4 3d 7f bd 52 3e 4e d2 d2 3d a0 77 f2 be
       0.119165994 0.205801 0.10294019 -0.47356892
000070 a4 fa 1a be 26 54 44 bf 79 01 26 be 50 e5 bd be
       -0.15134674 -0.766909 -0.162115 -0.37089014

encoder.4.running_var f4 [32]
000000 3d 29 45 3e 13 38 05 3f 19 73 67 3f 93 17 db 3f
       0.19254012 0.5203869 0.9041 1.7116569
000010 34 b9 25 3f 65 1a 47 3e 7f 5a 73 3f 18 14 02 3e
       0.6473572 0.19443662 0.9505996 0.12702978
000020 64 5f 91 3f 46 d1 f6 3d be e1 50 3e 90 3a dd 3d
       1.1357236 0.120516345 0.20398614 0.108021855
000030 27 96 b7 3f ec f7 85 3f 81 6f 3f 3e d8 fe 7d 3e
       1.4342698 1.0466285 0.18694879 0.24804246
000040 c5 c9 2c 3f 4a 37 b8 3e 34 c8 ea 3d ec 95 8e 3f
       0.67495376 0.35979682 0.11463967 1.1139503
000050 80 2a 21 3f d2 a4 4e 3e 99 49 6d 3e 86 06 c3 3d
       0.62955475 0.20180061 0.23172607 0.095227286
000060 a1 48 22 3e 04 a0 0b 3e 48 bf 69 3f 71 84 f0 3e
       0.15848018 0.1363526 0.913075 0.46976045
000070 b2 80 90 3f 00 0e 00 3f 36 c0 9c 3f 1d d5 b3 3e
       1.1289275 0.5002136 1.2246158 0.3512353

encoder.6.weight f4 [64, 32, 3, 3]
000000 dd 7d 91 3c 14 a8 bb 3a 33 a4 3f 3c b2 8f 42 3c
       0.017760212 0.0014317059 0.011696863 0.01187508
000010 20 5f 64 bd 22 c2 0e 3d 13 56 8c 3c c9 5e 94 3c
       -0.05575478 0.03485311 0.017130887 0.018111603
000020 82 d9 6d bd 64 05 04 bd 6d ab d0 bc b9 d7 37 3d
       -0.05806876 -0.032231703 -0.025472367 0.044883464
000030 48 62 0b bd 52 c6 7f bc 59 c4 c6 bc 0d dd 9b bc
       -0.034029275 -0.015611248 -0.024263548 -0.019026304
000040 0f 2a 87 bc be f6 2e bd 61 5a e2 3c 7b d5 4f 3d
       -0.016499547 -0.04271578 0.027630987 0.0507407
000050 c0 6f 88 bd 47 d7 ca bc 2c 20 66 bd cd 1a 36 bb
       -0.066619396 -0.024760855 -0.056183025 -0.002778697
000060 aa b1 2f bd f2 cb 0a bc 17 a6 52 bd 90 82 80 bd
       -0.042894043 -0.008471476 -0.051427927 -0.06274903
000070 2c 7c 81 bc 68 0e 81 3c d1 3d 0a 3c 20 a3 a8 3c
       -0.01580628 0.01575394 0.00843759 0.020585597
000080 fb 85 0a bd 48 18 34 3d 3d 31 a5 bd 86 7f 5f bd
       -0.03381918 0.04396847 -0.08066032 -0.054564975
000090 df 8f 9a bd ef 60 ba 3b a0 a6 2b 3c 14 f3 1b bb
       -0.075469725 0.005687825 0.010476738 -0.002379601
0000a0 19 7d 87 3c d1 80 06 bc 50 39 14 3c ec ec d8 3c
       0.016539143 -0.008209423 0.0090468675 0.02648016
0000b0 a9 da 49 3d a0 58 c6 bc f9 45 aa bc ee fc a7 bc
       0.049280796 -0.024212182 -0.020785319 -0.020506348
0000c0 c9 c2 3f 3d f2 1c 43 bd 74 e0 b1 3c bd d6 59 3d
       0.04681662 -0.047635026 0.021713473 0.053183306
0000d0 d3 ba 75 3d 93 41 ae 3d f5 95 38 3b 51 81 72 bc
       0.059992623 0.08508601 0.0028165553 -0.014801339
0000e0 85 ac 77 3d 1d 44 fc 3c a9 88 97 3c 72 a3 88 3c
       0.06046726 0.030794198 0.018497782 0.0166795
0000f0 f2 fb 76 3a f0 28 b2 3c 1e f2 c0 bb 16 13 19 bc
       0.0009421698 0.021748036 -0.0058882376 -0.009342929
000100 fb ce 5c 3c fc 69 48 bd d1 40 a0 ba c5 83 50 bc
       0.013477082 -0.0489292 -0.0012226348 -0.012726729
000110 dc ee 29 3c 88 91 97 3d 0c f6 66 3d fc e1 5f 3d
       0.01037189 0.07400805 0.056386992 0.054658875
000120 77 17 0f bc ec eb 7a 3d c4 da 3b 3d 2c d6 62 3d
       -0.008733622 0.06126015 0.045862928 0.05538003
000130 84 b5 19 bc 90 1a 81 3d 27 85 31 bd 1d 5d 17 3d
       -0.009381656 0.063038945 -0.043339875 0.036954034
000140 62 d7 2b 3a de 8c 66 bd 3a 08 16 3d 9d f3 7b 3d
       0.0006555227 -0.056286685 0.03662894 0.061511625
000150 f5 94 82 3c f9 d4 0d 3d 16 ce 71 bd 75 ea 49 bd
       0.015940169 0.034626935 -0.05903443 -0.04929586
000160 ba 0f e7 bc 8f 05 a1 3d 50 01 98 bc b7 78 22 bc
       -0.028205741 0.07862388 -0.018555313 -0.009916476
000170 2b 25 bb 3c ad b5 28 bd c4 c9 75 3c 00 5a 84 3c
       0.022844872 -0.041188885 0.015001718 0.016156197
000180 18 63 e7 bc e3 f7 29 bd f2 05 01 bd 1b 39 52 bc
       -0.028245494 -0.04149617 -0.03149981 -0.012830998
000190 b8 45 29 bd e9 bb a6 bc 5c b4 c8 bc fd f8 da 3c
       -0.041326255 -0.020353274 -0.024500065 0.026730055
0001a0 da 43 db bb 8e a2 af bb a8 87 2f bd 76 7a 2d bd
       -0.006691438 -0.005359954 -0.04285398 -0.042353116
0001b0 f9 68 2c bd 0a 67 1e bd 40 9f ae bb 7a e4 33 bc
       -0.042092297 -0.038672484 -0.0053290427 -0.010979766
0001c0 3b 5c 0a 3d 38 ba ea 3b 78 e1 42 3d 00 89 31 3c
       0.033779364 0.0071633123 0.047578305 0.010835886
0001d0 8a 79 68 3d bf 13 00 bd cd a3 eb bc 04 ce 34 3d
       0.056756534 -0.03126883 -0.02876463 0.044141784
0001e0 e4 be 89 bc a9 6e cb bc 56 84 24 bd 7e 9c fd 3c
       -0.016814657 -0.02483304 -0.040165268 0.03095841
0001f0 71 8d 7b bd 43 de 90 bd 8e e9 8b bc 13 fb ca bc
       -0.061414186 -0.07073643 -0.017079141 -0.024777925
000200 ac 06 98 3c bb eb f8 bc 18 e8 98 bc 2a 88 a1 3b
       0.018557869 -0.030385843 -0.018665358 0.004929562
000210 77 3c 0b bd 02 5b 88 3c d2 a9 bc 3c 54 a7 80 3c
       -0.03399321 0.016644958 0.023030195 0.015704788
000220 1c 80 22 3c 75 3f 46 3c c0 45 fe 3c 75 b6 36 bd
       0.009918239 0.01210009 0.031039119 -0.0446076
000230 77 23 a0 bd f8 a5 07 bd cd 5c 95 bd b2 83 a5 bc
       -0.078192644 -0.033117265 -0.07293091 -0.020204399
000240 b4 14 fd 3c 44 97 11 3c 64 bc 33 bd ec 8d b2 3d
       0.030893661 0.008886162 -0.043880835 0.08718476
000250 b0 ab 97 bb ad fc 44 3c fd bc ce bc f3 d7 8d bb
       -0.004628621 0.012023133 -0.025236601 -0.0043287217
000260 72 df 0c 3c 22 58 c5 3c 46 52 ca bc c1 7f 22 3d
       0.008598195 0.024089877 -0.024697434 0.039672617
000270 37 35 9f bc c8 53 13 bc 1f f2 13 3d 62 b6 de bc
       -0.019434555 -0.008992143 0.036119577 -0.027186576
000280 eb 01 a9 bc b3 e7 39 bd 33 36 2e 3d 83 5c 5e bd
       -0.020630797 -0.04538698 0.042532157 -0.054287445
000290 e7 d7 ee 3c 77 19 95 bb d4 1f 6b 3c c0 7a ca bc
       0.029155685 -0.004550155 0.01435085 -0.024716735
0002a0 dd b5 9a bc 3f 76 39 3d 6c b9 69 3c a2 cc d6 bc
       -0.018885547 0.045278784 0.014265399 -0.026220623
0002b0 30 ad 9d bc 8d 26 06 bc 88 a1 79 bd 23 12 1e 3d
       -0.019247621 -0.008187902 -0.060945064 0.038591515
0002c0 d4 f9 51 bb 8a 76 65 bc 4b ab 48 bd 50 a5 1f bd
       -0.0032039778 -0.014005313 -0.048991483 -0.038976014
0002d0 dd 27 bc 3d b5 b0 55 ba 08 67 46 3c f1 a8 8c bc
       0.09187291 -0.00081516366 0.0121095255 -0.017170401
0002e0 9c 91 1c bd c8 94 37 3c c5 18 64 3c ae 6b 06 3d
       -0.0382248 0.011204906 0.013921921 0.032817535
0002f0 01 da 03 3c f5 50 07 3a 19 fe 63 bd 0c 4c 0c bd
       0.008047582 0.0005161905 -0.05566225 -0.03425221
000300 73 b7 45 bc 29 32 c7 bc c2 b4 a3 bd 29 36 86 bb
       -0.0120676635 -0.02431591 -0.07993461 -0.004095812
000310 71 5e 19 bc 3f c3 c4 3d 4e eb ce bc 4b 5e 3c 3d
       -0.0093608955 0.09607553 -0.025258686 0.045988362
000320 c5 a4 7a 3c 29 08 7a 3d 76 e0 e4 bc 90 a8 36 3c
       0.015298073 0.06104294 -0.027939063 0.011148587
000330 0e 34 59 bc eb a8 cc 3b 26 95 6f 3d 36 a8 17 bc
       -0.01325704 0.0062457225 0.05849185 -0.009256413
000340 c7 fd dd 3c 5d 74 1c 3d 66 71 80 3a d4 f9 83 bd
       0.02709855 0.03819691 0.000979942 -0.06444135
000350 da 50 60 bd 49 7f 97 3c 4e ef 83 bd 9f 7c 85 3d
       -0.054764606 0.018493311 -0.06442128 0.0651791
000360 2a f8 32 3d 09 7c 44 bd bc 91 8f 3a 37 51 80 3c
       0.0436937 -0.04796985 0.0010953466 0.015663726
000370 0b 86 21 bd 5f 81 89 3d 3e a8 94 3c 03 9d 1f 3d
       -0.039434474 0.06714129 0.01814663 0.038968097
000380 26 ea 57 3b 4f ab 88 3b 8e 98 ec 3c f1 58 7f 3c
       0.003294596 0.004170812 0.028881337 0.01558517
000390 e4 20 fb 3c 51 7f ff 3c 38 b6 f6 bc b1 25 d2 3b
       0.030655332 0.031188639 -0.030116186 0.0064131846
0003a0 f5 da 98 bd af a4 75 3b 1a 61 69 3b b1 88 65 3c
       -0.07463638 0.0037482192 0.0035610856 0.014009641
0003b0 57 d7 1c bc 9f 27 04 3d c4 e3 10 3d f3 c4 0d bb
       -0.009572825 0.032264348 0.035373464 -0.0021632283
0003c0 f8 51 60 bd 0a 32 37 bd 88 5c 8f bd 56 00 9e 3d
       -0.05476567 -0.044725455 -0.07000071 0.07714908
0003d0 fd 3d b1 bc 10 54 da bc f5 bf 49 bd 7d 7f 12 3d
       -0.021636004 -0.026651412 -0.04925533 0.035766114
0003e0 c2 92 09 bd 60 b1 f1 bc 11 bc 28 3c a2 93 9a 3c
       -0.033587225 -0.029503524 0.010298745 0.018869225
0003f0 b0 67 a6 bc e0 60 ab bb 58 b3 bc ba 8d c7 2b bd
       -0.020313114 -0.0052300543 -0.001439671 -0.041938353

encoder.6.bias f4 [64]
000000 b6 50 3e 3d 03 e6 2f 3d 85 11 f1 ba a9 66 c8 3a
       0.04646369 0.042943966 -0.0018392062 0.0015289384
000010 88 e5 67 bd 16 12 13 bd 12 84 48 bc 4f b5 08 bd
       -0.056615382 -0.03590592 -0.012238519 -0.033376034
000020 66 92 8a 3c 5a d9 62 3b 18 ed b1 bc 13 e9 dd bb
       0.016915511 0.0034614415 -0.0217195 -0.0067721694
000030 4e 38 e1 bc b7 f2 8f bc e2 bf b3 3c 6c a7 23 bd
       -0.027492668 -0.01757179 0.021942083 -0.039954588
000040 fe 7c b1 3c 02 54 1d 3c 5d 0f 68 3d c3 b8 07 3d
       0.021666046 0.009602549 0.056655277 0.033135187
000050 af fc 39 bd 82 23 43 bb 17 93 1a bd 77 23 d2 bc
       -0.045406993 -0.0029775803 -0.037737932 -0.025651677
000060 45 fc 4d bc 55 4f fd bc 0e be 78 3c c9 b4 61 3d
       -0.012572353 -0.030921618 0.015182031 0.05510405
000070 17 11 8b bc b0 83 fe bc ce b7 68 bd 5c fd b4 bc
       -0.016975923 -0.031068653 -0.056815915 -0.022093467
000080 a9 8e 76 3c e6 5a 60 3d 3b 1e 40 bc df 70 d0 bc
       0.015048661 0.054774188 -0.0117259575 -0.025444446
000090 69 6f 15 3d 8b 4b 90 3a da 28 ed 3c 78 fb dc bb
       0.036483202 0.0011008842 0.028950144 -0.0067438446
0000a0 70 e8 1f bd da 19 1e 3d 90 da 86 3b d9 63 54 3d
       -0.03904003 0.038598873 0.00411541 0.051853035
0000b0 28 20 0a bd d7 bc 38 bd fa 5c 54 3c ec c4 07 3b
       -0.033722073 -0.045101967 0.01296162 0.002071674
0000c0 f0 d2 36 bd 89 c3 59 3b 58 12 eb 3b 36 a2 0b 3b
       -0.04463476 0.003322812 0.0071738176 0.0021306402
0000d0 37 a4 0d bd 64 a5 57 bd 64 07 24 3c be bb 17 3d
       -0.034580436 -0.052647963 0.010011528 0.03704428
0000e0 d1 9e 4a bd 22 be 44 3c 2c 5b 39 3c 32 0a 07 3d
       -0.049467865 0.012008222 0.011313241 0.032968707
0000f0 70 d5 1b 3c e1 b5 d4 3b ef ba 2c 3c 23 2b 05 3d
       0.009511337 0.006491408 0.010542615 0.03251184

encoder.7.weight f4 [64]
000000 90 2b 83 3f 63 fc 7b 3f 15 95 83 3f 75 e3 7d 3f
       1.0247669 0.98431987 1.0279871 0.99175197
000010 0d 9d 7d 3f 99 33 79 3f 34 ad 80 3f e4 f4 81 3f
       0.99067765 0.97344357 1.0052857 1.015286
000020 0e 8c 80 3f 85 03 7e 3f 53 f5 81 3f 24 e3 7f 3f
       1.0042741 0.9922412 1.0152992 0.99955964
000030 d1 a3 7b 3f 4c bf 72 3f 12 d7 7f 3f 18 86 77 3f
       0.9829684 0.94823146 0.99937546 0.96688986
000040 cd f1 7a 3f b6 c5 7e 3f ef a5 7f 3f db 12 7a 3f
       0.9802521 0.9952043 0.9986257 0.9768502
000050 f3 0f 77 3f 9a b2 7f 3f 18 0c 7f 3f a4 eb 81 3f
       0.9650871 0.998819 0.9962783 1.0150037
000060 36 7e 7d 3f a0 84 7c 3f 13 b2 7b 3f ea e2 82 3f
       0.9902071 0.9863987 0.98318595 1.0225499
000070 91 5b 80 3f d6 bb 76 3f 98 b0 7e 3f 7f 6d 7d 3f
       1.0027944 0.96380365 0.9948821 0.989952
000080 5e 56 84 3f 78 19 83 3f 52 27 80 3f 2f 22 76 3f
       1.0338857 1.0242147 1.0012 0.9614591
000090 32 29 7f 3f 5c e6 79 3f c9 55 81 3f 69 6d 79 3f
       0.99672234 0.97617126 1.0104305 0.9743257
0000a0 87 3f 80 3f 5a 19 7e 3f 1c 9c 82 3f f2 8e 80 3f
       1.0019387 0.99257433 1.0203891 1.0043623
0000b0 24 b9 80 3f 82 c0 81 3f 88 47 82 3f 9c 0b 80 3f
       1.00565 1.0136874 1.017808 1.0003543
0000c0 e9 89 80 3f 18 02 81 3f 77 45 78 3f 79 f9 80 3f
       1.0042087 1.0078764 0.96980995 1.0076133
0000d0 c9 bf 81 3f f7 75 81 3f 5b 63 7f 3f 63 64 7b 3f
       1.0136653 1.0114125 0.9976098 0.9820005
0000e0 e1 15 80 3f 9d 19 81 3f 8c d3 81 3f 2e 3e 80 3f
       1.0006677 1.0085942 1.0142684 1.0018976
0000f0 aa bb 83 3f 8b 73 7c 3f ab 72 80 3f b1 28 7b 3f
       1.0291646 0.98613805 1.0034994 0.98108965

encoder.7.bias f4 [64]
000000 73 d7 db 3d a6 94 2f 3c c8 bf 50 3d 0e f4 b6 3d
       0.10734453 0.010716593 0.050964147 0.089332685
000010 cc e0 d4 3c 97 b8 01 3d 9d 3b f0 3d 48 a8 b5 3d
       0.025986098 0.03167018 0.1173012 0.08869988
000020 b8 a6 4b 3d 67 78 bd 3d 87 06 b4 3d d2 86 30 3d
       0.049719542 0.092514805 0.087903075 0.043097325
000030 3c dd 7d 3d aa 15 fe 3d a1 0a 96 3d 71 9e 81 3d
       0.061978564 0.12406476 0.07326246 0.063290484
000040 7e d0 f6 3d bb bc 6d 3d 95 00 73 3d 27 f8 33 3d
       0.120514855 0.058041316 0.059326727 0.04393783
000050 52 89 ad bc 0d 77 1c 3e a1 e1 76 3d de a3 bb 3d
       -0.021183643 0.1527979 0.06027377 0.091621146
000060 98 cb cf 3d 59 cf 53 3d b8 44 be 3d 9b d5 22 3d
       0.10146254 0.051711414 0.09290451 0.03975449
000070 7d 54 e0 3c 6d 64 57 bc 52 14 ef 3c 07 30 ba 3c
       0.027384037 -0.013146502 0.029184494 0.02272798
000080 97 6a 3a 3d 41 d3 c9 3d ac f4 d5 3c 98 48 41 3d
       0.04551181 0.098547466 0.026117645 0.04718837
000090 b4 1c 3a 3d 8b 2a 07 3d aa bb ae 3d d0 52 0e 3d
       0.04543753 0.032999557 0.08531888 0.034746945
0000a0 0c b1 0e 3d 4d d2 b7 3d 84 41 1d 3d 8f 00 60 3d
       0.034836814 0.089756586 0.03839256 0.054688033
0000b0 9e 3c 34 3d de 4d 93 3c b4 ae e8 3d e4 7d 2e 3d
       0.04400312 0.017981466 0.11361447 0.042600527
0000c0 ab fe 26 3d 9e 69 22 3d fd 55 58 3e d3 7e 80 3d
       0.040770214 0.039651506 0.21126552 0.0627419
0000d0 5f 86 b4 3c 07 33 e3 3c a4 93 25 3d e5 43 4d 3d
       0.02203673 0.027734293 0.040424004 0.050113577
0000e0 22 d4 14 3c e8 c3 e4 b9 6d 19 2a 3d ef 1b 49 3c
       0.0090837795 -0.0004363351 0.041528154 0.012274726
0000f0 6e 8f bc 3b c8 49 8d 3d f3 43 36 3d f0 0f cb 3d
       0.005754403 0.06898838 0.044498395 0.09915149

encoder.7.running_mean f4 [64]
000000 46 5d 89 be 15 10 e3 3d e3 0c 83 bf d9 3b 71 3e
       -0.26828974 0.11087052 -1.0238308 0.23557986
000010 67 3f 02 bf a7 58 c1 be 9f 48 9d be 1d b3 ae 3e
       -0.50877994 -0.3776295 -0.30719468 0.34121028
000020 85 43 4b bf 3d d9 39 be 42 54 ac be d5 2f ea 3d
       -0.793999 -0.18149276 -0.33658034 0.114349045
000030 95 e7 94 3e 42 76 86 be 7b 77 18 3f ce 06 86 be
       0.29082933 -0.262621 0.5955731 -0.26177067
000040 60 8b 41 bd 75 cd fc be 4a 0f c5 be 44 b9 48 bf
       -0.04725206 -0.493755 -0.38488227 -0.7840769
000050 03 0f 03 3e ea 94 a3 be 62 bf 1c 3e a8 d7 c0 be
       0.12798695 -0.3194955 0.15307382 -0.37664533
000060 3f 6c 0b bf 1e a1 30 bf b4 78 3b be 5a 41 db bc
       -0.54462045 -0.68995845 -0.18307763 -0.02676456
000070 ed 7d 8d 3d 0e 12 ae be c4 56 21 be 5a 7d 4c be
       0.06908784 -0.3399815 -0.15755755 -0.19969693
000080 c3 d9 1b 3f 6e 94 71 be 0d fa 94 bd fd a3 40 be
       0.60879153 -0.23591778 -0.07274256 -0.18812557
000090 3e 3e f7 3e c9 0a b4 bb 75 0b 3c 3e 19 33 53 3e
       0.48289675 -0.0054944498 0.18363746 0.20624961
0000a0 67 53 a5 bd e8 b9 95 be 2b 23 51 3e 22 cf a8 be
       -0.08072548 -0.29243398 0.20423572 -0.3297053
0000b0 9f 82 ef 3d e4 c9 53 3e bf 12 d8 3c 35 35 ac be
       0.11694836 0.20682484 0.026376126 -0.33634344
0000c0 a1 c2 fe 3c e7 b5 26 3e a8 14 0c 3f 29 8c e3 be
       0.031098666 0.16280328 0.5471902 -0.4444287
0000d0 34 45 0f 3e 86 f0 a7 be a9 7e 39 be ff ab ae be
       0.13991243 -0.32800692 -0.18114723 -0.34115598
0000e0 dd 2f 74 be c5 d4 d1 be c5 0a 73 be d1 fc f9 bc
       -0.23846383 -0.40982643 -0.23734577 -0.03051606
0000f0 60 c3 08 3f a4 ad 8a 3d 04 17 97 3e aa 27 20 3d
       0.5342312 0.067714006 0.29509747 0.039100327

encoder.7.running_var f4 [64]
000000 72 64 19 3f 6e 7c 40 3f 9e 7f b3 3f d6 a0 fc 3e
       0.5991889 0.75189865 1.4023321 0.49341458
000010 b5 21 a2 3f ff 3b 89 3f 7f ca e1 3e ba d7 03 3f
       1.2666537 1.0721434 0.44099805 0.5150105
000020 4c e7 91 3f b5 68 e2 3e 6e a3 20 3f 25 25 0f 3f
       1.1398711 0.4422051 0.62749374 0.55916053
000030 af 50 21 3f 91 32 b7 3e be 03 f5 3e dd 01 ae 3e
       0.6301374 0.35780767 0.47854418 0.33985797
000040 cc d0 9d 3e 51 68 cf 3e 63 84 70 3f 60 34 6a 3f
       0.30823362 0.40509275 0.93952006 0.9148617
000050 88 fd 55 3f 5a 8d f0 3e cb b7 9a 3e 5b 63 25 3f
       0.83589983 0.46982843 0.30218348 0.6460473
000060 15 f2 73 3f 4f 9a 48 3f 96 6f 04 3f 44 54 ab 3e
       0.9529126 0.78360456 0.51732767 0.33462727
000070 bf f9 10 3f 64 5f 6d 3f e9 45 85 3f 05 e9 ea 3e
       0.5663108 0.9272368 1.041196 0.45880905
000080 65 25 95 3f d4 d0 2a 3f 02 27 01 3f dd bb eb 3e
       1.1652037 0.66724896 0.50450146 0.46041766
000090 20 ae f1 3e d2 6c 0a 3f dc b3 34 3f d1 84 39 3f
       0.4720316 0.54072297 0.70586944 0.72468287
0000a0 e3 47 55 3f 21 95 42 3f 34 1e e0 3e 69 55 97 3e
       0.83312815 0.760088 0.43773043 0.2955735
0000b0 cb 0e 2c 3f 49 51 3b 3f de 5d 0b 3f f2 ac 1b 3f
       0.6721007 0.73170906 0.54440105 0.6081077
0000c0 2b 2a 2b 3f 91 53 14 3f e6 a8 af 3e 7a 8b 17 3f
       0.6686122 0.5794001 0.34308547 0.591972
0000d0 9e 85 08 3f 45 36 6e 3f 6b d2 1d 3f 93 15 17 3f
       0.53328884 0.9305156 0.616492 0.59017295
0000e0 96 6d d2 3e 6e 62 02 3f d3 8a c3 3e d5 39 78 3f
       0.41099232 0.5093144 0.38191852 0.96963245
0000f0 45 b1 8b 3f 3a f9 14 3f a4 e4 1e 3f f7 cb a0 3e
       1.0913473 0.5819279 0.6206763 0.31405613

decoder.0.weight f4 [64, 32, 3, 3]
000000 af 61 27 bc f0 6b 93 3d b9 0a 42 3d c9 42 8a 3b
       -0.010216161 0.07198322 0.047373507 0.004219387
000010 b8 f2 80 3c d8 7c 0d bd 2d 23 ef bc 92 15 1b bd
       0.015740737 -0.03454289 -0.029191578 -0.037862368
000020 6c 35 7d bc f6 3c 39 bc 2e 8a 33 bc 03 e4 37 3d
       -0.015454631 -0.011306038 -0.010958238 0.044895183
000030 cd c4 c7 bb b9 50 67 3d 50 5a 2c bd e1 e3 8c bd
       -0.0060964585 0.056473467 -0.042078316 -0.06879402
000040 2e 06 7c bd 8d 49 99 bd 55 21 e4 3c 30 bd 2e bd
       -0.06152933 -0.07484732 0.027847925 -0.042660892
000050 db 0d f2 bc 38 50 85 bd 0e 67 81 bd 15 4f e4 bc
       -0.029547622 -0.06509441 -0.06318484 -0.02786974
000060 53 cf 05 3d 5a ca c0 bd 50 56 0f bd e6 7a 8d 3c
       0.032668423 -0.094135955 -0.034994423 0.017270517
000070 4a d3 e9 b9 9a 7e e5 3c ca 25 9d bb 60 f2 7f bc
       -0.00044598646 0.02801447 -0.0047957646 -0.015621752
000080 d9 95 8c bc b3 38 39 b9 a3 e5 b5 3c c0 c9 f9 bc
       -0.017161297 -0.00017664097 0.022204226 -0.03049171
000090 e3 27 8f 3d c9 fb 4c 3a df 03 e5 3c 10 eb 86 bd
       0.0699003 0.00078195013 0.027955947 -0.06587803
0000a0 bd b0 a4 bc 9b 81 5d 3c d8 4e 3e bc fb ed 50 bd
       -0.020103807 0.01351967 -0.0116154775 -0.051008206
0000b0 23 00 c1 bd 1b eb e4 bc 7e 8e 77 3c d2 8b a6 3c
       -0.09423854 -0.027944138 0.015109656 0.020330343
0000c0 0b 98 fe bc 1e 6b 8e bc 0d 98 94 ba 53 a6 66 3d
       -0.03107836 -0.017385062 -0.0011336819 0.056310963
0000d0 4f b8 d1 bc 80 ec 71 bc 2a 5f 60 3c ea 7e 1c bd
       -0.02560058 -0.014765859 0.013694564 -0.038206972
0000e0 ef ec 05 3d 3b 7b 91 bd 1f 20 c0 bc 4c 7d 5c bc
       0.03269666 -0.071035825 -0.023452817 -0.0134576075
0000f0 13 75 3d 3b 50 49 da bd 22 90 0b be f4 39 3c 3c
       0.0028908893 -0.106585145 -0.13629201 0.0114884265
000100 f0 d4 f2 bc b2 cd ed bb 8d 91 42 3d 21 09 ad bc
       -0.029642552 -0.007257187 0.04750209 -0.021122517
000110 89 36 93 bd cc bc 0b 3d fe ed 0d 3d 73 f2 a6 3d
       -0.07188136 0.034115598 0.034650795 0.08151712
000120 36 30 6b 3d 51 8e 15 bd 29 8c d6 bc 18 52 15 3d
       0.057419024 -0.036512677 -0.02618988 0.036455244
000130 93 d3 3f bd 10 56 00 bc cf 24 57 bd 2d d3 69 bd
       -0.046832632 -0.007833019 -0.052525338 -0.05708616
000140 f9 44 55 3d b5 e5 76 bc 34 e5 95 3a 61 95 1e 3d
       0.05206773 -0.015069415 0.0011436106 0.038716678
000150 3e 7e 1a 3c 25 60 64 bd bd af c9 bd a8 52 6d bb
       0.009429513 -0.055755753 -0.098479725 -0.0036212597
000160 a4 21 e6 bd dd 9e 9a 3c 89 38 a3 bd d0 85 27 bb
       -0.11236885 0.01887458 -0.079697676 -0.0025561936
000170 0a 9d 3e bd 7e 35 d2 3c b3 6a 4e bd 25 e2 a9 3b
       -0.046536483 0.025660273 -0.050394725 0.005184429
000180 23 fd d0 bc a0 1a 6f bd 36 45 b2 3b 72 a1 07 bc
       -0.02551133 -0.058375 0.0054403795 -0.008278238
000190 57 1e 30 3d 30 ee 0e bd bd f6 14 bd 1c 81 40 bd
       0.042997684 -0.034895122 -0.03636812 -0.04699813
0001a0 75 9b 77 3c ae 93 52 bd 10 9c de ba a4 3d db bc
       0.015112747 -0.05141037 -0.0016983766 -0.026762791
0001b0 6b cb 87 bc 9d 4f 06 bd 8e ee f2 3c da 60 0b 3c
       -0.01657649 -0.03279077 0.029654767 0.008506978
0001c0 67 5d ce bc 6f 18 2f 3c 82 d0 46 bd 54 67 de 3c
       -0.025191022 0.010686978 -0.048538692 0.02714888
0001d0 8a c8 d9 bd 7c 5e f2 3b 9c b4 9b bd 96 b2 77 3c
       -0.10633953 0.0073965173 -0.07602808 0.015118262
0001e0 80 c6 12 bd 7a e5 08 bc 50 69 3b 3b fe ef b1 bb
       -0.035833836 -0.008355493 0.0028596707 -0.0054302206
0001f0 d4 2d b9 bd 22 da 70 bb 49 46 b5 3c 68 9d c4 bc
       -0.09041944 -0.003675111 0.022128241 -0.024000838
000200 b3 b4 7c bc 00 60 44 3d 7c 9b 21 bd 17 e5 95 bd
       -0.015423941 0.047943115 -0.039454922 -0.07319086
000210 d5 92 99 3c 0e b0 46 3b 25 55 05 3c e9 a4 47 3d
       0.018746773 0.003031734 0.008137976 0.048741255
000220 7e 99 15 bd 3e 9f 16 bc e3 13 2f 3d a0 70 19 bc
       -0.036523335 -0.00919324 0.042743575 -0.009365231
000230 ba 26 aa bc f2 29 33 3d d5 e9 3a 3d 80 b6 3b 3d
       -0.02077042 0.043741174 0.045633156 0.045828342
000240 e7 57 6c 3d c4 21 0e bd 89 37 8e bc 58 5e 82 bc
       0.057701018 -0.03470017 -0.017360466 -0.015914127
000250 d5 1c 20 bb 15 20 e5 3c 87 bc 67 bd 57 2c a0 3a
       -0.0024431248 0.0279694 -0.056576278 0.0012220246
000260 7e 94 4e 3c 50 94 71 bc 6a 0c 0a 3d ac 02 1f 3d
       0.0126086455 -0.014744833 0.033703245 0.038820907
000270 a1 96 21 bd 91 6a 4c 38 c7 cf 74 3d db 33 16 bd
       -0.03945029 4.8736638e-05 0.059768464 -0.036670547
000280 61 01 d0 bd d9 92 d3 bd 23 c9 c3 3b 3f b7 23 3c
       -0.10156513 -0.10330743 0.005974905 0.00999242
000290 e9 3a 1f 3d 3d 34 08 bd 31 e7 a6 3c 0f f9 71 bd
       0.03887454 -0.033252943 0.020373913 -0.05907541
0002a0 66 31 67 3c e1 33 3f 3d c7 55 e6 3d 8f 62 28 bd
       0.014110899 0.046680335 0.112468295 -0.041109618
0002b0 78 dc 2c bd ea e9 4c bd a4 46 8e bd e3 81 37 bd
       -0.042202443 -0.050027765 -0.069470674 -0.044801604
0002c0 03 6b 37 3d eb 5d 07 3b 71 3d 15 3d 36 01 2b bc
       0.04477979 0.0020655345 0.03643555 -0.0104373
0002d0 ac ee 87 bd 30 6a fb 3c 26 b1 a1 bc ff 70 69 bd
       -0.0663732 0.030690283 -0.019737791 -0.056992527
0002e0 18 15 51 ba 36 c8 1b bd 90 6c 29 bb 48 14 2d 3d
       -0.00079758605 -0.038032733 -0.0025852062 0.04225567
0002f0 11 eb 11 3e a9 ad 5f bd d1 26 81 3b 52 a8 02 bd
       0.14249827 -0.054608975 0.003941395 -0.031898804
000300 51 43 a4 3d d6 24 99 3d 4d 0f 38 bd 57 3a 45 3d
       0.08020652 0.07477729 -0.044936467 0.04815134
000310 44 d0 83 3d 25 13 40 3d 40 11 21 bd 15 c6 46 bd
       0.06436208 0.046893258 -0.03932309 -0.04852875
000320 82 d1 28 bd 7d 4b 04 3d ba d3 85 3d 0f cb 0f bd
       -0.041215427 0.032298554 0.06534524 -0.03510576
000330 a0 bc 58 bd 89 59 c3 3c d0 6b 11 bd ff 24 12 bd
       -0.05291426 0.023846405 -0.03550321 -0.035679813
000340 08 cd 2e 3c 11 06 84 3d 00 97 87 b9 b2 b1 f4 bc
       0.010669 0.064464696 -0.0002586171 -0.029869888
000350 ef b4 43 3c d2 21 93 bc 93 d3 2b bd 07 d1 b7 bd
       0.011944993 -0.017960463 -0.04194982 -0.08975416
000360 62 e5 31 3c 6a 3a 15 3d 4b e3 8f bc 34 dd 86 bc
       0.010857912 0.03643266 -0.017564436 -0.0164629
000370 cd 0e 17 bd 03 0d a1 3c ac 87 af 3b d9 1a 26 bd
       -0.03687935 0.019659525 0.0053567495 -0.040552948
000380 89 4b ca bd ee 2c 1a 3b 2d 90 88 3c a9 0a 06 bd
       -0.098776884 0.0023525315 0.01667031 -0.03272501
000390 07 c9 f0 bc 17 38 3a 3d 13 eb 6a bc 66 5d be 3c
       -0.029392732 0.045463648 -0.014338273 0.023237895
0003a0 5e 7d 8a 3b 4d 3c d9 b8 97 70 a4 3c a4 c8 87 bd
       0.0042263707 -0.00010358598 0.020073218 -0.06630066
0003b0 20 f1 36 3c 5b 84 66 bc 22 d9 c4 3c be c1 8a 3b
       0.011165887 -0.014069642 0.024029318 0.0042345216
0003c0 1b 9a 12 bd aa d3 0e 3c 13 81 68 bd 91 a0 84 bc
       -0.035791498 0.008717457 -0.05676372 -0.016189845
0003d0 b4 f0 4e bd 3b fb 95 bc 46 57 27 bd da 76 96 3d
       -0.05052252 -0.018308273 -0.040854715 0.07346888
0003e0 14 0d 4f 3d 97 f0 25 bd d1 b1 e9 3c 40 15 c2 3d
       0.05054958 -0.040512647 0.028527172 0.09476709
0003f0 5d 31 8e bd 04 fc 92 3c e0 64 99 3b d2 23 fc bc
       -0.06943009 0.017942436 0.0046812147 -0.0307788

decoder.0.bias f4 [32]
000000 f6 9f 38 3b fc 1c 1d bd 17 83 19 3d 20 53 08 bc
       0.0028171516 -0.03835772 0.037478533 -0.0083206
000010 7f 59 2f bc 34 e4 22 bc a1 91 50 3d 60 09 2e 3d
       -0.01070249 -0.009942103 0.050920133 0.04248941
000020 ae a8 1b bd cf ab 29 3d 36 5a 1f 3d cb 46 12 bd
       -0.038002662 0.041423615 0.03890439 -0.035712045
000030 5c 6f 2c bd 5c 19 97 bc 34 80 35 bd b6 5b 63 bd
       -0.042098388 -0.01844471 -0.044311717 -0.055507384
000040 8e 97 26 3d 75 66 19 3d 86 53 c7 3c f1 30 8d bc
       0.040671878 0.037451226 0.02433182 -0.017235251
000050 13 3d 1f 3d a7 73 1e 3d 00 ff 5a bd 37 df 3b bc
       0.038876604 0.038684513 -0.053465843 -0.011466793
000060 3a 77 4f bd 7f 0b 0e bd 94 b3 18 3d 00 32 18 bd
       -0.050650813 -0.034678932 0.037280634 -0.03715706
000070 aa 6e 60 3d b5 09 80 bc 1c f1 11 bd af 37 a4 bc
       0.054793037 -0.015629629 -0.03563033 -0.020046083

decoder.1.weight f4 [32]
000000 21 18 79 3f 71 34 7c 3f 8e 80 80 3f 25 ed 78 3f
       0.9730244 0.9851752 1.0039232 0.97236854
000010 3b 16 80 3f 2f d4 81 3f bd d1 7c 3f 14 8c 81 3f
       1.0006784 1.0142878 0.98757535 1.0120873
000020 22 b9 81 3f d5 72 7b 3f 14 67 7f 3f 6a e7 76 3f
       1.0134623 0.98222095 0.9976666 0.9644686
000030 02 1f 80 3f e9 d4 73 3f 2c cb 82 3f 7c 7f 7e 3f
       1.0009463 0.9524675 1.0218253 0.99413276
000040 1c 4d 80 3f 7f 24 7f 3f b1 96 86 3f b3 17 82 3f
       1.0023532 0.99665064 1.0514737 1.0163482
000050 43 b6 82 3f 51 e6 79 3f 6f 5c 7e 3f e0 91 80 3f
       1.0211872 0.9761706 0.9935979 1.0044518
000060 08 79 81 3f d7 3e 70 3f b6 ec 85 3f 7b f7 79 3f
       1.0115061 0.93845886 1.0462863 0.9764325
000070 66 99 79 3f ab 63 7c 3f 90 6d 78 3f 3d 07 81 3f
       0.9749969 0.9858958 0.9704218 1.0080334

decoder.1.bias f4 [32]
000000 72 b8 82 ba dd 09 92 3c 11 aa cc 3c 0c 1a b6 bc
       -0.0009973182 0.017826969 0.024983438 -0.022229217
000010 4d 48 b2 3d ac 9f 23 3e f6 0e 10 3d dd f3 73 3d
       0.087051965 0.15978879 0.035170518 0.059558738
000020 c4 e7 3b 3d 5a ae 36 3d b3 9a 68 3d d6 a0 06 3d
       0.045875326 0.04459987 0.056788158 0.03286823
000030 bc 7b 10 3e 35 9a 1e bb 77 5e 69 3d 2d a1 bb 39
       0.14109701 -0.0024200801 0.056974854 0.00035787505
000040 49 07 32 3d 07 0b d5 3c fe f0 c0 3d d9 8f ed 3d
       0.04346398 0.026006235 0.094209656 0.115997024
000050 96 27 6b 3d a1 17 35 bc d9 3d 50 3b 6d 1d 80 3d
       0.0574108 -0.011052997 0.0031775145 0.062556125
000060 62 1d 71 3d 36 29 83 bd 6e 4e 91 3d a2 4a df bc
       0.058865912 -0.06404345 0.070950374 -0.027257267
000070 9c 45 9e 3c 56 b0 dd ba fd 74 d9 bb 59 a5 4d 3c
       0.019320302 -0.0016913514 -0.0066362605 0.012551629

decoder.1.running_mean f4 [32]
000000 c2 2d b1 be 7b 19 0d 3e 07 da 36 3e 8e 9f ad be
       -0.34605223 0.13779251 0.17856608 -0.33910793
000010 e1 dc 41 be 13 09 76 3d d8 5a 0f bd b3 02 e0 bd
       -0.18931915 0.060067248 -0.034998745 -0.10938015
000020 49 0b a4 be 69 6b 6d be 82 64 fc bd d6 5d 47 be
       -0.3203986 -0.23185505 -0.12323858 -0.1946939
000030 68 a3 40 3d 1b b2 b7 3c 96 4c 15 be fa 6f bd be
       0.047030836 0.022423794 -0.14579996 -0.36999494
000040 08 38 c2 be cf e6 0c 3d 60 eb 98 be 6f 6f 90 3c
       -0.37933373 0.034399804 -0.29867077 0.01763126
000050 f6 7c 80 be df 9d dd be 56 4c 99 be bc a9 82 bd
       -0.25095338 -0.4328451 -0.29941052 -0.063800305
000060 bf 4e 1b bf 32 56 47 be 34 48 43 3e 1b bf c5 be
       -0.6066703 -0.19466475 0.19070512 -0.38622364
000070 17 e4 cf bb 2f b6 d9 be c2 eb e5 be 82 84 0c 3d
       -0.006344329 -0.42521808 -0.4490643 0.034306057

decoder.1.running_var f4 [32]
000000 99 ae 81 3e 58 20 96 3e d0 65 7f 3e 1f 5b 80 3f
       0.2532852 0.2932155 0.24941182 1.0027808
000010 71 54 32 3e 36 66 2b 3e 1a ee 84 3e 6a 31 2b 3e
       0.17415024 0.16738209 0.25962907 0.16718069
000020 8d 40 8b 3e 7b 35 eb 3d 38 34 6a 3e de 58 c1 3e
       0.27197686 0.1148481 0.22871482 0.37763113
000030 fd dd 04 3e 37 f3 c8 3e 49 9d c6 3e a2 a2 fb 3e
       0.12975307 0.39248058 0.38791874 0.49147516
000040 fd 9a 51 3f 17 53 b1 3e d7 f4 b0 3e a0 0d 0e 3e
       0.8187712 0.34633705 0.34561798 0.13872385
000050 e1 f6 33 3e 2f a8 01 3f 9c 93 fc 3e 5f e5 28 3e
       0.17574646 0.5064725 0.49331367 0.16493748
000060 b9 28 12 3f f5 26 9f 3f 9c ab 5e 3e b0 49 04 3f
       0.5709339 1.2433764 0.21745151 0.5167494
000070 17 a4 f0 3e 4b 28 a3 3e 02 1d b0 3e 56 3d 20 3e
       0.4700019 0.3186668 0.3439713 0.15648398
