models/ae_conv_conn3.pth (torch, 203766 bytes, 32 tensors)

encoder.0.weight f4 [16, 3, 3, 3]
0.19008662 0.07328689 -0.12355763 -0.07194056 0.16999312 0.10613238 -0.0713093 -0.117689386
0.14289881 -0.02771555 0.0013532595 0.09291231 0.004382463 0.15138848 0.023249986 -0.15176994
-0.079951994 0.08705777 0.19064566 0.009943743 0.02477575 0.15947872 0.0923506 0.10465275
-0.026304813 0.041243523 -0.21244898 0.009191872 -0.10698275 -0.18447295 -0.010693317 -0.07853275
0.01090809 0.15583366 -0.063186735 0.17950204 0.12098395 -0.056429718 -0.16015148 -0.016783161
0.016842065 -0.18022814 0.14026019 -0.041030332 -0.14350334 -0.17315201 0.06261818 -0.016000664
0.06614662 -0.17748205 -0.16192237 0.09611462 0.118498124 0.17214982 -0.0028090496 0.088734
-0.1640931 -0.07971617 -0.10323421 -0.13876896 -0.17577387 -0.027283145 0.20822556 0.16416676
0.110911876 -0.10268684 -0.18349974 0.09527147 -0.16355768 -0.19636908 -0.09729528 0.08243002
-0.024170484 -0.078423366 0.04010078 0.038882308 -0.25791836 -0.12921958 -0.004054402 -0.18065004
0.12506276 0.15944396 -0.041307636 0.121816404 0.08075712 -0.14320049 -0.0670977 -0.13801013
-0.08612749 0.034934867 0.07825897 0.1319731 0.12684444 0.062318552 -0.05554679 0.07667011
0.03987523 -0.062401447 -0.095979996 0.11628631 -0.02119809 0.128772 -0.003386341 -0.17575133
-0.109899186 -0.021487234 -0.031905036 -0.070311554 0.052349064 0.17587282 -0.16630596 -0.1804479
-0.18575625 0.08973237 0.17919785 -0.18234597 -0.02397168 -0.04384909 -0.09510945 -0.043175995
0.036267478 -0.14367805 0.059900634 -0.028010951 -0.005568139 -0.07307792 0.14206585 0.0355457
0.19077474 0.005064593 -0.16093704 -0.19233376 0.07599082 0.15153565 -0.010083322 0.16209896
-0.03989171 0.036692254 0.088232026 0.023089612 0.1824272 -0.19078363 0.026850924 -0.101382665
-0.15127483 -0.03849968 0.08490518 -0.016783211 0.13710073 0.025933417 -0.11475065 0.17377044
0.019929636 -0.15131296 0.05525062 -0.2019684 0.07152917 0.07309886 0.16365196 0.19366595
-0.16583867 0.056849632 -0.05343473 -0.1579046 -0.14364593 0.096558236 -0.04120369 -0.1760774
-0.024180807 0.033084452 0.010392833 0.1317564 0.09836887 -0.046896882 0.19075283 0.11905249
-0.053996347 -0.01142763 -0.097655684 0.073227994 0.10898808 0.12055557 -0.12221308 0.005746489
-0.18264787 -0.06378743 -0.13083418 -0.12517473 -0.1967473 -0.07471303 -0.001301438 -0.06939238
0.019009842 0.044291046 -0.02120926 -0.012171189 -0.15646355 -0.1861338 -0.10313186 0.013417854
-0.1261088 -0.11992903 0.027779775 -0.22357385 0.20890446 -0.1876608 -0.13506381 -0.06830862
-0.0135934865 -0.038892575 -0.11257678 0.043212164 -0.10399953 -0.033472426 0.09270148 -0.16043228
0.017185295 0.1431941 -0.008672591 0.054238256 0.20177715 0.023773829 0.0044625932 0.07736138
-0.01760654 -0.095299415 -0.0012339698 0.062231112 -0.03270743 0.12878588 0.11861949 0.092860065
0.20984891 -0.13896558 0.0047588763 0.07329485 -0.052753866 -0.13116893 0.15745293 -0.07799502
0.0020229768 0.042422052 -0.03178706 0.00865355 0.022109691 0.1411632 0.07846085 0.067029975
0.13293406 0.13963361 0.085245304 0.051528316 -0.13593051 0.09962975 -0.105478324 -0.066487275
00000000: 11a6 423e 7017 963d c80b fdbd 9355 93bd
00000010: ad12 2e3e ef5b d93d 9c0a 92bd 2207 f1bd
00000020: 1154 123e b90b e3bc db5f b13a cf48 be3d
00000030: c49a 8f3b 9505 1b3e c176 be3c 9469 1bbe
00000040: dfbd a3bd 584b b23d 9e38 433e 15eb 223c
00000050: 83f6 ca3c 644e 233e 5022 bd3d 2e54 d63d
00000060: 317d d7bc f8ee 283d 3a8c 59be 8199 163c
00000070: c619 dbbd 7ae6 3cbe 0633 2fbc c7d5 a0bd
00000080: d8b7 323c dc92 1f3e 0c68 81bd 62cf 373e
00000090: 6fc6 f73d d922 67bd c0fe 23be d77c 89bc
000000a0: 5ff8 893c ba8d 38be 5ea0 0f3e 6c0f 28bd
000000b0: 8af2 12be c34e 31be f63d 803d d313 83bc
000000c0: e177 873d dbbd 35be face 25be bed7 c43d
000000d0: 25af f23d 0b48 303e 0818 38bb 2cba b53d
000000e0: 0608 28be 3b42 a3bd 756c d3bd 7319 0ebe
000000f0: 11fe 33be e780 dfbc 1539 553e 551b 283e
00000100: c425 e33d 7a4d d2bd 5be7 3bbe b01d c33d
00000110: aa7b 27be fa14 49be bf42 c7bd 12d1 a83d
00000120: 2e01 c6bc 6e9c a0bd b740 243d 0e43 1f3d
00000130: e00d 84be 2352 04be cada 84bb 53fc 38be
00000140: 7410 003e 4745 233e 3232 29bd e17a f93d
00000150: fd63 a53d 26a3 12be 856a 89bd 8752 0dbe
00000160: 9c63 b0bd dd17 0f3d 3d46 a03d f523 073e
00000170: 82e3 013e bd41 7f3d 0885 63bd 3805 9d3d
00000180: 3654 233d a998 7fbd 2991 c4bd 8427 ee3d
00000190: 9ea7 adbc cfdc 033e 60ed 5dbb 28f8 33be
000001a0: d312 e1bd ff05 b0bc dbae 02bd 81ff 8fbd
000001b0: f96b 563d 0118 343e 1c4c 2abe 56c7 38be
000001c0: e336 3ebe 9bc5 b73d a47f 373e e7b8 3abe
000001d0: 4260 c4bc 1a9b 33bd bec8 c2bd 50d9 30bd
000001e0: 358d 143d 5720 13be 5e5a 753d 3977 e5bc
000001f0: ef74 b6bb e0a9 95bd b679 113e 5e98 113d
00000200: 745a 433e e3f4 a53b aecc 24be 24f3 44be
00000210: 13a1 9b3d 292c 1b3e 8534 25bc 45fd 253e
00000220: 7d65 23bd 9e4a 163d feb2 b43d 6d26 bd3c
00000230: 32ce 3a3e c95c 43be 78f6 db3c b7a1 cfbd
00000240: cae7 1abe d7b1 1dbd c4e2 ad3d f27c 89bc
00000250: 2264 0c3e 5172 d43c 6402 ebbd e1f0 313e
00000260: 7a43 a33c c9f1 1abe 794e 623d ced0 4ebe
00000270: e37d 923d dbb4 953d 6194 273e 5e50 463e
00000280: 9dd1 29be 29db 683d 60de 5abd beb1 21be
00000290: eb17 13be 53c0 c53d 33c5 28bd a24d 34be
000002a0: d416 c6bc 9083 073d b346 2a3c 26eb 063e
000002b0: 9e75 c93d f216 40bd b654 433e cbd1 f33d
000002c0: 462b 5dbd f43a 3bbc b4ff c7bd 8ff8 953d
000002d0: 2435 df3d d7e5 f63d da4a fabd 0b4d bc3b
000002e0: 0b08 3bbe fca2 82bd 65f9 05be ce2d 00be
000002f0: 2078 49be 2503 99bd 0395 aaba 981d 8ebd
00000300: 87ba 9b3c 876a 353d 0bbf adbc ab69 47bc
00000310: fb37 20be dc99 3ebe cc36 d3bd 8fd6 5b3c
00000320: aa22 01be 5a9d f5bd 6992 e33c 8bf0 64be
00000330: 0deb 553e 272a 40be 2b4e 0abe 64e5 8bbd
00000340: 37b7 5ebc d24d 1fbd a88e e6bd 3dff 303d
00000350: b5fd d4bd 621a 09bd 46da bd3d 5c48 24be
00000360: 2dc8 8c3c 79a1 123e 7c17 0ebc ef28 5e3d
00000370: ab9e 4e3e 55c1 c23c f23a 923b a56f 9e3d
00000380: 973b 90bc 572c c3bd 28bd a1ba 0de6 7e3d
00000390: 3af8 05bd 72e0 033e c6ee f23d 6b2d be3d
000003a0: a2e2 563e fe4c 0ebe 59f0 9b3b 9c1b 963d
000003b0: 7014 58bd 2651 06be 573b 213e dabb 9fbd
000003c0: eb93 043b bfc2 2d3d 2633 02bd 9fc7 0d3c
000003d0: 621f b53c 168d 103e 15b0 a03d 0347 893d
000003e0: de1f 083e 1dfc 0e3e 1795 ae3d 5b0f 533d
000003f0: 5e31 0bbe af0a cc3d 0505 d8bd 7b2a 88bd

encoder.0.bias f4 [16]
-0.18737218 0.034057934 -0.053412903 0.12787412 -0.09714808 -0.07331286 -0.14260669 -0.10324589
0.06625749 -0.059602138 -0.09675843 -0.054464325 0.029164672 0.048423693 -0.07019274 0.086634316
00000000: 7ede 3fbe 5580 0b3d 7dc7 5abd 6ff1 023e
00000010: 93f5 c6bd 0e25 96bd 7d07 12be 9572 d3bd
00000020: 02b2 873d 5f21 74bd 4929 c6bd fc15 5fbd
00000030: c0ea ee3c ec57 463d 36c1 8fbd 556d b13d

encoder.1.weight f4 [16]
1.0152197 0.9769392 1.0086704 0.9381455 0.9813739 1.0159138 0.9870497 0.9983902
1.0085344 1.0219783 1.0186484 0.98255265 1.0043577 1.0225432 1.0199604 1.0321434
00000000: b8f2 813f b018 7a3f 1d1c 813f 4e2a 703f
00000010: 523b 7b3f 7709 823f 4aaf 7c3f 8096 7f3f
00000020: a817 813f 2fd0 823f 1263 823f 9288 7b3f
00000030: cb8e 803f b2e2 823f 108e 823f 461d 843f

encoder.1.bias f4 [16]
0.013696476 0.047410037 0.024504447 0.05523778 0.024025079 0.038578827 0.05990172 0.019557102
0.044022813 0.02160409 0.062263444 -0.022825502 0.030617902 0.04757382 0.02500889 0.043193843
00000000: 2f67 603c 0731 423d 8dbd c83c 0341 623d
00000010: 3ed0 c43c d504 1e3d 825b 753d 3736 a03c
00000020: 4451 343d 10fb b03c f407 7f3d 8cfc babc
00000030: 65d2 fa3c c4dc 423d 72df cc3c 07ec 303d

encoder.1.running_mean f4 [16]
0.27383462 -0.21305035 -0.73792565 0.1446592 -0.30312553 0.16557859 -0.52017313 -0.99059623
0.5526131 0.26787382 0.2895015 -0.48355877 0.71564436 -0.29467967 -1.0256344 0.95477426
00000000: 0d34 8c3e df29 5abe b2e8 3cbf 8b21 143e
00000010: 4533 9bbe 6f8d 293e 112a 05bf b797 7dbf
00000020: 0d78 0d3f c226 893e 8a39 943e 0495 f7be
00000030: 7834 373f 41e0 96be fd47 83bf 166c 743f

encoder.1.running_var f4 [16]
0.03715019 0.016571362 0.07764048 0.008334563 0.008773936 0.010732252 0.026044235 0.12692165
0.039635982 0.01834202 0.03014895 0.033522215 0.08665045 0.021965852 0.14942957 0.12388348
00000000: cc2a 183d aac0 873c f901 9f3d b18d 083c
00000010: 8ec0 0f3c 54d6 2f3c b85a d53c c0f7 013e
00000020: 5759 223d 0142 963c eefa f63c 974e 093d
00000030: cb75 b13d bbf1 b33c 1104 193e 9fb6 fd3d

encoder.3.weight f4 [32, 16, 3, 3]
-0.046151575 -0.072814845 -0.08333505 -0.022857578 0.061448652 0.031901233 0.0034511345 -0.08875649
-0.041488618 -0.04731322 -0.07808117 0.023179084 -0.036271792 0.033135556 0.023365004 0.04157986
0.11718099 0.041044623 0.06979059 0.05673859 -0.044286385 0.06254253 0.06288762 0.08561939
-0.09149371 0.015447496 0.07256169 -0.048167888 0.0064581735 0.054707717 0.056306556 0.04520465
-0.050020862 -0.04540757 0.012929105 -0.04708474 -0.061115667 0.06297969 0.10777329 -0.059294418
0.044765793 0.0065689916 0.020701356 0.09623526 0.05159664 0.020977147 -0.053902637 -0.022235552
0.042598445 -0.09443218 -0.035949003 -0.031059142 0.008218778 -0.010842987 -0.047978576 0.078101955
-0.055827163 -0.05210408 0.09218043 0.039845385 0.035644848 0.06766234 0.04096117 0.05491132
0.02861909 0.06383009 -0.025053939 0.09061834 -0.07601758 0.05391796 0.03696317 0.032652136
-0.055207167 0.008393659 -0.04601794 -0.015504478 0.034249425 -0.06516868 -0.022083923 -0.05864281
-0.04699651 0.051083192 0.04251806 -0.032454215 0.0032282257 -0.017229602 -0.09286685 0.017295718
-0.021448784 -0.024872761 -0.040507916 0.045998443 -0.0058387355 -0.013991137 -0.048495963 -0.039903812
0.000785365 -0.04674355 -0.053825665 -0.023179717 0.03488634 0.06849655 0.085182175 -0.043984905
0.04075104 0.031237252 0.029403754 -0.022307342 0.03757873 0.05068311 -0.08283625 -0.07383759
0.039791316 -0.03148191 0.02864502 -0.110775135 0.0009033039 -0.010828067 -0.061791446 0.044779766
0.0092427535 0.051619023 -0.015102457 0.059188504 0.10176386 -0.045384567 -0.05061112 0.010462117
0.023763567 -0.03742203 0.009731014 0.05187209 -0.07586512 0.06793292 -0.025267148 -0.013554466
-0.0148679605 -0.07236619 -0.011934932 0.04106967 -0.10628705 0.0051037264 -0.009711167 0.049284257
0.0128012495 0.040352173 -0.053158924 -0.051989924 0.04175842 -0.035820406 -0.06757115 -0.09290309
-0.10884285 0.049744163 0.086790845 0.07174505 0.04218177 0.03661111 -0.042056996 0.07528369
0.03282852 -0.06827082 -0.06047308 0.0203772 0.040116318 -0.07913136 0.057535026 0.051831886
-0.0032497486 0.02819442 -0.058364745 -0.07530815 -0.02368616 -0.074134745 -0.031167667 0.08839482
0.090775736 -0.050580613 -0.033561032 -0.07037677 -0.07090246 -0.062409338 -0.029512655 0.0017938126
-0.0012227343 0.0106823705 0.05110667 0.08466195 -0.06113064 0.06464801 -0.04362654 0.056119896
0.05392028 -0.06838059 0.076780245 -0.020077687 0.01319357 -0.10144087 0.06302722 -0.055612277
0.0024193374 -0.07248959 0.011993385 -0.032509245 0.023444433 0.084206946 0.0017274636 0.04113064
-0.06777963 -0.048937313 -0.048808325 0.035393402 -0.04919572 0.074226655 0.022299144 0.04515728
0.045115434 -0.040257215 -0.08065681 -0.08019789 0.01515856 0.033287726 -0.0066572283 -0.027513802
-0.08819767 0.01703955 -0.04931004 -0.057564747 -0.054272965 -0.025132386 0.06364497 0.057363942
0.020487703 0.068392105 0.013469184 -0.0271627 -0.09113451 0.018598247 -0.063014366 -0.043947563
0.018891001 -0.0030828537 -0.059454042 -0.04126373 0.03115702 -0.065646626 -0.04720601 -0.08423596
-0.088539906 0.07521526 -0.075093344 0.02999298 -0.07108168 -0.020876529 -0.014402617 -0.031149438
00000000: 6f09 3dbd f31f 95bd 91ab aabd d13f bbbc
00000010: 95b1 7b3d deaa 023d 6e2c 623b f6c5 b5bd
00000020: f8ef 29bd 82cb 41bd 05e9 9fbd 10e2 bd3c
00000030: bb91 14bd 26b9 073d f767 bf3c a54f 2a3d
00000040: 96fc ef3d 681e 283d 5eee 8e3d b966 683d
00000050: a465 35bd 4c16 803d 39cb 803d 3859 af3d
00000060: 0e61 bbbd 7f17 7d3c 399b 943d b14b 45bd
00000070: 169f d33b 3315 603d b4a1 663d 8328 393d
00000080: ade2 4cbd 4afd 39bd 99d4 533c eedb 40bd
00000090: 6c54 7abd 7ffb 803d 3eb8 dc3d b4de 72bd
000000a0: 565c 373d b240 d73b e495 a93c fe16 c53d
000000b0: 0057 533d 44d8 ab3c 03c9 5cbd 5527 b6bc
000000c0: b57b 2e3d a965 c1bd 433f 13bd be6f febc
000000d0: 0ea8 063c c9a6 31bc 2f85 44bd ebf3 9f3d
000000e0: 06ab 64bd 166b 55bd 18c9 bc3d ea34 233d
000000f0: 5500 123d 8e92 8a3d e6c6 273d b1ea 603d
00000100: 9572 ea3c 5ab9 823d eb3d cdbc 1c96 b93d
00000110: 1baf 9bbd 14d9 5c3d b166 173d 3fbe 053d
00000120: e920 62bd 8f85 093c 4f7d 3cbd 7e06 7ebc
00000130: 2049 0c3d 2877 85bd 58e9 b4bc 7133 70bd
00000140: 6a7f 40bd 9c3c 513d 6b27 2e3d b6ee 04bd
00000150: a490 533b 1825 8dbc fa30 bebd c0af 8d3c
00000160: 5cb5 afbc f6c1 cbbc a1eb 25bd dd68 3c3d
00000170: dd52 bfbb 153b 65bc b4a3 46bd 2e72 23bd
00000180: f4e0 4d3a 2a76 3fbd 4d78 5cbd 64e3 bdbc
00000190: fbe4 0e3d eb47 8c3d fe73 ae3d 8429 34bd
000001a0: 90ea 263d 44e5 ff3c 24e0 f03c e3bd b6bc
000001b0: 28ec 193d 1899 4f3d 0da6 a9bd 2a38 97bd
000001c0: 38fc 223d 2df3 00bd f6a8 ea3c 13de e2bd
000001d0: b3cb 6c3a 3468 31bc 0719 7dbd fd6a 373d
000001e0: eb6e 173c 786e 533d 4c70 77bc a56f 723d
000001f0: 9269 d03d 2be5 39bd 9b4d 4fbd 4d69 2b3c
00000200: d0ab c23c d847 19bd d56e 1f3c d477 543d
00000210: 2c5f 9bbd 6a20 8b3d 0dfd cebc 8d13 5ebc
00000220: bf98 73bc ba34 94bd bc8a 43bc ac38 283d
00000230: 06ad d9bd 293d a73b 961b 1fbc 4ade 493d
00000240: 55bc 513c 5248 253d 2cbd 59bd 63f3 54bd
00000250: e10a 2b3d 6bb8 12bd be62 8abd fa43 bebd
00000260: 00e9 debd 89c0 4b3d 66bf b13d 12ef 923d
00000270: cbc6 2c3d 88f5 153d f543 2cbd 562e 9a3d
00000280: 3377 063d 92d1 8bbd 9fb2 77bd 16ee a63c
00000290: 0251 243d 9f0f a2bd d9a9 6b3d ac4d 543d
000002a0: bcf9 54bb fcf7 e63c df0f 6fbd 293b 9abd
000002b0: 7a09 c2bc f5d3 97bd 5653 ffbc 5808 b53d
000002c0: a1e8 b93d 9e2d 4fbd 4b77 09bd b221 90bd
000002d0: 4f35 91bd efa0 7fbd 86c4 f1bc 5d1e eb3a
000002e0: 2844 a0ba 1c05 2f3c 3a55 513d 3f63 ad3d
000002f0: 1f64 7abd 2d66 843d beb1 32bd fadd 653d
00000300: 83db 5c3d 1f0b 8cbd f63e 9d3d f679 a4bc
00000310: d829 583c 3bc0 cfbd 6a14 813d b3c9 63bd
00000320: bf8d 1e3b 6c75 94bd e77f 443c 6a28 05bd
00000330: 8a0e c03c b174 ac3d 0f6c e23a 9a78 283d
00000340: 0cd0 8abd 7e72 48bd 3deb 47bd acf8 103d
00000350: 7481 49bd 2504 983d b2ac b63c d7f6 383d
00000360: f6ca 383d c0e4 24bd 662f a5bd cb3e a4bd
00000370: 9c5b 783c b658 083d e124 dabb a064 e1bc
00000380: fba0 b4bd 8796 8b3c 53f9 49bd 03c9 6bbd
00000390: 544d 5ebd 6fe2 cdbc 4b58 823d 74f6 6a3d
000003a0: d4d5 a73c 2911 8c3d daad 5c3c 5084 debc
000003b0: bba4 babd 5a5b 983c ad0d 81bd 5c02 34bd
000003c0: 4dc1 9a3c b409 4abb 1586 73bd 2804 29bd
000003d0: 023d ff3c bd71 86bd 175b 41bd e783 acbd
000003e0: 6954 b5bd 750a 9a3d 8aca 99bd d7b3 f53c
000003f0: 4693 91bd 4105 abbc f4f8 6bbc 1b2d ffbc

encoder.3.bias f4 [32]
-0.04516395 0.0627799 0.059527494 0.020573802 -0.011776182 -0.05021969 -0.058497444 -0.01483237
0.07572818 -0.06146744 0.055298872 0.07529352 -0.025991106 -0.025986882 -0.015554617 -0.023673888
-0.031975053 0.011090795 0.035978805 -0.08195422 0.0009449514 0.015777294 0.014471878 -0.009129004
-0.048938315 -0.0041603735 -0.0007317485 0.018888142 0.015566675 0.053807087 -0.06559152 0.004642565
00000000: d6fd 38bd c092 803d 1ad3 733d 648a a83c
00000010: e3f0 40bc 29b3 4dbd 049b 6fbd 7803 73bc
00000020: 6017 9b3d 48c5 7bbd 1281 623d 7d33 9a3d
00000030: 4deb d4bc 71e2 d4bc cbd8 7ebc beef c1bc
00000040: 46f8 02bd 2ab6 353c 835e 133d 9dd7 a7bd
00000050: 9db6 773a 623f 813c 751b 6d3c d191 15bc
00000060: 8b73 48bd be53 88bb d0d2 3fba 4ebb 9a3c
00000070: 5e0b 7f3c d264 5c3d d954 86bd a820 983b

encoder.4.weight f4 [32]
1.0086863 0.98734754 0.96638507 0.96888775 1.009665 0.97400135 0.96703154 1.0151143
0.98529327 1.0138731 0.98815584 1.0161636 0.97944987 1.0070914 0.9872639 1.0058489
1.0322504 0.9813337 0.9866588 0.9647426 0.9917245 0.9816072 1.022905 1.0183542
1.0344881 1.0217355 1.0185958 0.992073 1.0421373 0.9703392 1.0153095 1.0246354
00000000: a21c 813f cfc2 7c3f 0365 773f 0709 783f
00000010: b43c 813f 2758 793f 618f 773f 44ef 813f
00000020: 2e3c 7c3f 98c6 813f c8f7 7c3f a611 823f
00000030: 3abd 7a3f 5fe8 803f 54bd 7c3f a8bf 803f
00000040: c820 843f af38 7b3f ac95 7c3f 5ff9 763f
00000050: a8e1 7d3f 9c4a 7b3f 8dee 823f 6e59 823f
00000060: 1b6a 843f 3bc8 823f 5961 823f 7ff8 7d3f
00000070: c164 853f 2668 783f a9f5 813f 4127 833f

encoder.4.bias f4 [32]
0.055131607 0.02762142 0.048968602 0.03677281 0.018302895 -0.017422145 -0.00103524 0.011868847
0.020759461 0.00789185 0.028567635 0.038945917 -0.023310522 -0.00028674013 0.19151115 0.024114277
0.02189982 0.042169522 0.02246327 -0.0553455 0.016944863 0.011620776 0.034811743 0.014166464
0.14270526 0.054541603 0.106901474 0.024186155 0.047925025 -0.0057408577 0.0673666 0.0635161
00000000: aed1 613d 5146 e23c 4d93 483d 169f 163d
00000010: f4ef 953c e3b8 8ebc e4b0 87ba 8d75 423c
00000020: bf0f aa3c d14c 013c ac06 ea3c c185 1f3d
00000030: b5f5 bebc 9c55 96b9 801b 443e 4e8b c53c
00000040: 4067 b33c f3b9 2c3d e404 b83c f7b1 62bd
00000050: f4cf 8a3c 1165 3e3c c296 0e3d 751a 683c
00000060: 5421 123e 0467 5f3d 29ef da3d 0b22 c63c
00000070: 084d 443d ce1d bcbb 80f7 893d bb14 823d

encoder.4.running_mean f4 [32]
-0.007942573 -0.43970656 0.26573208 -0.091172956 0.24535787 0.36688927 0.23326404 0.29078057
-0.3715916 -0.50300086 -0.43793017 -0.00849143 -0.031908486 0.16114464 -0.30211297 0.2799889
-0.6672905 0.21104605 -0.18730712 0.80744994 -0.33076444 -0.5345118 0.20485036 0.42663413
-0.09701863 0.62586975 0.21486951 -0.31041494 0.097383134 -0.33912885 -0.39787295 -0.10878394
00000000: 9121 02bc 3821 e1be 090e 883e e3b8 babd
00000010: 183f 7b3e e9d8 bb3e c5dc 6e3e 31e1 943e
00000020: 4141 bebe aac4 00bf 6238 e0be a41f 0bbc
00000030: 79b2 02bd 1a03 253e 8dae 9abe b55a 8f3e
00000040: 8dd3 2abf 751c 583e 70cd 3fbe 0ab5 4e3f
00000050: f559 a9be c4d5 08bf 4bc4 513e ca6f da3e
00000060: b4b1 c6bd 0039 203f c106 5c3e b5ee 9ebe
00000070: cf70 c73d 4ca2 adbe 01b6 cbbe 1dca debd

encoder.4.running_var f4 [32]
1.710863 0.20747858 0.3984944 0.116490066 0.903592 0.1680702 0.21354797 0.490589
0.7269903 1.0414193 0.2928703 0.8424748 0.3008757 0.47491828 0.14092003 1.1765797
2.547965 0.93898636 0.19068949 0.13752992 0.7106598 0.28123963 0.26029354 0.20643853
0.13833089 0.23222917 0.0776431 0.42285442 0.2127076 1.173707 0.19193839 0.23573586
00000000: 8ffd da3f 4475 543e 7507 cc3e 5892 ee3d
00000010: ce51 673f 981a 2c3e 52ac 5a3e 7b2e fb3e
00000020: 091c 3a3f 3a4d 853f 19f3 953e 6eac 573f
00000030: 610c 9a3e 7d28 f33e 574d 103e 2a9a 963f
00000040: dc11 2340 6961 703f 1b44 433e a5d4 0c3e
00000050: cded 353f a4fe 8f3e 3245 853e 9f64 533e
00000060: 9da6 0d3e 7ccd 6d3e 5803 9f3d 6080 d83e
00000070: 05d0 593e 083c 963f 7f8b 443e be64 713e

encoder.6.weight f4 [64, 32, 3, 3]
-0.039534066 -0.034260783 -0.049845193 0.04679214 -0.024522603 0.04076019 -0.02119729 0.03760063
-0.010872353 0.033961937 0.00646961 -0.014823076 0.032942925 -0.018652273 -0.039243408 0.031647004
0.0018971206 -0.017788567 -0.030963246 -0.02919182 -0.0039647627 -0.042473305 0.0031081645 0.021275155
-0.038278267 -0.04957823 -0.049594015 -0.0018765909 0.020184377 -0.02673083 0.04115562 0.098725595
0.032352272 0.03064431 -0.04069367 0.05662402 0.022219809 0.018125763 0.0094866045 -0.027250644
-0.040107485 -0.02028431 0.048774578 0.0014520008 0.005205328 0.020312684 0.019241326 0.043911707
0.018666772 -0.0060791625 0.027698847 0.0296744 0.10785244 0.09401987 -0.043174636 -0.045119617
0.025434703 0.007676006 0.04816338 -0.0017005142 0.01969706 -0.013019537 -0.04682612 -0.011911939
-0.027637562 -0.021872327 -0.08072701 -0.12217911 -0.0497298 -0.07774007 -0.048605863 -0.05468012
-0.035651542 -0.037164744 -0.013549334 0.0009392105 0.09998505 -0.00017748187 -0.013305235 -0.0028628313
0.023017418 0.004243959 -0.058774594 0.028005054 -0.029318634 -0.0020240843 -0.08153198 -0.08469075
-0.028719813 -0.06784412 0.08838304 0.04156043 -0.023814892 0.04526222 0.00086818833 -0.046446666
-0.00049660273 0.07325615 0.011095982 0.018552857 0.008845207 -0.03577499 0.047140602 0.015096783
0.052776057 0.02078203 0.04620841 -0.03800278 0.0028869302 0.04541216 0.021425426 -0.010340132
0.04934453 -0.024270462 -0.025778329 -0.010944221 0.0071546035 0.0036472357 -0.06950938 -0.046944182
-0.077092804 -0.124319494 -0.043628935 -0.011020319 -0.0950084 -0.035439216 -0.0092327325 -0.034209825
0.01551095 -0.0047705844 -0.0090711815 0.05519437 0.022812417 -0.0586004 0.021792723 -0.031198388
0.053598825 -0.012714637 0.03750663 -0.00022732612 0.031519104 0.025561737 0.042932585 0.02922793
0.015293783 -0.03621074 0.009661376 -0.03834211 -0.09318247 -0.057003982 -0.056903485 -0.03797867
0.018735569 -0.0020891158 -0.0005610249 0.05941899 0.043847848 0.028843205 -0.02573471 0.024093542
-0.056639265 0.018031511 0.037375625 0.037646484 0.030249137 0.041070305 -0.023938846 -0.017521128
0.051879473 0.048315085 0.061112173 0.016354034 -0.0010361932 -0.017730512 0.033479165 -0.034344766
0.00060451205 0.0028596064 0.032852266 -0.016699344 -0.0069473386 -0.007701555 -0.01839462 0.013333597
-0.040457208 -0.017471312 0.061618477 -0.08875315 0.020766472 -0.0040203827 0.011298306 0.05140882
-0.07222466 -0.039428107 -0.01330192 0.036935683 -0.019444862 -0.046463165 -0.03677469 0.052071944
-0.01873654 0.020760054 -0.014305464 0.05641033 0.0075197425 -0.019064253 0.038456004 0.01044807
0.018457651 0.01327894 -0.052638087 -0.064338826 0.080447435 -0.06859329 -0.013182256 0.0192454
-0.03357555 0.0032963257 0.03408035 0.023002066 -0.019458076 -0.03682913 -0.06109047 -0.016866878
-0.00383294 0.011451716 -0.0040861694 -0.029193643 0.02874588 -0.049727563 0.0819686 -0.018556973
0.037706457 0.0048952485 0.04859977 -0.010196503 0.036034063 0.01454365 0.02820564 0.009989468
-0.030337771 0.045758843 0.014715831 -0.024371414 -0.03078828 0.014560506 -0.026421214 0.0379581
-0.005807294 0.018512687 -0.016468981 0.052563284 -0.022299947 -0.03812487 0.009435599 -0.029494528
00000000: 79ee 21bd 0955 0cbd 792a 4cbd 1da9 3f3d
00000010: a0e3 c8bc 28f4 263d f0a5 adbc 1e03 1a3d
00000020: f421 32bc ac1b 0b3d 06ff d33b 7ddc 72bc
00000030: 29ef 063d a7cc 98bc b2bd 20bd 4aa0 013d
00000040: cea8 f83a 54b9 91bc a2a6 fdbc af23 efbc
00000050: d7ea 81bb 7df8 2dbd 59b2 4b3b 3c49 ae3c
00000060: acc9 1cbd 8b12 4bbd 1823 4bbd f1f7 f5ba
00000070: b559 a53c 9dfa dabc cc92 283d a530 ca3d
00000080: d183 043d c709 fb3c 68ae 26bd 97ee 673d
00000090: 5106 b63c 7b7c 943c b46d 1b3c be3c dfbc
000000a0: bf47 24bd 482b a6bc dac7 473d 1051 be3a
000000b0: 7591 aa3b c966 a63c fc9f 9d3c c3dc 333d
000000c0: 0feb 983c b633 c7bb b1e8 e23c ba17 f33c
000000d0: bde1 dc3d 7d8d c03d e3d7 30bd 59cf 38bd
000000e0: 705c d03c 0187 fb3b f746 453d cae3 deba
000000f0: bb5b a13c e54f 55bc bfcc 3fbd 4b2a 43bc
00000100: 2b68 e2bc 982d b3bc 3454 a5bd 0b39 fabd
00000110: 7ab1 4bbd 3036 9fbd f116 47bd 43f8 5fbd
00000120: 5a07 12bd 0f3a 18bd 07fe 5dbc 5a35 763a
00000130: f6c4 cc3d 6d1a 3ab9 33fe 59bc 579e 3bbb
00000140: 068f bc3c e910 8b3b a1bd 70bd db6a e53c
00000150: a22d f0bc 80a6 04bb 3dfa a6bd 5872 adbd
00000160: d045 ebbc dcf1 8abd 2b02 b53d 453b 2a3d
00000170: 7317 c3bc e164 393d 2297 633a dc3e 3ebd
00000180: 722e 02ba 5207 963d eccb 353c 29fc 973c
00000190: 7deb 103c cc88 12bd 8116 413d 7f58 773c
000001a0: b52b 583d 133f aa3c 0845 3d3d cea8 1bbd
000001b0: a732 3d3b 1a02 3a3d 6084 af3c a869 29bc
000001c0: 7d1d 4a3d d9d2 c6bc 132d d3bc 644f 33bc
000001d0: 2a71 ea3b 7606 6f3b ef5a 8ebd 8b48 40bd
000001e0: d5e2 9dbd 389b febd 41b4 32bd 918e 34bc
000001f0: c493 c2bd b628 11bd e344 17bc 9a1f 0cbd
00000200: a421 7e3c 9052 9cbb 4b9f 14bc 7e13 623d
00000210: 1be1 ba3c f906 70bd a786 b23c c393 ffbc
00000220: 718a 5b3d 0e51 50bc 8da0 193d 645e 6eb9
00000230: 2d1a 013d d966 d13c 14da 2f3d 696f ef3c
00000240: c692 7a3c b751 14bd bf4a 1e3c 9e0c 1dbd
00000250: 73d6 bebd 027d 69bd a113 69bd 868f 1bbd
00000260: 567b 993c 8ce9 08bb be11 13ba 5461 733d
00000270: cd99 333d 9648 ec3c 99d1 d2bc d25f c53c
00000280: 93fe 67bd d2b6 933c 2f17 193d 3333 1a3d
00000290: 0acd f73c 5639 283d 661b c4bc 7888 8fbc
000002a0: 927f 543d 0ae6 453d c250 7a3d e5f8 853c
000002b0: e0d0 87ba 943f 91bc 7321 093d 19ad 0cbd
000002c0: 1e78 1e3a 3c68 3b3b 1990 063d 10cd 88bc
000002d0: 80a6 e3bb 535d fcbb 50b0 96bc 2975 5a3c
000002e0: 75b6 25bd ff1f 8fbc a863 7c3d 36c4 b5bd
000002f0: 731e aa3c 6abd 83bb 881c 393c 0e92 523d
00000300: 86ea 93bd 5e7f 21bd 4cf0 59bc df49 173d
00000310: d54a 9fbc 2950 3ebd 0fa1 16bd 6449 553d
00000320: 5f7d 99bc fd10 aa3c 7761 6abc 850e 673d
00000330: 2c68 f63b a32c 9cbc 0b84 1d3d 622e 2b3c
00000340: 8034 973c e98f 593c 099b 57bd 13c4 83bd
00000350: a0c1 a43d a47a 8cbd 64fa 57bc 87a8 9d3c
00000360: 8486 09bd 2b07 583b d697 0b3d d46e bc3c
00000370: 8b66 9fbc 24da 16bd 003a 7abd 682c 8abc
00000380: 1032 7bbb fa9f 3b3c 46e5 85bb 8227 efbc
00000390: 7b7c eb3c 21af 4bbd 27df a73d cb04 98bc
000003a0: 1672 1a3d 5268 a03b 8d10 473d 3c0f 27bc
000003b0: 7498 133d 7d48 6e3c 840f e73c deaa 233c
000003c0: eb86 f8bc a06d 3b3d ab1a 713c 8fa6 c7bc
000003d0: b437 fcbc 308f 6e3c 4d71 d8bc f479 1b3d
000003e0: 1d4b bebb eba7 973c f5e9 86bc 994c 573d
000003f0: 61ae b6bc d328 1cbd c597 1a3c 829e f1bc

encoder.6.bias f4 [64]
-0.036880776 -0.036726568 0.027287882 -0.025456732 -0.02886217 -0.03138488 -0.05699128 -0.055042773
0.021111436 0.049068604 0.058061108 -0.054050226 -0.035699878 -0.047312386 0.01720375 0.0050130584
0.057933256 -0.019449666 0.03273256 0.052052837 -0.04398107 0.057036858 0.02106669 -0.029052677
0.05425062 0.008584857 0.017631378 0.0024523211 0.047782056 0.03758364 -0.017615769 0.016565401
0.03240961 0.044644944 -0.013107062 -0.008842137 -0.004113515 -0.008720958 -0.047252055 -0.03717279
-0.023930311 -0.023180218 0.037840236 0.0033114946 0.02255804 0.024558447 0.05651203 -0.010437975
0.015350925 -0.056467105 0.0348569 -0.033320274 -0.050728288 0.034277912 0.050929006 -0.031828642
0.010328168 0.05134724 0.026603123 -0.04526056 -0.0061395075 0.0017013415 0.0005417783 0.054615803
00000000: 4c10 17bd 996e 16bd d68a df3c a38a d0bc
00000010: 5c70 ecbc 6f8d 00bd b06f 69bd 8874 61bd
00000020: e4f1 ac3c 29fc 483d 7cd1 6d3d c563 5dbd
00000030: 093a 12bd a2ca 41bd e1ee 8c3c 9544 a43b
00000040: 6c4b 6d3d e854 9fbc 9412 063d 5b35 553d
00000050: 7f25 34bd 7b9f 693d 0d94 ac3c e1ff edbc
00000060: e635 5e3d 80a7 0c3c ae6f 903c 1fb7 203b
00000070: 1eb7 433d 4ef1 193d f24e 90bc 2ab4 873c
00000080: f0bf 043d 9edd 363d 01bf 56bc 9cde 10bc
00000090: aaca 86bb 59e2 0ebc 5f8b 41bd 7f42 18bd
000000a0: 8009 c4bc 71e4 bdbc 5dfe 1a3d a905 593b
000000b0: a4cb b83c cc2e c93c 2979 673d 0a04 2bbc
000000c0: 7282 7b3c 0d4a 67bd 1cc6 0e3d d77a 08bd
000000d0: 77c8 4fbd ff66 0c3d ef9a 503d c05e 02bd
000000e0: 7a37 293c 7c51 523d cbee d93c 2363 39bd
000000f0: ec2d c9bb 8cff de3a 2006 0e3a d2b4 5f3d

encoder.7.weight f4 [64]
0.9919316 0.952685 0.99848783 0.988664 0.99309397 1.0085803 1.0239005 1.0563523
0.99462956 1.0002457 1.0170199 0.9995676 1.010386 0.9970966 0.98597085 1.0118033
0.99602216 1.0045357 0.996035 0.99805504 0.98580307 1.0050455 0.9991976 1.0232254
1.0097159 0.9821839 0.9864327 0.99119115 0.9958504 1.0340436 0.9847867 1.0439818
1.017302 1.0458713 0.99476004 0.97441554 1.0007262 0.98075825 1.0097667 0.9632064
1.0224395 1.0091108 0.97052294 1.0086582 0.9904584 1.0078982 1.0061996 1.001014
1.0155569 0.98703074 0.9860068 1.0152475 1.024254 1.0063998 0.9994514 0.95883083
1.0143275 0.9996247 1.0321925 1.0094631 1.0092657 0.9922409 0.99530256 1.0106276
00000000: 3bef 7d3f 2ae3 733f e69c 7f3f 1519 7d3f
00000010: 683b 7e3f 2919 813f 2c0f 833f 8d36 873f
00000020: 0ba0 7e3f 0d08 803f b52d 823f aae3 7f3f
00000030: 5454 813f b941 7f3f 9668 7c3f c582 813f
00000040: 4ffb 7e3f a094 803f 26fc 7e3f 8980 7f3f
00000050: 975d 7c3f 55a5 803f 6acb 7f3f 0df9 823f
00000060: 5f3e 813f 6770 7b3f da86 7c3f b4be 7d3f
00000070: 0df0 7e3f 8a5b 843f fb1a 7c3f 32a1 853f
00000080: f436 823f 1cdf 853f 98a8 7e3f 4c73 793f
00000090: cc17 803f f912 7b3f 0940 813f b294 763f
000000a0: 4cdf 823f 8b2a 813f 3174 783f b61b 813f
000000b0: af8e 7d3f cf02 813f 26cb 803f 3a21 803f
000000c0: c5fd 813f 0cae 7c3f f16a 7c3f a1f3 813f
000000d0: c11a 833f b5d1 803f 0cdc 7f3f f075 753f
000000e0: 7cd5 813f 68e7 7f3f e21e 843f 1636 813f
000000f0: 9e2f 813f 8003 7e3f 26cc 7e3f 3f5c 813f

encoder.7.bias f4 [64]
0.044303857 0.05800861 0.00025031817 0.00818056 0.005920482 0.031944834 0.037846524 0.10652768
0.018591166 0.056608364 0.01981564 0.0506099 0.021545146 0.016345698 0.03934715 0.020760875
0.06489719 0.018346757 0.023906166 0.0085049365 0.011186889 0.013234568 0.04710027 0.037575137
0.0062686987 0.015284535 0.0040622647 0.012179983 0.024988431 0.041316442 0.032708038 0.13417509
0.0066680457 0.060858257 0.010722858 0.07762632 0.022754947 0.049500823 0.025434863 0.06922672
0.03843754 0.029033212 0.003143371 0.038069446 -0.0015028212 0.040482454 0.025283014 0.04202143
0.014112651 0.018830959 -0.008655139 0.09277177 0.011793499 0.0075471443 0.015589261 0.07172028
0.029606264 0.0008475824 0.028282648 0.042071898 0.13183825 0.01936488 0.06509228 0.017923225
00000000: f677 353d 709a 6d3d 233d 8339 c107 063c
00000010: 9a00 c23b 96d8 023d f504 1b3d 2f2b da3d
00000020: 804c 983c 2cde 673d 6954 a23c 544c 4f3d
00000030: 727f b03c 6ae7 853c 7a2a 213d b612 aa3c
00000040: d1e8 843d f04b 963c ddd6 c33c 4a58 0b3c
00000050: 3749 373c cdd5 583c 36ec 403d 63e8 193d
00000060: a869 cd3b fc6b 7a3c bf1c 853b 8d8e 473c
00000070: 8ab4 cc3c 6e3b 293d ddf8 053d 3265 093e
00000080: 9f7f da3b 8246 793d edae 2f3c 8cfa 9e3d
00000090: 9568 ba3c 60c1 4a3d c65c d03c bdc6 8d3d
000000a0: af70 1d3d 0fd7 ed3c 0401 4e3b b5ee 1b3d
000000b0: 50fa c4ba eed0 253d 531e cf3c aa1e 2c3d
000000c0: c038 673c 6243 9a3c 49ce 0dbc 20ff bd3d
000000d0: 8539 413c 094e f73b 1a6a 7f3c 15e2 923d
000000e0: d688 f23c 4b30 5e3a 03b1 e73c 9553 2c3d
000000f0: 9b00 073e 19a3 9e3c 1a4f 853d bad3 923c

encoder.7.running_mean f4 [64]
-0.49821576 -0.07445011 0.27588797 -0.005612784 -0.33104202 -0.14082608 -0.5587493 0.19976732
0.07385196 -0.16793452 -0.19441083 0.054176167 0.12228396 0.4119504 -0.09190391 -0.3589637
0.123463765 -0.35412505 -0.07357934 -0.65464634 -0.45497978 -0.08232852 -0.3286048 -0.049607676
0.07229595 0.41979367 -0.039350115 -0.1598579 -0.2827134 -0.3782662 0.11573827 -0.0543859
-0.06759582 -0.19357708 -0.22678183 -0.2392906 -0.073805995 0.18466978 -0.36626965 -0.23576891
-0.3941253 0.5924207 0.037354007 0.3811192 -0.60361606 -0.28041494 -0.5903817 0.12261165
-0.45763856 -0.15090896 -0.21206892 0.05532178 0.09856185 0.30032548 0.028971303 -0.2859236
-0.08248237 0.20545018 -0.6069231 -0.45305556 -0.4788416 -0.08165293 0.37471902 -0.50595766
00000000: 2316 ffbe 4d79 98bd 3041 8d3e 72eb b7bb
00000010: 577e a9be b634 10be 320a 0fbf ce8f 4c3e
00000020: b23f 973d 07f7 2bbe a213 47be d4e7 5d3d
00000030: 0370 fa3d 2aeb d23e 1e38 bcbd 17ca b7be
00000040: 92da fc3d e14f b5be c4b0 96bd e796 27bf
00000050: 1cf3 e8be db9b a8bd e33e a8be 6b31 4bbd
00000060: e60f 943d 32ef d63e 962d 21bd cab1 23be
00000070: d0bf 90be 1bac c1be 3008 ed3d c0c3 5ebd
00000080: ad6f 8abd 1239 46be 7f39 68be 9808 75be
00000090: 9927 97bd 131a 3d3e b287 bbbe 686d 71be
000000a0: cbca c9be e2a8 173f 8400 193d 0e22 c33e
000000b0: 9586 1abf 8c92 8fbe 4123 17bf d11b fb3d
000000c0: 9a4f eabe e187 1abe 9828 59be 1799 623d
000000d0: ccda c93d 43c4 993e 3a55 ed3c 9464 92be
000000e0: 84ec a8bd 8861 523e 505f 1bbf e6f6 e7be
000000f0: ba2a f5be a739 a7bd 2cdb bf3e 7186 01bf

encoder.7.running_var f4 [64]
0.43156278 0.43306318 0.9090879 0.28937942 0.37816206 0.7181016 0.418732 0.35827947
0.6085793 0.33308816 0.6771178 0.61317426 0.41870025 0.75672156 0.35825762 0.68430555
0.20334171 0.37035996 0.43363366 0.6401871 1.3377156 1.4208041 0.51375777 0.3829565
0.65933996 0.17469785 0.46578264 0.37909782 0.30520892 0.56942 0.26353705 0.46344852
0.9478421 0.29168525 0.3992387 0.3107597 0.86764556 0.20762129 0.4171563 0.32442075
0.3865377 0.55974126 0.22493146 0.43456322 1.0590354 0.45459214 0.7892355 0.75433064
1.3170394 0.27693835 0.81395197 0.4220706 0.52271223 0.42368743 0.57435095 0.17253873
0.3866588 1.5390887 0.69098747 0.4637002 0.17442442 0.9610124 0.30960664 0.55803317
00000000: ccf5 dc3e 75ba dd3e fcb9 683f 8a29 943e
00000010: 759e c13e 82d5 373f 0a64 d63e 6870 b73e
00000020: dacb 1b3f 888a aa3e 9857 2d3f fdf8 1c3f
00000030: e15f d63e 81b8 413f 8b6d b73e a62e 2f3f
00000040: cf38 503e d29f bd3e 3b05 de3e 4de3 233f
00000050: 443a ab3f e9dc b53f a185 033f e012 c43e
00000060: 81ca 283f fee3 323e 107b ee3e 1c19 c23e
00000070: 5844 9c3e 82c5 113f 54ee 863e 2049 ed3e
00000080: c8a5 723f c557 953e 0469 cc3e e51b 9f3e
00000090: 051e 5e3f ad9a 543e 8395 d53e 7a1a a63e
000000a0: 45e8 c53e 344b 0f3f 6f54 663e 127f de3e
000000b0: 798e 873f 4dc0 e83e 560b 4a3f d01b 413f
000000c0: bf94 a83f ddca 8d3e 285f 503f a319 d83e
000000d0: 78d0 053f 8fed d83e aa08 133f fead 303e
000000e0: 24f8 c53e dc00 c53f 8ee4 303f 1d6a ed3e
000000f0: 519c 323e e904 763f c384 9e3e 43db 0e3f

decoder.0.weight f4 [64, 32, 3, 3]
0.027779074 -0.055893324 0.061024588 -0.008159702 0.033631522 -0.0109520545 -0.04034893 -0.013649159
-0.029426271 -0.069885135 -0.03543639 -0.0008818231 -0.048723493 -0.049046945 -0.013920261 0.023119796
-0.027554737 0.0243419 0.0465708 -0.04478857 -0.017057668 -0.017573906 0.01269803 0.030453337
0.022124639 -0.068547666 0.012874781 0.016588746 0.029052857 -0.011428362 -0.010423458 -0.0010908557
0.042604968 -0.013008986 -0.11319326 0.022324799 -0.034610983 -0.035867114 -0.035375684 0.03483827
0.0016714945 0.015483248 -0.06632865 -0.0015709485 -0.006362895 0.020045854 0.034948707 0.031077107
0.031875003 0.02260336 -0.039801773 0.0077141104 -0.026292235 -0.010327542 -0.02349818 0.007329417
-0.029200613 0.0073540364 0.019251449 0.022163335 -0.005599278 -0.05334799 0.036680754 -0.05120686
0.014912876 0.056673724 0.025453039 -0.0038401496 0.0032001238 0.0009160556 0.05464976 0.032581322
0.01303327 0.02542183 -0.026903585 0.022577478 0.07679696 0.020996727 0.023218293 0.07212843
-0.041274432 -0.006889705 -0.009898336 -0.018199513 0.06761331 -0.042896066 -0.023536284 0.013929425
-0.05038691 -0.03255026 -0.03745766 -0.030661527 -0.016284717 -0.028181331 0.056800213 -0.039686806
0.018312383 -0.0006939444 0.014539595 -0.049318127 0.04140883 -0.036422886 0.07213432 0.04755443
-0.0020272946 -0.012727512 0.12700643 0.02524944 0.049418055 0.017425628 -0.03760691 -0.07072471
-0.034629162 -0.017883556 0.025403896 -0.06322235 -0.045017783 0.014239418 0.007869975 0.038333472
-0.079053424 0.027069636 0.029144287 -0.017273119 0.0208024 -0.014908703 -0.019153066 0.020895341
0.055293206 0.059392333 0.085578606 -0.048458267 0.0059393053 -0.013972531 0.017804243 -0.04689808
0.028031766 0.0151256565 0.024325864 -0.06769453 0.051693086 0.0143010225 -0.013417566 -0.012986379
0.0047816723 -0.042543076 0.032519475 0.06937135 0.07702437 0.059354573 -0.070699364 -0.04850498
0.010213935 0.030360028 -0.051977467 -0.040127724 0.06411732 0.007726143 0.029958893 0.006616933
-0.0037591765 -0.014789154 -0.03964769 0.0028150831 -0.0072031505 0.037409216 0.035087142 0.03444704
-0.02292666 -0.030869227 0.042699657 0.004016545 -0.0049370774 -0.0076447986 -0.035722286 -0.0060931323
0.025989344 0.02021521 -0.038859297 0.0043518543 -0.02145524 -0.044818528 0.038719933 -0.076050855
0.014381242 0.07401373 0.008383556 -0.07181919 -0.025888178 -0.05987974 -0.04591107 -0.035647362
-0.00642491 0.06743176 0.036786526 0.0064537553 0.00062896946 0.029347586 -0.042524625 0.01015605
0.004320891 0.012056069 0.042793892 0.0012621235 -0.02346931 -0.012424038 0.03368818 -0.014547569
-0.045048714 0.0071079796 -0.016695485 0.025229275 0.011806603 0.03508712 0.01622795 0.018181251
-0.084977984 -0.03565238 0.022260627 -0.04331664 -0.021330217 0.043970753 -0.049362674 -0.023807025
0.020008067 0.024952576 -0.025251217 0.022285448 0.038439333 -0.05304612 0.03350789 0.012615791
-0.069315374 -0.029655607 -0.0863998 -0.026444567 -0.024679087 0.041787967 -0.011639851 0.02419428
0.06004949 -0.001235343 0.029054333 -0.003535417 -0.07235953 0.043641068 0.025194502 0.057997122
0.07818098 0.003614071 -0.058901742 -0.017725606 -0.06205356 0.04651782 -0.055967987 -0.009815006
00000000: f190 e33c 66f0 64bd ebf4 793d 45b0 05bc
00000010: 35c1 093d 3f70 33bc eb44 25bd b9a0 5fbc
00000020: 5d0f f1bc f01f 8fbd c025 11bd 262a 67ba
00000030: 4992 47bd 73e5 48bd ce11 64bc ba65 bd3c
00000040: 79ba e1bc aa68 c73c 06c1 3e3d 3874 37bd
00000050: 86bc 8bbc 27f7 8fbc 660b 503c 4779 f93c
00000060: bb3e b53c b862 8cbd bff0 523c 1fe5 873c
00000070: 4200 ee3c 063e 3bbc 27c7 2abc 0bfb 8eba
00000080: 8c82 2e3d a423 55bc ded1 e7bd 7fe2 b63c
00000090: 3fc4 0dbd 65e9 12bd 18e6 10bd 93b2 0e3d
000000a0: 0c16 db3a 73ad 7d3c 51d7 87bd 49e8 cdba
000000b0: d57f d0bb 3437 a43c 6026 0f3d 6b95 fe3c
000000c0: 5d8f 023d ae2a b93c 2f07 23bd a6c6 fc3b
000000d0: d062 d7bc da34 29bc 417f c0bc 9b2b f03b
000000e0: 2036 efbc 21fa f03b 37b5 9d3c e28f b53c
000000f0: 267a b7bb 6c83 5abd 8f3e 163d 49be 51bd
00000100: 2355 743c b522 683d e482 d03c 05ab 7bbb
00000110: 2bb9 513b 7323 703a 6dd8 5f3d fe73 053d
00000120: 7f89 553c 7141 d03c e864 dcbc 67f4 b83c
00000130: b947 9d3d 5401 ac3c 4a34 be3c 12b8 933d
00000140: 610f 29bd 09c3 e1bb a12c 22bc 2517 95bc
00000150: d978 8a3d c9b3 2fbd 2acf c0bc 3e38 643c
00000160: 8162 4ebd 6c53 05bd 346d 19bd e22d fbbc
00000170: 8767 85bc 89dc e6bc 57a7 683d a28e 22bd
00000180: da03 963c d2e9 35ba 7b37 6e3c ce01 4abd
00000190: 4e9c 293d 2a30 15bd 29bb 933d 6fc8 423d
000001a0: 5cdc 04bb 0e87 50bc f90d 023e ead7 ce3c
000001b0: 966a 4a3d 31c0 8e3c b409 1abd 1ed8 90bd
000001c0: 4fd7 0dbd 8980 92bc d51b d03c b87a 81bd
000001d0: 9164 38bd 734c 693c 11f1 003c 8f03 1d3d
000001e0: c3e6 a1bd 24c1 dd3c 00c0 ee3c 5b80 8dbc
000001f0: cb69 aa3c a243 74bc e4e6 9cbc b52c ab3c
00000200: 217b 623d 6045 733d d643 af3d 2d7c 46bd
00000210: 819e c23b 0bed 64bc 34da 913c 3318 40bd
00000220: e0a2 e53c 9ad1 773c 0947 c73c 6ea3 8abd
00000230: 21bc 533d d64e 6a3c 5ad5 5bbc d2c4 54bc
00000240: 93af 9c3b a641 2ebd 2433 053d 9112 8e3d
00000250: f4be 9d3d c81d 733d d4ca 90bd 28ad 46bd
00000260: 5958 273c 98b5 f83c 53e6 54bd f85c 24bd
00000270: f14f 833d 962b fd3b 5a6c f53c dbd2 d83b
00000280: 845c 76bb 354e 72bc 9e65 22bd 427d 383b
00000290: 6808 ecbb 683a 193d 89b7 0f3d 5718 0d3d
000002a0: b1d0 bbbc 76e1 fcbc d6e5 2e3d 399d 833b
000002b0: 35c7 a1bb 3881 fabb 8851 12bd e6a8 c7bb
000002c0: 9be7 d43c 5e9a a53c ed2a 1fbd 009a 8e3b
000002d0: e6c2 afbc a293 37bd cb98 1e3d 8dc0 9bbd
000002e0: 4d9f 6b3c 8394 973d 2f5b 093c f115 93bd
000002f0: 7213 d4bc 7544 75bd 3f0d 3cbd f802 12bd
00000300: 0d88 d2bb aa19 8a3d 78ad 163d 067a d33b
00000310: 6de1 243a 596a f03c 4d2e 2ebd 9065 263c
00000320: 4396 8d3b d286 453c a648 2f3d d66d a53a
00000330: b642 c0bc 318e 4bbc 9efc 093d ed58 6ebc
00000340: 0085 38bd 0eea e83b f8c4 88bc a0ad ce3c
00000350: 7b70 413c 83b7 0f3d 7af0 843c d9f0 943c
00000360: f008 aebd 3b08 12bd eb5b b63c ca6c 31bd
00000370: b5bc aebc ad1a 343d 8430 4abd f306 c3bc
00000380: f5e7 a33c 5869 cc3c a4db cebc f98f b63c
00000390: 9072 1d3d e346 59bd 923f 093d 76b2 4e3c
000003a0: 38f5 8dbd 51f0 f2bc 61f2 b0bd 47a2 d8bc
000003b0: cc2b cabc dc29 2b3d 13b5 3ebc 1533 c63c
000003c0: 74f6 753d 3ceb a1ba 5a03 ee3c 74b2 67bb
000003d0: 3c31 94bd fac0 323d b364 ce3c 648e 6d3d
000003e0: 5a1d a03d 0dda 6c3b f442 71bd 4a35 91bc
000003f0: e02b 7ebd 7889 3e3d b03e 65bd 1ecf 20bc

decoder.0.bias f4 [32]
0.021705734 -0.006929904 0.05124926 0.025347114 -0.011810405 -0.055187263 -0.031713776 0.03221103
0.030280354 0.00332167 0.058198467 -0.053897418 -0.050492387 -0.04939404 -0.025997808 0.057847142
0.0069854185 -0.035890695 -0.0089887455 -0.026229825 0.022050468 -0.05717446 -0.0045382148 -0.040651023
0.031975236 0.021090113 0.047582697 -0.0013112844 -0.009807654 0.018291317 -0.043614924 -0.03748321
00000000: 39d0 b13c 4014 e3bb beea 513d c0a4 cf3c
00000010: 6e80 41bc 0a0c 62bd 4ee6 01bd b7ef 033d
00000020: 810e f83c 60b0 593b 8461 6e3d 8ac3 5cbd
00000030: 1bd1 4ebd 6851 4abd 5bf9 d4bc 20f1 6c3d
00000040: f0e5 e43b 1f02 13bd 8845 13bc eedf d6bc
00000050: 2fa3 b43c c42f 6abd 4eb5 94bb b081 26bd
00000060: 77f8 023d 2cc5 ac3c 13e6 423d 67df abba
00000070: 48b0 20bc acd7 953c 90a5 32bd ff87 19bd

decoder.1.weight f4 [32]
0.951741 0.9970157 0.9998857 0.9748078 1.0164807 1.0077829 0.99202 1.0356196
0.9466502 0.97175455 0.9751694 0.9973212 0.99208826 1.0084981 0.98145616 0.9549042
1.0335859 0.9881872 1.0203638 1.0373349 1.0391896 0.9922258 0.9890316 0.98897284
1.0181991 0.9722576 0.9711993 0.9527774 1.036076 1.005711 1.0627851 0.9908767
00000000: 4ca5 733f 6c3c 7f3f 82f8 7f3f 018d 793f
00000010: 0a1c 823f 08ff 803f 06f5 7d3f 2f8f 843f
00000020: ab57 723f e8c4 783f b4a4 793f 7150 7f3f
00000030: 7ff9 7d3f 7716 813f b640 7b3f 9a74 743f
00000040: 8b4c 843f d6f9 7c3f 489b 823f 64c7 843f
00000050: 2a04 853f 8302 7e3f 2d31 7d3f 532d 7d3f
00000060: 5954 823f e0e5 783f 84a0 783f 38e9 733f
00000070: 239e 843f 23bb 803f 5809 883f 18aa 7d3f

decoder.1.bias f4 [32]
-0.052561566 0.042914156 0.03701864 0.0061513386 -0.046182655 0.019413205 0.014016099 0.055339262
-0.00054466876 -0.004497739 0.0037906503 0.047037594 0.001687133 0.039713956 0.0075872918 -0.00986328
0.056973543 0.043945234 0.0421263 0.052041467 0.0824116 -0.074208185 0.015373963 0.010569006
0.02468779 -0.024847396 -0.008191522 -0.030222753 0.056806512 0.021866893 0.07042236 0.025615929
00000000: cc4a 57bd c1c6 2f3d dca0 173d 2b91 c93b
00000010: 062a 3dbd 7108 9f3c c8a3 653c 6cab 623d
00000020: 1ac8 0eba c561 93bb 8f6c 783b 7eaa 403d
00000030: ca22 dd3a 1aab 223d d19e f83b 9899 21bc
00000040: 175d 693d ebff 333d a18c 2c3d 6f29 553d
00000050: 6ac7 a83d 76fa 97bd 13e3 7b3c a029 2d3c
00000060: 0c3e ca3c c48c cbbc bc35 06bc b595 f7bc
00000070: f2ad 683d 3322 b33c 9939 903d 7fd8 d13c

decoder.1.running_mean f4 [32]
-0.41860005 -0.3658702 -0.26313713 -0.33569017 0.3282273 -0.10137191 -0.20460759 0.018946353
-0.30143198 -0.063361354 -0.31726438 -0.40212306 -0.0906087 0.079325765 -0.23048492 -0.24643819
-0.094794504 -0.21699086 0.021443954 -0.109702826 -0.2172017 0.032030087 -0.17070666 -0.073577166
-0.06341928 0.12767775 -0.05497101 0.23998106 -0.29580218 -0.23237346 -0.13808882 -0.26705876
00000000: bf52 d6be 5753 bbbe e9b9 86be 95df abbe
00000010: 690d a83e 139c cfbd a784 51be 6235 9b3c
00000020: 4b55 9abe 99c3 81bd 7a70 a2be 13e3 cdbe
00000030: 0e91 b9bd 8c75 a23d 3d04 6cbe 4b5a 7cbe
00000040: 9f23 c2bd da32 5ebe 3bab af3c e0ab e0bd
00000050: 1f6a 5ebe fb31 033d bacd 2ebe a0af 96bd
00000060: f8e1 81bd f5bd 023e 4829 61bd 98bd 753e
00000070: 6273 97be 4ff3 6dbe 2867 0dbe edbb 88be

decoder.1.running_var f4 [32]
0.5043488 0.30121166 0.52707577 0.34385803 0.09859763 0.1839625 0.24608408 0.24385548
0.26360494 0.1956616 0.63662785 0.33208773 0.43304005 0.152217 0.40357614 0.4089371
0.33169562 0.38180214 0.27567676 0.09206203 0.12461902 0.08930352 0.37898514 0.12605074
0.4456883 0.72298056 0.43849635 0.19988255 0.38300687 0.4156691 0.06699797 0.22390954
00000000: 011d 013f 6a38 9a3e 70ee 063f 290e b03e
00000010: 8eed c93d aa60 3c3e 77fd 7b3e 40b5 793e
00000020: 3af7 863e 845b 483e 0bfa 223f 6707 aa3e
00000030: 6db7 dd3e c6de 1b3e 88a1 ce3e 3460 d13e
00000040: 02d4 a93e 927b c33e 8125 8d3e 058b bc3d
00000050: 4238 ff3d c4e4 b63d 570a c23e 7213 013e
00000060: 4231 e43e 4115 393f 9882 e03e 03ae 4c3e
00000070: 7a19 c43e 95d2 d43e 3b36 893d 8b48 653e

decoder.3.weight f4 [32, 16, 3, 3]
0.019185416 0.03369721 -0.007639454 -0.07118701 0.0022178178 0.03215 0.011650832 -0.03380248
-0.005961699 -0.050484087 -0.06996232 0.043924827 -0.047954656 -0.02902422 -0.017787741 -0.016352667
0.052231863 0.099774145 0.039872546 0.0074788486 0.0130301565 0.048333064 0.056965433 0.007519405
0.05703393 -0.047261145 0.01978279 -0.052765857 -0.0056509837 -0.051663227 0.013319932 0.02340904
0.041453995 -0.020229261 0.0110659 -0.06829009 -0.028705107 -0.0224939 -0.04946521 -0.047009204
-0.05618046 -0.009234283 0.02145572 0.016645467 0.09410448 -0.10192857 0.007338915 -0.05939968
-0.050334327 -0.005030246 -0.025134081 -0.086947136 0.009098195 0.05674319 -0.029758107 -0.04329707
-0.011357457 0.09439717 -0.05549933 0.07318819 0.033211265 -0.008365388 -0.04081662 -0.029428829
-0.041709993 -0.025926093 -0.019041276 0.102824084 -0.042319626 0.049484152 -0.014731798 0.02809593
0.0028835807 0.028979672 -0.017599912 -0.0361959 0.045960914 -0.009591454 -0.0155446315 -0.009381872
0.054671172 0.045413673 -0.09662277 -0.036190186 0.08451275 0.040622648 0.00407621 0.038720023
-0.013375308 -0.07449027 -0.088106774 -0.004000928 0.10662069 -0.04517282 -0.02095662 -0.10887082
0.027433828 0.051390797 -0.0042769397 0.06551841 -0.018187663 -0.011784396 -0.06368389 -0.020325199
0.0050084186 -0.020880975 0.07718425 -0.030338554 -0.029302943 -0.055097945 -0.054175347 -0.021262094
-0.026299344 -0.061842456 -0.07590339 0.029826382 0.053588472 -0.07971868 -0.06399195 0.028759278
-0.023883851 -0.008890966 0.09521425 0.04129534 -0.0884735 -0.05262889 0.04226291 -0.08980617
0.0076941247 0.05247216 0.018300844 0.056314282 0.03465877 -0.05817136 -0.033011854 -0.05229061
0.019529816 0.017395088 -0.002259558 -0.004372771 0.08948639 -0.016689086 -0.04522858 -0.011885471
0.018467383 -0.05514777 -0.009054721 -0.051632635 -0.052753456 -0.006780093 0.05527265 -0.018592346
-0.076562226 0.011513937 0.055036288 0.04310215 -0.0679721 -0.04937323 0.048189178 -0.032227844
0.029235093 0.057669356 -0.007249291 0.081060186 0.10140386 -0.070974015 -0.03580809 0.1159656
-0.018417027 0.024395011 0.088992774 0.019842815 -0.09157055 0.0014488557 0.028361378 -0.032482617
-0.03927363 -0.07797336 -0.051658355 -0.082382314 -0.028243713 -0.024262546 -0.0490537 -0.0036471486
-0.033367574 0.036672775 0.039807867 0.0141557185 -0.021123644 0.073459536 -0.08097502 0.024423601
-0.032422967 -0.0081136655 -0.061714556 -0.03685708 -0.032141153 0.03267389 -0.027916541 -0.042643316
-0.02523196 0.025629036 0.10077769 0.032810006 -0.009048661 0.081855215 0.0060253646 0.019801462
0.052903965 0.040728357 0.057764944 0.057905253 -0.0035975615 -0.053191435 0.14996168 0.04707727
-0.010091687 -0.010545127 0.05275239 0.0027950644 0.029595973 0.07396757 0.025390519 -0.021371104
-0.005770824 -0.030113379 0.013512223 -0.0100556165 -0.096030615 0.08994522 -0.010650323 0.053244986
0.10117907 0.106062874 0.052088074 -0.069886185 -0.04525009 -0.1029759 -0.048328314 0.010083415
-0.03673123 0.014789378 -0.010938226 0.047899418 0.04937145 0.111141734 -0.03558816 0.102548465
0.04224926 -0.0073425453 -0.044197697 0.06584508 0.051830504 0.0012028845 -0.07514446 0.03030885
00000000: bc2a 9d3c 1606 0a3d 6354 fabb 7fca 91bd
00000010: cf58 113b b8af 033d 22e3 3e3c 7874 0abd
00000020: 5b5a c3bb 67c8 4ebd 6848 8fbd 85ea 333d
00000030: 1a6c 44bd 33c4 edbc 99b7 91bc 07f6 85bc
00000040: 14f1 553d 6356 cc3d 6551 233d 2111 f53b
00000050: 707c 553c e4f8 453d 9654 693d 5765 f63b
00000060: 699c 693d e794 41bd 850f a23c 0321 58bd
00000070: e32b b9bb d29c 53bd d83b 5a3c 51c4 bf3c
00000080: aacb 293d d6b7 a5bc c04d 353c addb 8bbd
00000090: f926 ebbc 2145 b8bc 089c 4abd b98c 40bd
000000a0: 7b1d 66bd 644b 17bc e8c3 af3c 135c 883c
000000b0: dab9 c03d edbf d0bd 487b f03b 144d 73bd
000000c0: 5e2b 4ebd c3d4 a4bb fde5 cdbc 5711 b2bd
000000d0: 9810 153c 8c6b 683d 46c7 f3bc 4558 31bd
000000e0: a114 3abc 4e53 c13d 4453 63bd b1e3 953d
000000f0: 8908 083d fb0e 09bc 542f 27bd ba14 f1bc
00000100: 19d8 2abd f562 d4bc 73fc 9bbc 6f95 d23d
00000110: 5857 2dbd e5af 4a3d a45d 71bc 7029 e63c
00000120: 75fa 3c3b c766 ed3c b12d 90bc 2742 14bd
00000130: 8341 3c3d 7925 1dbc e9ae 7ebc 6cb6 19bc
00000140: e1ee 5f3d b003 3a3d 29e2 c5bd 293c 14bd
00000150: 0515 ad3d ef63 263d ba91 853b e398 1e3d
00000160: 1c24 5bbc 5b8e 98bd 5371 b4bd 371a 83bb
00000170: f35b da3d 2307 39bd 38ad abbc aaf7 debd
00000180: e8bc e03c 287f 523d 9225 8cbb 842e 863d
00000190: 4bfe 94bc 5713 41bc b36c 82bd 0881 a6bc
000001a0: a91d a43b 940e abbc c712 9e3d 8f88 f8bc
000001b0: ba0c f0bc 62ae 61bd f8e6 5dbd d82d aebc
000001c0: b971 d7bc 844e 7dbd 3d73 9bbd 7556 f43c
000001d0: 967f 5b3d 8c43 a3bd 360e 83bd 9498 eb3c
000001e0: 11a8 c3bc 6aab 11bc b0ff c23d 4d25 293d
000001f0: 9831 b5bd 6491 57bd e01b 2d3d 4cec b7bd
00000200: ff1e fc3b 0ced 563d a7eb 953c cea9 663d
00000210: 5bf6 0d3d 1845 6ebd 7037 07bd ae2e 56bd
00000220: fefc 9f3c 2580 8e3c 1815 14bb 7649 8fbb
00000230: a444 b73d 8db7 88bc 9a41 39bd 47bb 42bc
00000240: e948 973c a1e2 61bd 415a 14bc be7c 53bd
00000250: 0214 58bd 8b2b debb 9365 623d fa4e 98bc
00000260: a8cc 9cbd f4a4 3c3c bb6d 613d e18b 303d
00000270: f534 8bbd 963b 4abd 0462 453d 5801 04bd
00000280: 6f7e ef3c b436 6c3d 768b edbb e202 a63d
00000290: d4ac cf3d d35a 91bd 81ab 12bd 5f7f ed3d
000002a0: 4edf 96bc 0cd8 c73c d841 b63d 668d a23c
000002b0: 5789 bbbd 88e7 bd3a 1f56 e83c 7e0c 05bd
000002c0: 63dd 20bd 7fb0 9fbd b697 53bd 0fb8 a8bd
000002d0: 5c5f e7bc 3fc2 c6bc 88ec 48bd 0005 6fbb
000002e0: 70ac 08bd 3136 163d 930d 233d 63ed 673c
000002f0: 7e0b adbc f471 963d 3bd6 a5bd 0114 c83c
00000300: f2cd 04bd 2eef 04bc 67c8 7cbd 73f7 16bd
00000310: 71a6 03bd 0fd5 053d 3bb1 e4bc c2aa 2ebd
00000320: 41b3 cebc fcf3 d13c 8964 ce3d c963 063d
00000330: d640 14bc b5a3 a73d 6c70 c53b ad36 a23c
00000340: d4b1 583d c7d2 263d ef9a 6c3d 0f2e 6d3d
00000350: 11c5 6bbb 43df 59bd 8e8f 193e 18d4 403d
00000360: 9a57 25bc 78c5 2cbc e412 583d 662d 373b
00000370: 4173 f23c 4f7c 973d c7ff cf3c 7412 afbc
00000380: 2e19 bdbb 55b0 f6bc 5f62 5d3c 50c0 24bc
00000390: b3ab c4bd 3335 b83d b17e 2ebc 6a17 5a3d
000003a0: f936 cf3d 7e37 d93d 4e5a 553d 7d20 8fbd
000003b0: 2958 39bd 07e5 d2bd e9f3 45bd e834 253c
000003c0: 7c73 16bd 264f 723c 3f36 33bc 2e32 443d
000003d0: b839 4a3d 479e e33d e4c4 11bd ee04 d23d
000003e0: 8f0d 2d3d bc99 f0bb a508 35bd c9d9 863d
000003f0: 394c 543d 1baa 9d3a 57e5 99bd 444a f83c

decoder.3.bias f4 [16]
-0.07411035 0.009548969 -0.025083087 -0.057738036 0.05887702 0.005828048 -0.030593617 -0.0060826316
0.051871985 -0.005212282 -0.06990921 0.004645006 -0.011459182 -0.0068113296 -0.07167784 -0.023532748
00000000: 2bc7 97bd 4773 1c3c 0c7b cdbc b87e 6cbd
00000010: 0829 713d 36f9 be3b 779f fabc d050 c7bb
00000020: b877 543d cacb aabb 8f2c 8fbd 2235 983b
00000030: 4bbf 3bbc 9331 dfbb d5cb 92bd c0c7 c0bc

decoder.4.weight f4 [16]
1.1430643 0.9822919 1.0695354 1.1485691 1.1468477 1.0948853 0.9445905 1.05074
1.0578393 1.0670615 1.1512501 0.9547717 1.1264185 1.0464572 0.9902958 1.0598944
00000000: ee4f 923f 7b77 7b3f 89e6 883f 5004 933f
00000010: e8cb 923f 3425 8c3f afd0 713f a67e 863f
00000020: 4767 873f 7995 883f 2a5c 933f eb6b 743f
00000030: 7b2e 903f 4ff2 853f 0784 7d3f 9faa 873f

decoder.4.bias f4 [16]
0.15117764 -0.0022920733 0.055279 0.15313953 0.15702014 0.10323165 -0.006872855 0.026994314
0.036046054 0.04394323 0.17115782 -0.075267985 0.1322186 0.02481193 0.0011767887 0.060094748
00000000: 50ce 1a3e 9c36 16bb 3c6c 623d 9cd0 1c3e
00000010: e3c9 203e 1e6b d33d b035 e1bb 2e23 dd3c
00000020: 07a5 133d d1fd 333d ff43 2f3e 1a26 9abd
00000030: 5064 073e 6342 cb3c 7a3e 9a3a e925 763d
