models/ae_conv_conn9.pth (torch, 203766 bytes, 32 tensors)

encoder.0.weight f4 [16, 3, 3, 3]
0.10117122 0.05445207 0.11640776 0.09018376 -0.060150594 0.111451425 -0.17314087 0.12696949
-0.09059512 -0.12451451 -0.13610363 0.10745822 0.18409567 -0.11505986 -0.12021164 -0.22040254
-0.08639132 -0.030299446 0.0004253824 0.1820705 -0.038068123 -0.09873899 -0.13546698 -0.08661935
-0.12687927 -0.11445394 0.09816814 -0.064929746 0.17028835 0.124633074 -0.14160524 -0.10700671
-0.08282605 0.06409797 -0.0045920624 -0.010667347 0.18914211 -0.17247255 0.19622925 -0.07762371
-0.16035298 0.11804365 -0.12106432 0.16720395 -0.12263177 -0.05924633 0.08912748 0.05177598
0.16850956 -0.09896245 0.052766643 0.11590861 -0.11433714 -0.00219221 0.11682281 -0.12046961
0.044708166 -0.13755326 -0.02247267 -0.022383409 0.08489434 0.05111527 -0.18218002 0.013951371
-0.05681453 -0.16190507 0.062430616 -0.191199 -0.053282935 -0.04386242 0.15366383 0.16326156
0.020542063 0.029846545 -0.16936529 -0.023868613 -0.11228385 0.03852721 -0.17110397 0.0752648
0.15995911 -0.060035657 -0.10614108 -0.014921243 -0.021948734 -0.16355638 -0.01645617 -0.043561403
-0.0070431344 0.09896083 -0.026059654 -0.015686493 -0.075293876 -0.14690112 -0.026712101 -0.15074995
0.009795122 -0.22244906 0.023775723 -0.042988185 0.073548935 0.028262245 0.016166702 -0.06716665
0.14041004 0.09510248 0.06190763 0.110065475 0.058648847 0.13094503 -0.03188306 -0.10999512
0.021901002 -0.07848567 -0.015162569 0.0863712 0.15536098 -0.19848327 -0.1787973 -0.06721988
-0.08508092 0.16171984 0.1658643 0.15002705 -0.18415096 -0.1253788 0.14927286 -0.05332334
-0.09904294 -0.13603689 -0.18486238 0.16479617 0.0040115067 -0.18359289 -0.027055753 -0.017528158
-0.02044101 0.01942185 -0.14919879 0.04765403 -0.060960006 0.090836085 0.019700404 -0.07283969
-0.10639183 0.09146638 -0.18846719 -0.026119228 0.21641491 0.11546005 0.0026458816 0.06457175
0.022101104 0.12054498 0.057408955 0.07610772 0.20821537 -0.012930163 0.14799418 0.004670198
0.03064426 -0.14460272 0.17243133 -0.1516376 0.1633842 -0.121523045 -0.1350178 -0.054949794
0.14155017 0.071309336 -0.16354166 0.037256613 -0.1566342 -0.0702294 0.17217663 -0.059546605
0.023283688 0.12902649 -0.14093865 -0.089873396 -0.10796907 0.12049818 0.031499483 0.004652676
0.18144266 -0.16684511 0.19982193 0.16760953 0.08407387 0.1846565 0.0069138585 0.048867803
-0.055288136 -0.05119383 0.010844906 0.09129419 -0.1478738 -0.040590476 0.024213472 0.21086879
0.14250182 0.18863861 0.1792589 0.0082383035 -0.050621502 0.14335617 0.17304447 0.052461423
-0.08421705 0.076543845 0.1530543 0.018728027 -0.13962537 -0.10652681 -0.1684978 -0.16159467
0.18999083 0.0012382752 -0.17438097 -0.053044643 0.07089795 0.036444783 0.18884164 0.00067781896
0.09828888 0.048956584 -0.0045815166 0.095760174 -0.017659195 -0.15421787 0.032209355 -0.034953743
-0.072373375 0.03648056 -0.14779285 0.07712449 -0.10946377 -0.15263227 -0.248754 -0.15767892
-0.151928 -0.18718062 -0.01489941 0.13609551 -0.08484737 0.17384386 0.17251393 0.04242693
-0.1644949 0.0065460056 -0.09247755 0.015251406 0.15907541 -0.1150773 0.010808352 -0.084931634
00000000: db32 cf3d 2209 5f3d 3167 ee3d 43b2 b83d
00000010: 7860 76bd a540 e43d d74b 31be 4a04 023e
00000020: ef89 b9bd 7701 ffbd c05e 0bbe 0e13 dc3d
00000030: 9383 3c3e 81a4 ebbd 8531 f6bd 34b1 61be
00000040: efed b0bd 8b36 f8bc dc05 df39 b070 3a3e
00000050: 52ed 1bbd ab37 cabd dbb7 0abe 7c65 b1bd
00000060: a4ec 01be d466 eabd 610c c93d e3f9 84bd
00000070: 1260 2e3e a03f ff3d f700 11be 5526 dbbd
00000080: b4a0 a9bd cc45 833d 0379 96bb 19c6 2ebc
00000090: 78ae 413e a59c 30be 52f0 483e 2ef9 9ebd
000000a0: 9233 24be dfc0 f13d 92f0 f7bd 8337 2b3e
000000b0: 5e26 fbbd 48ac 72bd 7888 b63d 0d13 543d
000000c0: c58d 2c3e d3ac cabd d621 583d 7e61 ed3d
000000d0: 9729 eabd 2eab 0fbb cc40 ef3d c5b8 f6bd
000000e0: e91f 373d c3da 0cbe 9b18 b8bc 695d b7bc
000000f0: 15dd ad3d 3f5e 513d 668d 3abe 4b94 643c
00000100: 5ab6 68bd 71ca 25be 3fb7 7f3d acc9 43be
00000110: 353f 5abd 15a9 33bd 0d5a 1d3e 0a2e 273e
00000120: d447 a83c be80 f43c 186e 2dbe 1c88 c3bc
00000130: 13f5 e5bd b5ce 1d3d e135 2fbe 6e24 9a3d
00000140: 52cc 233e f3e7 75bd 7f60 d9bd 3b78 74bc
00000150: d5cd b3bc 537b 27be 17cf 86bc 716d 32bd
00000160: 18ca e6bb faab ca3d 0e7b d5bc f680 80bc
00000170: ad33 9abd 3f6d 16be 56d3 dabc 325e 1abe
00000180: b87b 203c b0c9 63be 4ec5 c23c 6114 30bd
00000190: d3a0 963d 3986 e73c 0870 843c ab8e 89bd
000001a0: a6c7 0f3e 17c5 c23d db92 7d3d 026a e13d
000001b0: c639 703d 7416 063e d097 02bd 1f45 e1bd
000001c0: bb69 b33c 18bd a0bd 6c6c 78bc 62e3 b03d
000001d0: f316 1f3e 333f 4bbe a416 37be 94aa 89bd
000001e0: e83e aebd e399 253e 55d8 293e b1a0 193e
000001f0: 1292 3cbe 4d63 00be fcda 183e 9369 5abd
00000200: 06d7 cabd 414d 0bbe 904c 3dbe 54c0 283e
00000210: f572 833b c6ff 3bbe 07a4 ddbc 3697 8fbc
00000220: e873 a7bc 921a 9f3c 91c7 18be df30 433d
00000230: 33b1 79bd 4508 ba3d be62 a13c fa2c 95bd
00000240: f6e3 d9bd ba52 bb3d 8bfd 40be fef7 d5bc
00000250: df9b 5d3e 5276 ec3d 8766 2d3b 323e 843d
00000260: 600d b53c 49e0 f63d a725 6b3d 5dde 9b3d
00000270: 6936 553e 09d9 53bc c98b 173e 7608 993b
00000280: ac09 fb3c bc12 14be d791 303e e346 1bbe
00000290: 304e 273e 13e1 f8bd 1b42 0abe 0913 61bd
000002a0: 87f2 103e a10a 923d 7777 27be 649a 183d
000002b0: b764 20be 6fd4 8fbd 124f 303e 24e7 73bd
000002c0: 6fbd be3c 851f 043e 3952 10be 8b0f b8bd
000002d0: e31e ddbd c0c7 f63d 9a05 013d 7a75 983b
000002e0: 1bcc 393e 72d9 2abe 1f9e 4c3e d5a1 2b3e
000002f0: ec2e ac3d 9816 3d3e a68d e23b 9b29 483d
00000300: d075 62bd 9fb0 51bd d5ae 313c 73f8 ba3d
00000310: 3b6c 17be 3342 26bd 555b c63c fded 573e
00000320: ffeb 113e 7b2a 413e a58f 373e f3f9 063c
00000330: 7e58 4fbd f6cb 123e 9232 313e cae1 563d
00000340: fd79 acbd 05c3 9c3d 44ba 1c3e 856b 993c
00000350: f4f9 0ebe ba2a dabd b08a 2cbe 1379 25be
00000360: f58c 423e 9f4d a23a ed90 32be 5745 59bd
00000370: f232 913d 2047 153d b45f 413e a9af 313a
00000380: ae4b c93d b386 483d 8c20 96bb e91d c43d
00000390: 04aa 90bc 4aeb 1dbe f5ed 033d a82b 0fbd
000003a0: 7e38 94bd a46c 153d 0257 17be 72f3 9d3d
000003b0: 8b2e e0bd a24b 1cbe 5eb9 7ebe 9576 21be
000003c0: 0393 1bbe 47ac 3fbe a81c 74bc 9f5c 0b3e
000003d0: 75c4 adbd 2004 323e 7ea7 303e dcc7 2d3d
000003e0: 5a71 28be e07f d63b df64 bdbd 08e1 793c
000003f0: aae4 223e a6ad ebbd 8415 313c a3f0 adbd

encoder.0.bias f4 [16]
0.07838511 -0.14243759 0.14306185 0.105686635 0.1673187 0.14568624 0.05366379 -0.09708788
-0.049211897 0.15528683 0.1347187 -0.16794121 -0.17655092 0.1776561 -0.042047415 -0.1496969
00000000: 5f88 a03d 29db 11be ce7e 123e 3c72 d83d
00000010: 9855 2b3e c62e 153e 90ce 5b3d 03d6 c6bd
00000020: 6a92 49bd 8303 1f3e b3f3 093e c8f8 2bbe
00000030: c4c9 34be 7beb 353e e939 2cbd 254a 19be

encoder.1.weight f4 [16]
1.0089308 0.93281555 1.0292472 1.0181504 0.9989299 1.0131578 0.9542925 1.0306509
1.0152954 1.0348345 1.0332345 1.0535991 0.97972673 0.94460833 0.9647736 1.015782
00000000: a524 813f 00cd 6e3f 5fbe 833f c152 823f
00000010: dfb9 7f3f 28af 813f 834c 743f 5eec 833f
00000020: 33f5 813f 7575 843f 0741 843f 56dc 863f
00000030: 5fcf 7a3f dad1 713f 67fb 763f 2505 823f

encoder.1.bias f4 [16]
0.01989592 0.025838284 0.07120019 0.04511672 0.019854538 -0.030472828 -0.005108797 -0.025853524
0.033084042 0.074458905 -0.07897366 0.00759354 0.017185904 0.026692184 0.005051779 0.00046838634
00000000: c5fc a23c cfaa d33c 68d1 913d 4fcc 383d
00000010: fca5 a23c 27a2 f9bc b267 a7bb c5ca d3bc
00000020: 2283 073d e97d 983d f1bc a1bd 3bd3 f83b
00000030: 74c9 8c3c 91a9 da3c 6589 a53b c091 f539

encoder.1.running_mean f4 [16]
-0.19619495 -0.067024834 -0.07078733 -0.15375455 -0.07118917 0.4041708 0.18227923 0.23058903
-0.42288107 -0.004665831 0.2709781 0.05453079 -0.49201146 0.11558312 -0.45277876 0.20882158
00000000: 54e7 48be 5144 89bd f3f8 90bd d571 1dbe
00000010: a1cb 91bd 7aef ce3e 68a7 3a3e 881f 6c3e
00000020: de83 d8be d4e3 98bb a4bd 8a3e ad5b 5f3d
00000030: ede8 fbbe d8b6 ec3d 9ed2 e7be 53d5 553e

encoder.1.running_var f4 [16]
0.031096071 0.0044293236 0.018695042 0.025941335 0.020801455 0.024830287 0.010834877 0.043190654
0.0504209 0.010354986 0.0073812446 0.018785335 0.035509348 0.004155868 0.061905514 0.04599809
00000000: 30bd fe3c dc23 913b 5826 993c ec82 d43c
00000010: d067 aa3c e368 cb3c c584 313c afe8 303d
00000020: 2586 4e3d f6a7 293c 5ede f13b b4e3 993c
00000030: 4072 113d f32d 883b a390 7d3d 7e68 3c3d

encoder.3.weight f4 [32, 16, 3, 3]
-5.359622e-05 -0.053559322 -0.007634645 -0.039102286 -0.094585314 0.06737359 -0.037144653 -0.054388218
0.033897545 -0.04943214 -0.07281396 0.02483005 0.07080452 -0.022193346 0.09289589 0.04661869
0.026158111 -0.044007085 0.014344186 -0.023810428 0.07264487 0.023083081 -0.028998217 0.09291371
-0.0027459615 -0.031601578 0.08571078 0.046565354 -0.11231316 0.0062343166 0.009088124 0.0182351
0.08463694 -0.07986273 -0.025801247 -0.017267577 -0.06374323 0.044777405 0.10024933 0.04335353
-0.029918408 0.098009124 -0.052473478 0.04300359 0.030858941 0.030223433 0.02248613 0.014978709
-4.2254655e-05 0.032312013 -0.08575254 0.003205754 0.0008706662 -0.0015980408 0.00688723 -0.045842946
0.052419543 -0.07513745 0.04504598 -0.043181464 -0.05355519 0.04665094 0.06317521 -0.0005394189
0.016302632 -0.0628019 0.009502056 -0.007924037 -0.085977 0.022880955 -0.08412352 -0.012894934
-0.010049698 0.022317754 0.06526805 -0.04279912 0.02265087 0.03962978 0.018892152 0.025138795
-0.035231505 -0.05506714 0.0026907786 0.060775626 -0.019217754 -0.05924614 0.09127688 0.058693834
-0.06612595 0.10807787 -0.041180078 0.03141019 -0.081424 0.024557786 0.013372276 -0.06178867
-0.07701071 -0.016567789 0.021550817 -0.064826466 -0.04242606 -0.035783768 0.009812694 0.0948741
-0.022914719 -0.055699747 0.08207223 -0.06881933 -0.06706863 0.05826618 -0.021029918 -0.017858854
0.005813072 0.07210922 0.0150585575 0.027809568 -0.058213364 0.0053914073 0.015353202 -0.10375987
0.06011576 -0.03903738 -0.049947754 0.015615447 0.011178596 0.019646108 -0.0060543655 0.02573508
0.030999472 -0.010429825 -0.036855657 0.03802985 0.009178803 -0.060738213 -0.03804536 0.0034094302
0.020858398 0.016759723 -0.060608763 0.015483547 -0.09399955 0.038207762 -0.0690929 -0.017968282
-0.017794402 -0.010167389 -0.0029424941 0.0019946625 -0.050583012 -0.032560617 0.0059559583 -0.08172803
-0.040733714 -0.0059482744 0.012816765 0.03669649 -0.013224688 0.036164254 0.040452965 0.054001987
-0.008663308 0.02315879 -0.023933537 -0.016416468 0.013772545 0.016396152 0.11162711 0.09500095
0.019697843 0.009452041 0.010545165 0.012194529 0.06339872 0.013107065 0.006825838 0.10574313
0.057679653 -0.014957377 -0.004992188 -0.02722518 -0.033244595 0.016464056 0.055843875 -0.044515476
-0.0071948683 0.092766345 0.019257698 0.0021009252 -0.035328295 0.06894667 -0.06898461 -0.037394367
-0.049945213 -0.071806565 -0.06529632 0.028117448 0.0639319 0.033641964 0.008477614 0.061815836
-0.055047713 -0.039268635 -0.044236515 0.03305836 -0.043749 -0.02135753 0.059919227 -0.040006522
0.017683445 -0.0056473715 -0.055392697 0.0037545576 -0.04275872 -0.06354602 0.048110377 0.028998
-0.04164316 -0.09097019 0.004238967 0.041969795 0.05025479 0.025747506 0.04417081 -0.0920121
-0.08681989 -0.07945395 0.08058834 0.03703068 0.01925699 0.096018635 -0.026597591 -0.048182704
-0.09917301 -0.025825229 0.019992175 -0.001212818 -0.041510094 0.049079355 -0.033400543 0.08915756
-0.07140521 0.031909935 0.03543377 -0.037689954 -0.044607915 -0.010276404 -0.056968402 -0.060630593
-0.068876415 -0.0018647359 0.056176167 0.019419586 0.069844924 -0.03218097 -0.06701387 -0.056641214
00000000: 81cc 60b8 0561 5bbd 0b2c fabb b829 20bd
00000010: f2b5 c1bd 2afb 893d fe24 18bd 2ec6 5ebd
00000020: 27d8 0a3d 5b79 4abd 7c1f 95bd 6468 cb3c
00000030: f601 913d d2ce b5bc 3340 be3d 3df3 3e3d
00000040: 8949 d63c c640 34bd e003 6b3c 160e c3bc
00000050: d5c6 943d bb18 bd3c ab8d edbc 8b49 be3d
00000060: 97f5 33bb a870 01bd 2289 af3d 50bb 3e3d
00000070: 7104 e6bd 3d49 cc3b 5be6 143c c761 953c
00000080: 2256 ad3d 128f a3bd 235d d3bc bc74 8dbc
00000090: d08b 82bd 8368 373d 854f cd3d 7993 313d
000000a0: 7317 f5bc 02b9 c83d 6eee 56bd 8824 303d
000000b0: e4cb fc3c 2297 f73c d534 b83c 4269 753c
000000c0: 973a 31b8 9a59 043d 079f afbd a117 523b
000000d0: 6b3d 643a 5a75 d1ba 46ae e13b d0c5 3bbd
000000e0: e0b5 563d aae1 99bd 2282 383d 0cdf 30bd
000000f0: b05c 5bbd 0e15 3f3d 0162 813d ca67 0dba
00000100: 198d 853c 489e 80bd 83ae 1b3c d2d3 01bc
00000110: b614 b0bd d770 bb3c f448 acbd 4645 53bc
00000120: 7da7 24bc b9d3 b63c 41ab 853d 214e 2fbd
00000130: 518e b93c d652 223d b7c3 9a3c e0ef cd3c
00000140: e94e 10bd 158e 61bd c657 303b ddef 783d
00000150: 8d6e 9dbc 15ac 72bd 5fef ba3d f268 703d
00000160: 0b6d 87bd ee57 dd3d 71ac 28bd f9a7 003d
00000170: a0c1 a6bd 692d c93c 6417 5b3c 1e16 7dbd
00000180: cbb7 9dbd 2cb9 87bc 578b b03c bdc3 84bd
00000190: f3c6 2dbd 0092 12bd 6cc5 203c 5a4d c23d
000001a0: a6b7 bbbc 6b25 64bd 7c15 a83d 26f1 8cbd
000001b0: 475b 89bd 85a8 6e3d ef46 acbc bb4c 92bc
000001c0: 957b be3b 00ae 933d 2bb8 763c e4d0 e33c
000001d0: 2371 6ebd 67aa b03b ff8b 7b3c 0e80 d4bd
000001e0: f13b 763d a9e5 1fbd 0496 4cbd efd7 7f3c
000001f0: 6e26 373c e0f0 a03c b363 c6bb 60d2 d23c
00000200: 9bf2 fd3c dbe1 2abc f5f5 16bd 30c5 1b3d
00000210: b162 163c a2c8 78bd 74d5 1bbd bf70 5f3b
00000220: 3bdf aa3c b04b 893c e540 78bd b4ae 7d3c
00000230: d682 c0bd be7f 1c3d 9480 8dbd 3832 93bc
00000240: 91c5 91bc 1f95 26bc dcd6 40bb e2b8 023b
00000250: 2230 4fbd 485e 05bd 332a c33b 0761 a7bd
00000260: 65d8 26bd bee9 c2bb 69fd 513c 0f4f 163d
00000270: 5dac 58bc f820 143d 02b2 253d 3031 5d3d
00000280: 8cf0 0dbc 81b7 bd3c 4410 c4bc d47b 86bc
00000290: 3ea6 613c 3951 863c c19c e43d dc8f c23d
000002a0: 5f5d a13c bcdc 1a3c a1c5 2c3c 90cb 473c
000002b0: 30d7 813d 04bf 563c 47ab df3b db8f d83d
000002c0: 8041 6c3d c90f 75bc 8295 a3bb 5707 dfbc
000002d0: 7c2b 08bd a1df 863c 8cbc 643d dc55 36bd
000002e0: eec2 ebbb 48fc bd3d 52c2 9d3c adaf 093b
000002f0: 67b4 10bd e933 8d3d ce47 8dbd d62a 19bd
00000300: 5a93 4cbd 520f 93bd 14ba 85bd 9056 e63c
00000310: baee 823d 28cc 093d b1e5 0a3c 9a32 7d3d
00000320: b679 61bd 26d8 20bd 5931 35bd 3468 073d
00000330: 2732 33bd fdf5 aebc dd6d 753d e1dd 23bd
00000340: dfdc 903c 960d b9bb 74e3 62bd 060f 763b
00000350: c523 2fbd 6a24 82bd 630f 453d 378d ed3c
00000360: 0592 2abd 944e babd 08e7 8a3b 85e8 2b3d
00000370: f7d7 4d3d 6fec d23c 74ec 343d d770 bcbd
00000380: a0ce b1bd c1b8 a2bd 800b a53d 7bad 173d
00000390: d6c0 9d3c 6ba5 c43d 31e3 d9bc 3a5b 45bd
000003a0: 381b cbbd 6e8f d3bc a1c6 a33c 6bf7 9eba
000003b0: 7d06 2abd 6f07 493d 02cf 08bd 3d98 b63d
000003c0: e53c 92bd feb3 023d 0023 113d c860 1abd
000003d0: cab6 36bd 5d5e 28bc b357 69bd c957 78bd
000003e0: 140f 8dbd 276a f4ba fb18 663d d315 9f3c
000003f0: db0a 8f3d 31d0 03bd 913e 89bd 9e00 68bd

encoder.3.bias f4 [32]
0.020204991 0.055254832 -0.06688473 -0.05769226 -0.0046512024 -0.026049774 -0.06777811 -0.00517673
0.0073939445 0.04344699 0.054226156 -0.058469605 -0.05190898 -0.045216613 -0.08242203 -0.061217554
0.071004145 -0.06080726 -0.07141213 -0.044690188 -0.060785532 0.06735484 -0.043892786 -0.046415973
0.017818455 0.08031027 -0.0827702 -0.059646137 0.058817606 0.033471517 -0.0257892 0.057543743
00000000: f084 a53c e452 623d dcfa 88bd b84e 6cbd
00000010: 1d69 98bb 5666 d5bc 40cf 8abd 8fa1 a9bb
00000020: e748 f23b 79f5 313d 3f1c 5e3d d37d 6fbd
00000030: 839e 54bd 0e35 39bd e2cc a8bd 42bf 7abd
00000040: 9f6a 913d 0911 79bd 8640 92bd 0f0d 37bd
00000050: 40fa 78bd 56f1 893d ecc8 33bd ad1e 3ebd
00000060: 02f8 913c b679 a43d 6c83 a9bd 824f 74bd
00000070: bbea 703d 6e19 093d df43 d3bc fdb2 6b3d

encoder.4.weight f4 [32]
0.96187466 0.9842383 1.0283074 0.9775654 0.9997127 0.9731932 0.9971331 0.9875758
1.0205871 0.9917558 0.9590252 0.9640594 1.0039636 1.0287316 0.99893045 1.0345103
1.005885 0.9865082 0.98557836 0.9965811 1.0136276 0.9769112 0.9751814 0.9960968
1.0745075 1.0188316 0.9949757 0.99535066 1.0066111 0.96014297 0.9920197 0.99987394
00000000: 6b3d 763f 0bf7 7b3f 949f 833f ba41 7a3f
00000010: 2ced 7f3f 3123 793f 1d44 7f3f c5d1 7c3f
00000020: 99a2 823f b5e3 7d3f ad82 753f 99cc 763f
00000030: e181 803f 7aad 833f e8b9 7f3f d56a 843f
00000040: d7c0 803f cd8b 7c3f dd4e 7c3f f01f 7f3f
00000050: 8dbe 813f da16 7a3f 7da5 793f 3300 7f3f
00000060: 7689 893f 1369 823f bab6 7e3f 4dcf 7e3f
00000070: a2d8 803f eecb 753f 01f5 7d3f bdf7 7f3f

encoder.4.bias f4 [32]
0.03302389 0.17436852 0.042175192 -0.011256105 0.096448936 0.14565475 0.15095289 0.078092165
0.03093107 0.04655665 0.08143828 -0.0013412324 0.116047874 0.053233385 0.01185929 0.03711041
0.12249519 -0.010327868 -0.0031166254 0.03909386 0.058387775 0.011456224 -0.015817383 -0.017732162
0.18318032 0.12509988 0.022309378 0.054203525 -0.0019727543 -0.007224612 -0.0046489006 0.03477567
00000000: 0f44 073d a98d 323e e5bf 2c3d 876b 38bc
00000010: 0587 c53d 8526 153e 6593 1a3e c9ee 9f3d
00000020: 2863 fd3c 30b2 3e3d 1dc9 a63d 4bcc afba
00000030: 82aa ed3d 400b 5a3d 784d 423c 1601 183d
00000040: c2de fa3d 3836 29bc 4c40 4cbb e220 203d
00000050: 0528 6f3d e3b2 3b3c 7593 81bc 0a43 91bc
00000060: 9f93 3b3e 2f1a 003e 28c2 b63c 8404 5e3d
00000070: 5349 01bb 70bc ecbb ce55 98bb ef70 0e3d

encoder.4.running_mean f4 [32]
-0.07799011 -0.08322536 -0.2363037 0.14970708 -0.016788246 -0.024872124 -0.25749964 -0.31677955
-0.059530694 -0.41378075 0.21175441 0.13886929 -0.04278366 0.40051425 -0.2248769 0.040056802
-0.16783267 0.18051395 -0.2646574 0.39292315 -0.14662552 0.31572536 0.21042801 0.78738075
0.09388577 0.58944374 0.009194385 0.31847608 0.16097996 -0.21216032 -0.2449304 0.054363467
00000000: 47b9 9fbd 0f72 aabd 99f9 71be d04c 193e
00000010: 8187 89bc a0c0 cbbc fed6 83be ee30 a2be
00000020: 75d6 73bd 12db d3be 26d6 583e c033 0e3e
00000030: eb3d 2fbd 3410 cd3e 2146 66be 9a12 243d
00000040: 54dc 2bbe a6d8 383e 2d81 87be 392d c93e
00000050: 0025 16be c1a6 a13e 717a 573e c991 493f
00000060: 2f47 c03d c9e5 163f 0ca4 163c 4c0f a33e
00000070: eed7 243e 8e40 59be 09cf 7abe 3aac 5e3d

encoder.4.running_var f4 [32]
0.27283502 0.17513002 1.0525535 0.4725275 0.13716057 0.109876476 0.19884473 0.3337812
0.49124172 0.39886937 0.28895938 0.81003845 0.27692112 0.4151259 1.5851399 0.63595384
0.15974626 0.6878932 0.15011172 0.119167775 0.36055237 0.717173 0.24663639 0.12961785
0.25206938 0.15180665 1.2289907 0.123516545 1.0289911 0.35349593 0.8053584 0.755793
00000000: 08b1 8b3e 4955 333e 13ba 863f 20ef f13e
00000010: d273 0c3e eb06 e13d f49d 4b3e 5fe5 aa3e
00000020: 0984 fb3e 9b38 cc3e 7cf2 933e ae5e 4f3f
00000030: 9bc8 8d3e 628b d43e dde5 ca3f dfcd 223f
00000040: 8694 233e c519 303f e3b6 193e 3c0e f43d
00000050: 529a b83e a698 373f 408e 7c3e 8bba 043e
00000060: 3d0f 813e 3473 1b3e 914f 9d3f 3ef6 fc3d
00000070: fbb5 833f 6bfd b43e f82b 4e3f a67b 413f

encoder.6.weight f4 [64, 32, 3, 3]
0.07733263 0.033342797 -0.044812895 -0.0063536493 -0.057814997 -0.056668375 0.054428495 0.021814639
-0.03852582 0.0095068 -0.0022891706 0.054873038 0.035393856 0.03141541 0.0075218813 0.05471373
0.07816199 0.04739939 -0.0668775 -0.04381258 0.008534569 -0.04763584 0.031418618 0.007118681
0.02694171 0.015895836 0.060579997 0.03802988 0.035381198 -0.0013600026 -0.021657215 -0.05498123
-0.07231483 -0.041578375 -0.09405131 -0.010521851 -0.03862132 0.05104432 -0.06035539 0.010583897
-0.00090658606 -0.039370697 0.0011578429 0.004635419 0.0033404739 -0.015277419 0.06842414 0.022514137
-0.041586842 0.013542434 0.027794613 -0.006157275 0.0035283165 -0.048851475 -0.0016652445 -0.00685627
0.031083958 -0.034090213 -0.010238847 0.048755944 -0.075469874 -0.04271711 0.016502658 0.0009333424
-0.01630992 -0.01617232 0.049943436 0.020837072 -0.084178574 0.0061152033 -0.034368142 -0.011758834
-0.011907299 -0.0059998245 0.01952187 -0.010424969 0.00050318666 -0.017443001 0.033820964 -0.044548783
-0.0031020958 0.016117096 -0.0062273624 0.022592593 0.038594633 0.00071290694 -0.042193264 -0.009506286
-0.047738258 -0.08157398 -0.022650063 -0.0011528813 -0.020546861 0.0056351605 0.0234539 -0.023148315
0.007346111 0.03805116 0.09798754 -0.024039404 0.022159092 0.047456358 -0.004108284 0.014707278
-0.021896265 -0.0040081446 -0.014756947 0.050381836 0.02409819 -0.04633419 0.034208506 0.032416563
0.01209459 0.00443609 -0.031513304 -0.09250546 0.0361159 -0.03031181 -0.042912062 0.03261409
-0.031251825 0.027149335 0.014717802 -0.04772281 -0.04306552 0.032015204 0.051619194 0.03226159
0.043192558 -0.011697831 -0.029359257 0.048991106 -0.02596061 0.029142333 0.03715863 -0.010438672
0.012426347 -0.032610398 -0.034195628 -0.06910224 -0.0066149165 0.035656217 0.045967467 -0.044007607
0.02346778 0.013918883 0.06471176 0.09209414 0.06739749 -0.04810753 -0.04382887 0.007670313
0.0044805976 0.04771566 0.023544103 -0.047814265 -0.022818742 -0.02905717 0.00031885307 -0.015090183
-0.019906403 -0.002704009 0.028821835 -0.0028057492 -0.016546216 0.047769986 0.009622339 0.03596817
0.040361013 0.070999086 0.11148054 -0.019734483 0.03727381 0.03625951 -0.026043888 0.07191593
0.044132177 0.035002045 0.118423015 -0.01678706 -0.06573965 -0.027507802 -0.043360054 0.033519812
0.008712767 0.028472641 -0.010509753 0.010743852 -0.019830078 0.058542386 0.030103128 0.04535659
-0.029236877 -0.03402547 0.028934624 0.017636621 0.028047174 0.03848013 0.017706934 0.008533228
0.017190468 -0.021360861 0.002814482 -0.024039822 0.029763924 -0.04373266 -0.06521489 0.05398327
-0.038896255 -0.009303526 -0.012231995 -0.058865037 0.066030644 0.025788816 -0.062433556 -0.04416246
-0.0221702 -0.0011202325 -0.0016087986 -0.0070246444 -0.04701762 0.058519382 -0.023818748 -0.12638935
-0.08886746 0.06620248 -0.0706238 -0.062301565 0.005233348 -0.056820568 -0.046630666 0.053545807
-0.014430244 0.03667297 -0.013456418 0.012467553 0.0024147474 -0.040024832 0.020764763 0.071887456
-0.031971354 -0.019292103 -0.0011002462 -0.076130785 -0.051259745 -0.0658172 -0.029436676 -0.10451313
0.055791944 0.00050654367 0.08291575 0.036299035 0.014896252 -0.041629527 0.008841062 0.011902313
00000000: 9260 9e3d 7592 083d ba8d 37bd 4632 d0bb
00000010: 6bcf 6cbd 191d 68bd 6af0 5e3d 9db4 b23c
00000020: 40cd 1dbd 69c2 1b3c e905 16bb 8dc2 603d
00000030: 26f9 103d 72ad 003d 1d7a f63b 811b 603d
00000040: 6513 a03d dd25 423d 12f7 88bd d274 33bd
00000050: 94d4 0b3c cc1d 43bd cfb0 003d d343 e93b
00000060: dcb4 dc3c fc37 823c bb22 783d 38c5 1b3d
00000070: e0eb 103d 1d42 b2ba 796a b1bc 0034 61bd
00000080: cc19 94bd 164e 2abd f99d c0bd d763 2cbc
00000090: 6431 1ebd d913 513d 3737 77bd 1568 2d3c
000000a0: f6a7 6dba 2b43 21bd c3c2 973a b7e4 973b
000000b0: daeb 5a3b 244e 7abc f521 8c3d 916f b83c
000000c0: f756 2abd 16e1 5d3c 87b1 e33c f7c2 c9bb
000000d0: 543b 673b 7c18 48bd 5544 daba 90aa e0bb
000000e0: c9a3 fe3c 2ea2 0bbd d6c0 27bc 50b4 473d
000000f0: f38f 9abd 23f8 2ebd 9530 873c 8cab 743a
00000100: 629c 85bc d07b 84bc 7d91 4c3d 82b2 aa3c
00000110: d165 acbd 0b62 c83b 9cc5 0cbd 20a8 40bc
00000120: d516 43bc 2d9a c4bb 54ec 9f3c 7dcd 2abc
00000130: 49e8 033a a0e4 8ebc da87 0a3d c978 36bd
00000140: 884c 4bbb 0008 843c e70e ccbb 1a14 b93c
00000150: 6815 1e3d 60e2 3a3a d8d2 2cbd 41c0 1bbc
00000160: 3189 43bd 4210 a7bd a08c b9bc 471c 97ba
00000170: e451 a8bc 27a7 b83b 6522 c03c 89a1 bdbc
00000180: a5b7 f03b 88db 1b3d b1ad c83d 49ee c4bc
00000190: fc86 b53c 9961 423d c99e 86bb ccf6 703c
000001a0: cc5f b3bc c156 83bb 1fc7 71bc 2f5d 4e3d
000001b0: 9169 c53c ebc8 3dbd 381e 0c3d 3bc7 043d
000001c0: 6328 463c 9f5c 913b 1814 01bd 8173 bdbd
000001d0: 44ee 133d 7950 f8bc 8fc4 2fbd 5a96 053d
000001e0: ea01 00bd 4868 de3c f022 713c fe78 43bd
000001f0: 7865 30bd 6022 033d a66e 533d bb24 043d
00000200: aeea 303d 42a8 3fbc d382 f0bc e6aa 483d
00000210: 58ab d4bc e7bb ee3c a633 183d f706 2bbc
00000220: e097 4b3c 7b92 05bd b710 0cbd 7a85 8dbd
00000230: f1c1 d8bb 410c 123d 6248 3c3d 5241 34bd
00000240: 803f c03c 070c 643c 9987 843d da9b bc3d
00000250: b207 8a3d 670c 45bd e785 33bd 4057 fb3b
00000260: fad1 923b 7f71 433d 90df c03c e4d8 43bd
00000270: 5fee babc 4d09 eebc bc2b a739 d13c 77bc
00000280: c112 a3bc be35 31bb c51b ec3c a9e0 37bb
00000290: ee8b 87bc 76aa 433d 04a7 1d3c 5c53 133d
000002a0: 9751 253d f867 913d e94f e43d 36aa a1bc
000002b0: 6cac 183d da84 143d fe59 d5bc a948 933d
000002c0: f1c3 343d 4e5e 0f3d c487 f23d 0485 89bc
000002d0: 82a2 86bd 0b58 e1bc 509a 31bd 124c 093d
000002e0: febf 0e3c 753f e93c 1931 2cbc fb06 303c
000002f0: b072 a2bc 24ca 6f3d d69a f63c d5c7 393d
00000300: 2d82 efbc 4b5e 0bbd 4e08 ed3c ad7a 903c
00000310: 30c3 e53c 579d 1d3d 220e 913c f4ce 0b3c
00000320: 06d3 8c3c f9fc aebc 2c73 383b 29ef c4bc
00000330: 79d3 f33c 0521 33bd 628f 85bd 901d 5d3d
00000340: ae51 1fbd d16d 18bc b568 48bc 771c 71bd
00000350: 133b 873d 1143 d33c 54ba 7fbd b2e3 34bd
00000360: 479e b5bc c4d4 92ba 53de d2ba fd2e e6bb
00000370: 8c95 40bd 05b2 6f3d 891f c3bc 366c 01be
00000380: 2500 b6bd 2a95 873d 36a3 90bd ed2f 7fbd
00000390: 817c ab3b afbc 68bd ccff 3ebd d952 5b3d
000003a0: d56c 6cbc 6536 163d 4f78 5cbc b544 4c3c
000003b0: bd40 1e3b 14f1 23bd dd1a aa3c bb39 933d
000003c0: 65f4 02bd 790a 9ebc 2336 90ba 75ea 9bbd
000003d0: bdf5 51bd 2bcb 86bd 2f25 f1bc fb0a d6bd
000003e0: 1886 643d 92c9 043a bccf a93d 4cae 143d
000003f0: 690f 743c b983 2abd 1ada 103c eb01 433c

encoder.6.bias f4 [64]
-0.00837548 -0.036459092 -0.052085273 0.008644886 -0.015881313 -0.04750574 0.009355938 -0.0015389023
0.03385158 0.022039669 -0.015819587 0.02592346 0.058654778 -0.0036427358 -0.014736521 0.04262075
0.036467873 -0.05554686 0.055533025 0.025843507 -0.005449813 -0.024547819 -0.04796803 0.014737321
-0.030477937 -0.042824026 -0.020814879 -0.03268336 -0.04754447 -0.011221089 0.02018773 0.008913343
-0.05169207 -0.009309719 -0.036033235 -0.03647334 0.03925473 0.04493375 0.05743816 0.048161678
0.012316355 0.048208483 -0.031292528 0.023500724 0.020838613 -0.010871535 0.028295621 0.014476896
0.007278636 -0.039968655 -0.013968632 0.03021222 0.018547568 -0.048716787 -0.016206695 -0.051979776
-0.032485384 0.008707512 0.0021688966 0.036762107 -0.013908258 0.027095491 -0.0014591883 0.0037576018
00000000: 4f39 09bc 2156 15bd 5e57 55bd 48a3 0d3c
00000010: 8719 82bc 6195 42bd a649 193c feb4 c9ba
00000020: f4a7 0a3d 898c b43c 1498 81bc 705d d43c
00000030: fe3f 703d f7ba 6ebb 7371 71bc 1893 2e3d
00000040: 565f 153d 1b85 63bd 9976 633d c3b5 d33c
00000050: 5894 b2bb 8218 c9bc 207a 44bd ce74 713c
00000060: deac f9bc 3f68 2fbd f783 aabc fdde 05bd
00000070: fdbd 42bd a9d8 37bc bd60 a53c 4509 123c
00000080: 10bb 53bd cb87 18bc 9697 13bd 1265 15bd
00000090: 91c9 203d 740c 383d 4744 6b3d 2e45 453d
000000a0: 89ca 493c 4276 453d 982c 00bd 9784 c03c
000000b0: bdb5 aa3c 861e 32bc 38cc e73c 8130 6d3c
000000c0: a081 ee3b 2cb6 23bd b0dc 64bc 9e7f f73c
000000d0: 12f1 973c 418b 47bd e7c3 84bc bfe8 54bd
000000e0: 650f 05bd f4a9 0e3c 0c24 0e3b dd93 163d
000000f0: 76df 63bc 5df7 dd3c 3c42 bfba 1942 763b

encoder.7.weight f4 [64]
0.9937377 0.9883563 1.0011109 1.0411621 0.9861897 0.9674812 0.9462132 1.0047053
0.9797359 1.0164264 0.99437726 1.0158615 1.0119481 1.016937 1.0061159 1.0142375
1.0113802 0.9866598 1.0152824 1.0150319 0.9758583 1.0152851 1.0365398 1.0131665
0.981673 1.0144875 0.9909815 0.9624024 0.99086946 1.0047941 0.944889 0.9840073
1.0012718 1.0099096 0.9792728 1.0049223 1.0260882 0.9891684 0.9874759 1.0335542
0.93936974 0.98128444 1.0092386 1.0215065 0.98039895 1.0110306 0.99366075 0.9868659
1.0092839 1.0071163 1.0811937 0.9800653 1.0321856 0.99906486 0.9735751 0.97630817
0.9903936 1.007151 1.029431 1.0013261 0.9944264 0.9699701 0.9824313 0.9776181
00000000: 9865 7e3f eb04 7d3f 6724 803f cd44 853f
00000010: ee76 7c3f d9ac 773f 073b 723f 2f9a 803f
00000020: f9cf 7a3f 431a 823f 828f 7e3f c007 823f
00000030: 8487 813f fe2a 823f 68c8 803f 89d2 813f
00000040: e874 813f bd95 7c3f c6f4 813f 91ec 813f
00000050: d9d1 793f ddf4 813f 56ad 843f 71af 813f
00000060: ec4e 7b3f bada 813f f7b0 7d3f 0160 763f
00000070: 9fa9 7d3f 189d 803f 3fe4 713f e7e7 7b3f
00000080: ad29 803f b844 813f 9fb1 7a3f 4ba1 803f
00000090: dc56 833f 243a 7d3f 38cb 7c3f 814b 843f
000000a0: 897a 703f 7535 7b3f bb2e 813f bac0 823f
000000b0: 6dfb 7a3f 7369 813f 8d60 7e3f 3ea3 7c3f
000000c0: 3730 813f 30e9 803f 8e64 8a3f 8fe5 7a3f
000000d0: a81e 843f b7c2 7f3f 383c 793f 55ef 793f
000000e0: 6f8a 7d3f 53ea 803f 65c4 833f 742b 803f
000000f0: bb92 7e3f f64f 783f 9e80 7b3f 2e45 7a3f

encoder.7.bias f4 [64]
0.08251115 0.035363093 0.08971491 0.089730464 0.10216673 0.10876727 0.10665256 0.1321208
0.06645848 0.089149125 0.12993959 0.068486504 0.037964497 0.06411454 0.0074505606 0.07341619
0.037654795 0.061804708 0.04765252 0.067496635 0.1544896 0.10270023 0.1068466 0.038342103
0.018699966 0.12284405 0.13126795 0.05756573 0.050650418 0.035822544 0.037374783 0.015487245
0.03855381 0.055825207 0.11272432 0.026791528 0.037015244 0.055502336 0.051026706 0.047306128
0.15410897 0.039632168 0.01196495 0.089255236 0.03023956 0.11119651 0.035549767 0.019064259
0.045155473 0.047524367 0.09508823 0.07589492 0.038316026 0.097017 0.03249558 0.06462706
0.13314523 0.07931929 0.111524574 0.11996559 0.113567434 0.043712795 0.03549706 0.07515644
00000000: 9bfb a83d e4d8 103d 73bc b73d 9bc4 b73d
00000010: ca3c d13d 60c1 de3d a86c da3d ad4a 073e
00000020: 621b 883d d193 b63d e20e 053e a742 8c3d
00000030: a980 1b3d 7c4e 833d d523 f43b 3a5b 963d
00000040: ea3b 1a3d ef26 7d3d 4a2f 433d ad3b 8a3d
00000050: 8632 1e3e 8054 d23d 64d2 da3d 9c0c 1d3d
00000060: ac30 993c a995 fb3d 1b6b 063e 0bca 6b3d
00000070: d076 4f3d a9ba 123d 4d16 193d 37be 7d3c
00000080: 9aea 1d3d f9a8 643d 02dc e63d e879 db3c
00000090: 4c9d 173d 6b56 633d 6101 513d 12c4 413d
000000a0: bece 1d3e 5755 223d a308 443c 73cb b63d
000000b0: f4b8 f73c ffba e33d a29c 113d a62c 9c3c
000000c0: f2f4 383d e9a8 423d 9ebd c23d cc6e 9b3d
000000d0: 44f1 1c3d d9b0 c63d 161a 053d 315b 843d
000000e0: 3957 083e 2772 a23d ff66 e43d 85b0 f53d
000000f0: 0b96 e83d 300c 333d 5d65 113d 9feb 993d

encoder.7.running_mean f4 [64]
-0.12508246 -0.27041614 0.42063862 -0.207644 0.016553247 -0.07401897 -0.046401087 0.24798584
0.5222363 -0.099830665 -0.5580372 0.07475412 0.03057196 0.14133215 0.3185722 -0.36751407
0.10562727 0.064627 0.39551008 -0.18429604 -0.24425282 -0.24105413 0.13071151 0.25770032
0.7222306 0.16162008 -0.22788458 0.32515916 -0.37040052 -0.2765717 0.26289198 0.09337911
0.051094577 -0.13774277 -0.20121294 0.22407483 0.12214415 0.06888744 0.3877614 -0.0876166
0.032933325 0.69413286 0.118521966 -0.6134685 -0.15428083 -0.015720423 0.0106208725 -0.07103543
0.6459136 -0.40269434 0.08066501 0.5027044 -0.22479078 0.0366096 -0.32558978 0.28334934
-0.0036040095 0.23834367 -0.08763462 0.22623211 -0.10177822 0.28139642 0.24984999 0.15730609
00000000: 9e15 00be fc73 8abe f25d d73e a1a0 54be
00000010: ad9a 873c 4297 97bd 110f 3ebd 00f0 7d3e
00000020: 47b1 053f 0574 ccbd 87db 0ebf b018 993d
00000030: 0c72 fa3c 60b9 103e e51b a33e ce2a bcbe
00000040: 1c53 d83d 295b 843d 4c80 ca3e 1ab8 3cbe
00000050: 691d 7abe e5d6 76be 3dd9 053e 4cf1 833e
00000060: 1be4 383f bc7f 253e 935a 69be 437b a63e
00000070: 23a5 bdbe ce9a 8dbe c799 863e 8c3d bf3d
00000080: 8c48 513d 710c 0dbe c40a 4ebe df73 653e
00000090: b626 fa3d dc14 8d3d aa88 c63e 5570 b3bd
000000a0: 18e5 063d b1b2 313f a5bb f23d 460c 1dbf
000000b0: cbfb 1dbe 1ec8 80bc 2b03 2e3c 067b 91bd
000000c0: 985a 253f f42d cebe b233 a53d 3cb1 003f
000000d0: 8e2f 66be f3f3 153d b4b3 a6be 2a13 913e
000000e0: 3f31 6cbb 5d10 743e c879 b3bd 64a9 673e
000000f0: 1971 d0bd 3113 903e add8 7f3e d914 213e

encoder.7.running_var f4 [64]
0.63941175 0.46580595 0.6328966 0.69237566 0.30479774 0.30718789 0.2365092 0.5077253
0.2331774 0.4339839 0.56681466 0.3614325 0.8605226 0.6058093 0.76744735 0.7618942
0.5262799 0.30613515 0.76656556 0.40342158 0.38007045 0.39150512 0.53740716 0.66578424
0.39129338 0.37463552 0.4356287 0.27229822 0.44867367 0.75784856 0.5837637 0.5976239
0.3860223 0.48382658 0.48282284 0.6402735 0.96981156 0.39918485 0.56438905 0.5370316
0.16809867 0.42255527 0.57666427 0.4721783 0.568137 0.55672055 0.6089279 0.48517615
0.5907624 0.815985 0.41506848 0.26640147 0.75768745 0.49241567 0.48341414 0.4905784
0.58580095 0.3192065 0.47672144 0.59344435 0.5084331 0.2603273 0.49469632 0.40605447
00000000: 7db0 233f 1e7e ee3e 8305 223f 883f 313f
00000010: 730e 9c3e bb47 9d3e 782f 723e 49fa 013f
00000020: 0ec6 6e3e 2333 de3e c41a 113f ae0d b93e
00000030: 364b 5c3f 5116 1b3f 6e77 443f 800b 433f
00000040: 48ba 063f bfbd 9c3e a43d 443f 468d ce3e
00000050: 9898 c23e 5c73 c83e 8493 093f d670 2a3f
00000060: 9b57 c83e 3ad0 bf3e ba0a df3e ac6a 8b3e
00000070: 8eb8 e53e 5d02 423f 8a71 153f e1fd 183f
00000080: b7a4 c53e 1eb8 f73e 8e34 f73e f7e8 233f
00000090: 9245 783f f561 cc3e cd7b 103f e77a 093f
000000a0: 0f22 2c3e 2a59 d83e 45a0 133f 5bc1 f13e
000000b0: 6d71 113f 3d85 0e3f b3e2 1b3f 0269 f83e
000000c0: 343c 173f 65e4 503f db83 d43e c665 883e
000000d0: cef7 413f e81d fc3e 0f82 f73e 182d fb3e
000000e0: 0df7 153f 096f a33e d514 f43e f8eb 173f
000000f0: ac28 023f 9f49 853e d648 fd3e 5fe6 cf3e

decoder.0.weight f4 [64, 32, 3, 3]
0.030303575 -0.001079452 0.014300657 0.05486919 -0.074800245 0.024028491 -0.010505888 -0.050388318
0.050915238 0.048632625 0.03721399 0.010891611 -0.046952687 -0.029884107 -0.040085927 0.032008257
0.038267214 -0.023666523 -0.008450178 -0.03517352 -0.021598238 -0.017852135 0.022839662 0.020497585
0.005945313 -0.050752316 0.02373147 0.05293276 0.009861659 -0.001186487 0.0076738414 0.046719782
-0.010902615 0.034168933 -0.07525504 -0.048787903 -0.036494695 0.069606155 0.04378653 -0.032339286
0.045163915 -0.051360656 -0.031264953 0.06888022 -0.0078034066 -0.0066393605 -0.027410097 -0.004903239
-0.035289913 0.01297851 0.023210553 -0.026630236 0.02135398 0.0056324424 0.02735104 -0.03909449
-0.05162372 -0.05848252 -0.0061851502 0.05100717 -0.0002627156 -0.0321302 -0.02860338 -0.033437528
-0.010637943 -0.01429298 -0.03122531 0.0020399457 -0.024522543 -0.0054483204 -0.026934363 0.030376364
-0.06877232 -0.08143174 0.039441314 -0.08432655 -0.061425887 0.065180264 -0.056270964 -0.063764624
0.01537594 0.051081624 -0.03592343 -0.03888117 -0.053846702 0.05473891 -0.019507712 0.026939278
0.028963927 -0.04019321 0.019737955 -0.018835684 -0.038572695 0.004585887 -0.028825115 -0.018808955
0.0028028649 -0.056768652 -0.027383313 0.017802645 -0.0026961912 0.0705283 0.0053040604 -0.0646053
0.013292884 -0.06515899 0.012667799 0.08256154 0.047392808 -0.003761545 0.021967879 -0.003390528
-0.0059437375 0.0066751414 0.049167383 -0.01627638 -0.012011896 -0.05752553 -0.014527688 -0.028235873
0.004475112 0.04548198 0.03141426 0.01224765 -0.047446508 0.014468618 -0.057674937 -0.0016110733
0.0328627 -0.0024957801 -0.005328548 0.06022734 -0.04173692 0.021932794 0.025871553 -0.033036184
-0.043682866 -0.069197804 -0.038904622 -0.047547564 0.03161055 0.04456545 0.04128328 0.048564885
0.004943921 0.04325605 -0.05422809 -0.012645847 0.04058115 -0.038024038 0.059097454 0.05775113
0.1450259 -0.0042762263 -0.02007325 0.02785864 -0.03520994 -0.02515288 -0.011960895 0.025503235
-0.04208317 -0.06139706 -0.032613896 0.0045098867 -0.049783118 -0.0033851305 -0.02188421 -0.012331773
0.066121615 -0.04002219 -0.07158878 -0.015769465 0.013386146 -0.035458412 0.013771906 0.024098655
0.022417836 0.007951528 -0.106194094 -0.0035591347 -0.033051524 -0.021994047 -0.0072356733 0.027421804
-0.038809426 -0.026299786 -0.032970216 -0.016108798 0.039525855 0.015678165 0.05048668 -0.025327047
0.027359148 0.008146176 -0.025235785 0.054676536 -0.04651785 -0.023648925 0.048546918 -0.07744789
0.005308594 0.036101725 -0.0121757705 -0.05964265 0.101971686 0.011343212 -0.00417653 -0.058657896
-0.032792646 -0.044642102 -0.03772437 0.020784639 0.031998254 0.033420976 0.0653082 0.04600158
-0.03903701 -0.07199218 -0.027939744 -0.004867088 0.00060481 -0.007453259 0.03746397 -0.018313594
0.062358893 0.03905341 -0.044109374 -0.055410106 0.02231874 -0.03631342 0.019567166 0.043472808
0.08911296 0.0061355033 -0.024227222 0.05005086 -0.0033768716 0.03392469 -0.012123131 -0.012185827
-0.019706864 0.05365781 0.0008106324 -0.047259178 -0.03488337 0.014531665 -0.036438968 -0.0062367455
0.047144912 -0.0105062565 -0.0022793498 -0.10252386 0.021043286 -0.017457724 0.018447973 0.015632035
00000000: 343f f83c 667c 8dba 4e4d 6a3c 84be 603d
00000010: df30 99bd 66d7 c43c e320 2cbc fb63 4ebd
00000020: 7f8c 503d 0133 473d b26d 183d ba72 323c
00000030: 7651 40bd 84cf f4bc 2431 24bd 171b 033d
00000040: 15be 1c3d 4ce0 c1bc 9e72 0abc 1c12 10bd
00000050: caee b0bc a43e 92bc 3e1a bb3c 8dea a73c
00000060: e6d0 c23b a9e1 4fbd 8068 c23c 06d0 583d
00000070: cc92 213c e683 9bba d974 fb3b 3e5d 3f3d
00000080: e2a0 32bc b9f4 0b3d 501f 9abd d3d5 47bd
00000090: 767b 15bd ac8d 8e3d 8159 333d 3376 04bd
000000a0: ccfd 383d 8d5f 52bd ae0f 00bd 1311 8d3d
000000b0: b8b3 ffbb fe8e d9bb 248b e0bc 5aab a0bb
000000c0: 288c 10bd d1a3 543c 0f24 be3c a727 dabc
000000d0: 8bee ae3c 5a90 b83b 4a0f e03c 8b21 20bd
000000e0: 6573 53bd 5e8b 6fbd cdac cabb e5ec 503d
000000f0: 17bd 89b9 f59a 03bd a351 eabc caf5 08bd
00000100: c44a 2ebc 1a2d 6abc 39cc ffbc 9cb0 053b
00000110: 80e3 c8bc d387 b2bb 74a5 dcbc dad7 f83c
00000120: 81d8 8cbd afc5 a6bd 378d 213d 66b3 acbd
00000130: b699 7bbd 3b7d 853d 627c 66bd 0797 82bd
00000140: 5eeb 7b3c f73a 513d 7224 13bd dd41 1fbd
00000150: 5c8e 5cbd e835 603d a3ce 9fbc c3af dc3c
00000160: c245 ed3c a3a1 24bd 7eb1 a13c 4b4d 9abc
00000170: 67fe 1dbd 3545 963b a622 ecbc 3d15 9abc
00000180: 45b0 373b 3f86 68bd f852 e0bc dad6 913c
00000190: 95b2 30bb 2471 903d afcd ad3b c94f 84bd
000001a0: 66ca 593c 1472 85bd 9a8c 4f3c 0616 a93d
000001b0: f61e 423d 4184 76bb fbf5 b33c 9f33 5ebb
000001c0: afc3 c2bb 25bb da3b bd63 493d 0b56 85bc
000001d0: 8bcd 44bc e49f 6bbd 8a05 6ebc eb4e e7bc
000001e0: f6a3 923b 504b 3a3d 3dac 003d 5eaa 483c
000001f0: 4557 42bd c80d 6d3c 8e3c 6cbd a62a d3ba
00000200: 0a9b 063d 3e90 23bb 1a9b aebb f1b0 763d
00000210: 55f4 2abd 67ac b33c 94f0 d33c f350 07bd
00000220: ceec 32bd 94b7 8dbd 745a 1fbd 3cc1 42bd
00000230: 107a 013d 438a 363d a818 293d f9eb 463d
00000240: 9e00 a23b 422d 313d 461e 5ebd 8730 4fbc
00000250: 6c38 263d 18bf 1bbd 2c10 723d 738c 6c3d
00000260: ab81 143e 961f 8cbb a870 a4bc cd37 e43c
00000270: 4c38 10bd 6a0d cebc a1f7 43bc 29ec d03c
00000280: 675f 2cbd 7c7b 7bbd 2696 05bd acc7 933b
00000290: 62e9 4bbd 11d9 5dbb 8446 b3bc 340b 4abc
000002a0: c56a 873d 4fee 23bd 239d 92bd f72e 81bc
000002b0: 9151 5b3c d73c 11bd 8fa3 613c 8b6a c53c
000002c0: 9ca5 b73c 2047 023c 4a7c d9bd 5f40 69bb
000002d0: 0961 07bd dc2c b4bc 3a19 edbb b1a3 e03c
000002e0: a2f6 1ebd a672 d7bc c70b 07bd 99f6 83bc
000002f0: dde5 213d 7f6f 803c 1fcb 4e3d ab7a cfbc
00000300: 4b20 e03c 8a77 053c 47bb cebc 81f4 5f3d
00000310: 8089 3ebd 64bb c1bc 22d9 463d 009d 9ebd
00000320: b7f3 ad3b 67df 133d e27c 47bc da4b 74bd
00000330: 88d6 d03d e1d8 393c 46db 88bb 4343 70bd
00000340: 9551 06bd a3da 36bd de84 1abd 8c44 aa3c
00000350: 9a10 033d 6fe4 083d 4ec0 853d 276c 3c3d
00000360: 46e5 1fbd a370 93bd e4e1 e4bc 187c 9fbb
00000370: 1d8c 1e3a 783a f4bb d273 193d 6406 96bc
00000380: 0a6c 7f3d 78f6 1f3d 08ac 34bd b5f5 62bd
00000390: cad5 b63c 61bd 14bd 524b a03c 8b10 323d
000003a0: db80 b63d 550c c93b 2b78 c6bc 2102 4d3d
000003b0: 814e 5dbb 9ef4 0a3d 19a0 46bc 10a7 47bc
000003c0: 4a70 a1bc 4bc8 5b3d 9f80 543a d792 41bd
000003d0: dde1 0ebd 3816 6e3c 0741 15bd 9d5d ccbb
000003e0: 061b 413d 6f22 2cbc 2561 15bb 08f8 d1bd
000003f0: f862 ac3c 8003 8fbc 3420 973c c10e 803c

decoder.0.bias f4 [32]
-0.025697093 -0.020119078 -0.045033526 -0.012522859 0.014290993 0.015701765 0.05696439 0.018350352
-0.055762835 0.017967086 -0.0032198243 -0.029482916 -0.0052591907 0.053804096 -0.038805913 0.034125198
-0.035460245 0.031600643 -0.05065642 -0.040474206 0.007963811 0.0432334 0.023945598 -0.02691042
-0.053261455 0.030140618 0.019522142 -0.02806357 0.04252399 -0.021888986 0.018926522 0.018800626
00000000: b682 d2bc c4d0 a4bc 1375 38bd ad2c 4dbc
00000010: c524 6a3c fda0 803c 7e53 693d 7a53 963c
00000020: 9267 64bd b62f 933c b003 53bb 2886 f1bc
00000030: 4a55 acbb af61 5c3d f3f2 1ebd ddc6 0b3d
00000040: c33e 11bd ad6f 013d 1b7d 4fbd 48c8 25bd
00000050: a57a 023c 8115 313d 8f29 c43c 3e73 dcbc
00000060: af28 5abd 75e9 f63c e6ec 9f3c 92e5 e5bc
00000070: a32d 2e3d 8850 b3bc cb0b 9b3c c503 9a3c

decoder.1.weight f4 [32]
0.9917157 0.96497095 0.9595742 0.9883242 0.9828702 0.9693667 0.99488264 0.9901153
1.000068 0.95714694 1.0684025 0.9758521 1.027427 1.0425812 0.95387006 0.98391485
0.99943453 0.9251519 0.9967783 1.0317699 0.9753294 0.9868403 1.0020132 1.0311583
0.9925349 1.0299757 1.0252283 0.95719194 0.9713146 1.0266647 1.0071269 1.005726
00000000: 15e1 7d3f 5608 773f a8a6 753f d102 7d3f
00000010: 629d 7b3f 6b28 783f a1b0 7e3f 3278 7d3f
00000020: 3a02 803f 9507 753f 6ac1 883f 71d1 793f
00000030: ba82 833f 4d73 853f d430 743f d8e1 7b3f
00000040: f1da 7f3f c1d6 6c3f dd2c 7f3f 0911 843f
00000050: 30af 793f 91a1 7c3f f841 803f fffc 833f
00000060: c416 7e3f 3ed6 833f ae3a 833f 880a 753f
00000070: 13a8 783f c069 833f 89e9 803f a1bb 803f

decoder.1.bias f4 [32]
0.019631071 -0.016131792 -0.023080947 -0.015555006 0.002670454 -0.03230913 0.0418273 0.033977367
0.031303104 -0.05182942 0.09395248 -0.0037303746 0.04635451 0.050760005 -0.039752673 0.0007482752
0.06803684 -0.05568527 0.05546687 0.055906847 -0.004563893 0.012265443 0.04744046 0.07879103
0.017677655 0.0633173 0.07350041 0.0339154 0.02035662 0.05350391 0.019263396 0.03298369
00000000: 57d1 a03c d226 84bc 4114 bdbc 6dda 7ebc
00000010: c902 2f3b 9456 04bd 1a53 2b3d da2b 0b3d
00000020: af37 003d 164b 54bd 286a c03d 4d79 74bb
00000030: 3ade 3d3d b9e9 4f3d b3d3 22bd e627 443a
00000040: e656 8b3d 3d16 64bd 3b31 633d 94fe 643d
00000050: b68c 95bb fff4 483c ee50 423d 315d a13d
00000060: bbd0 903c 80ac 813d 6287 963d e0ea 0a3d
00000070: edc2 a63c ea26 5b3d 45ce 9d3c e819 073d

decoder.1.running_mean f4 [32]
-0.07680479 -0.01407972 -0.27004412 -0.07274775 0.024526468 -0.28575125 -0.19982088 -0.055176314
-0.08299408 0.11182712 -0.06250191 -0.0027553705 -0.041581452 -0.4660566 -0.4212812 -0.13068952
-0.20927268 -0.0802551 -0.13843744 -0.22458036 -0.25363302 -0.18411076 -0.17255479 -0.22672799
-0.30359313 0.042161725 -0.090202466 -0.34509164 0.0517051 0.28951705 0.07022825 -0.15731594
00000000: d44b 9dbd a0ae 66bc 3943 8abe c6fc 94bd
00000010: bbeb c83c fd4d 92be d89d 4cbe 8f00 62bd
00000020: cdf8 a9bd 9e05 e53d 0001 80bd 7293 34bb
00000030: 5051 2abd f89e eebe 2bb2 d7be 79d3 05be
00000040: 944b 56be c95c a4bd 8bc2 0dbe 65f8 65be
00000050: 30dc 81be 8887 3cbe 34b2 30be 622b 68be
00000060: 8f70 9bbe c6b1 2c3d 12bc b8bd daaf b0be
00000070: bac8 533d 943b 943e d4d3 8f3d 6e17 21be

decoder.1.running_var f4 [32]
0.52842075 0.3304424 0.709017 0.46039814 0.3103684 0.74953943 0.574035 0.3479598
0.28195128 0.523166 0.3089552 0.6485583 0.4412127 1.2556661 1.3625898 0.300507
0.23515591 0.33209187 0.2411027 0.30541056 0.9311997 0.64192706 0.47354114 0.3466022
0.44451782 0.31191653 0.2265422 0.37678304 0.23342527 0.3230566 0.32343093 0.45825645
00000000: 9546 073f bf2f a93e 2382 353f 4eb9 eb3e
00000010: 9be8 9e3e d1e1 3f3f f5f3 123f c927 b23e
00000020: eb5b 903e 35ee 053f 602f 9e3e eb07 263f
00000030: a2e6 e13e abb9 a03f 5869 ae3f 0edc 993e
00000040: b6cc 703e f207 aa3e a0e3 763e c65e 9c3e
00000050: 1b63 6e3f 5555 243f fc73 f23e d875 b13e
00000060: d797 e33e 86b3 9f3e aefa 673e b5e9 c03e
00000070: 0907 6f3e ad67 a53e bd98 a53e 97a0 ea3e

decoder.3.weight f4 [32, 16, 3, 3]
-0.067538396 0.03089624 0.07678137 -0.02499663 0.0002559218 0.036256105 -0.01628575 0.04577999
0.016403625 0.00073583424 -0.044639606 0.010853596 -0.044751607 -0.063645065 -0.056311306 -0.035002775
-0.09973313 0.031161882 -0.0812697 -0.05933626 -0.047077283 0.06479569 -0.06681275 0.07900241
-0.076815285 0.06348697 -0.0766934 -0.0060900883 0.058977596 -0.023549404 0.08761261 0.09393969
-0.023665447 0.04134626 0.07617695 0.050578907 0.052627727 -0.08637643 -0.00018987065 0.039749514
-0.041589282 -0.028395506 0.026209895 -0.07321035 0.0056882487 0.021511417 0.036200643 0.08921526
0.045184754 0.07358936 -0.042257585 -0.01657277 0.08610309 0.02459836 -0.026891217 0.008057522
0.035546392 -0.033708066 -0.018010471 -0.015436942 0.032937717 -0.056056764 -0.011382351 0.089703895
0.004819313 0.06580067 0.0020417648 0.012793078 -0.03545662 0.02464593 -0.02666694 0.01941839
0.06275911 -0.07471049 -0.040667344 -0.08300628 0.0057997587 -0.05730563 0.02311762 -0.012798054
-0.025001494 0.031420067 0.036166582 0.06570272 -0.022264862 0.0882613 -0.0024586092 0.031511262
0.026582556 0.10131604 0.019252842 0.037724312 0.014901057 0.063384615 0.008005379 -0.06313462
-0.019620711 0.05891051 -0.015876962 -0.022764457 -0.08326359 -0.029048549 -0.013157246 -0.08973825
-0.04685604 0.009792613 -0.068928696 0.03860914 -0.07923047 0.06789064 -0.004354251 -0.04075934
0.019369118 0.025749458 0.11041653 0.047130566 0.006773285 -0.037996598 0.07607367 0.102311246
0.042887826 0.09099519 -0.04402373 0.0845431 -0.058983695 0.075716704 -0.051958326 -0.013068769
-0.03306715 -0.0059555187 -0.043638557 0.021376517 0.019480295 0.007389921 0.004241594 -0.010022074
0.04800846 -0.020229695 0.048562776 -0.011277519 0.036861595 -0.0013923006 0.07079281 0.01629656
-0.02213042 -0.0106566 -0.047379438 0.014364026 -0.032690994 -0.013755948 0.04512943 -0.075933
0.0037696892 -0.007993285 -0.030730978 0.015099355 0.11354958 0.102564305 0.0044889385 0.048266407
0.022453457 0.10440625 -0.026597248 0.08099741 0.08369627 0.01815362 0.0670172 0.09211063
-0.026140077 0.014966009 -0.019093508 0.008615473 0.036974046 -0.07167205 0.026891377 -0.049984943
-0.076690555 -0.050990433 0.027969467 0.02554937 -0.021943405 0.0049967365 0.04061241 0.08354932
0.027661221 0.048243526 0.1040929 -0.021926166 -0.012165843 -0.06535418 -0.07814509 -0.050294414
0.0014520241 -0.098100096 -0.009528564 -0.060206704 -0.011958774 0.023729363 -0.0053630276 0.0059540244
0.09645077 -0.041419882 0.112029515 0.014324874 0.06594649 0.08436652 0.027499033 0.039041966
-0.041328944 0.036179423 0.042445574 -0.0025754294 0.076239824 0.013929082 -0.018661125 0.0032475344
-0.00524763 0.07270644 -0.015039509 0.029430453 0.057624206 0.0599755 -0.0060766865 0.05864725
0.011490084 0.022221927 0.078145884 0.039082196 0.046237156 0.018126087 0.00048001134 -0.07916416
-0.02095132 -0.026750525 0.03146559 -0.05847837 0.030144582 -0.054058563 -0.09011412 -0.04746879
-0.098343715 -0.013381696 -0.061947305 -0.051890552 -0.028244596 0.016642386 0.039378528 0.03253383
-0.01254713 0.021048917 0.014242774 0.019709747 -0.004390731 -0.003092477 0.005146945 -0.07721825
00000000: 9251 8abd 1d1a fd3c 8d3f 9d3d bcc5 ccbc
00000010: 3e2d 8639 4881 143d b169 85bc cc83 3b3d
00000020: e560 863c 00e5 403a 05d8 36bd 48d3 313c
00000030: 764d 37bd 5858 82bd afa6 66bd 125f 0fbd
00000040: e240 ccbd 3447 ff3c ba70 a6bd 940a 73bd
00000050: 1cd4 40bd 9ab3 843d 20d5 88bd 04cc a13d
00000060: 5551 9dbd 7505 823d 6e11 9dbd 5d8f c7bb
00000070: 7e92 713d aeea c0bc 3d6e b33d 7463 c03d
00000080: 0ade c1bc b25a 293d a902 9c3d d42b 4f3d
00000090: 2c90 573d 20e6 b0bd 0418 47b9 63d0 223d
000000a0: 8659 2abd b19d e8bc 22b6 d63c 4fef 95bd
000000b0: 7d64 ba3b b638 b03c 2047 143d 7eb6 b63d
000000c0: a613 393d 05b6 963d 4a16 2dbd 9ec3 87bc
000000d0: d156 b03d 8082 c93c f84a dcbc b203 043c
000000e0: 1899 113d 7811 0abd b28a 93bc 3aeb 7cbc
000000f0: b3e9 063d c79b 65bd 0a7d 3abc adb6 b73d
00000100: 54eb 9d3b 80c2 863d 21cf 053b 0f9a 513c
00000110: f63a 11bd 43e6 c93c a074 dabc 5113 9f3c
00000120: d987 803d d001 99bd cd92 26bd 32ff a9bd
00000130: e70b be3b 4fb9 6abd 2a61 bd3c eeae 51bc
00000140: efcf ccbc 54b2 003d 6923 143d 268f 863d
00000150: cd64 b6bc 57c2 b43d 9e20 21bb f411 013d
00000160: a9c3 d93c c97e cf3d 23b8 9d3c cf84 1a3d
00000170: 9023 743c cbcf 813d fe28 033c b94c 81bd
00000180: 9dbb a0bc 264c 713d 6710 82bc 877c babc
00000190: 1a86 aabd 39f7 edbc 7d91 57bc b0c8 b7bd
000001a0: 1eec 3fbd 3271 203c 7d2a 8dbd 9e24 1e3d
000001b0: 9643 a2bd 3f0a 8b3d 1bae 8ebb 44f3 26bd
000001c0: fcab 9e3c 87f0 d23c 1022 e23d fb0b 413d
000001d0: 6ff2 dd3b 52a2 1bbd 83cc 9b3d 8f88 d13d
000001e0: 25ab 2f3d b05b ba3d 3a52 34bd ef24 ad3d
000001f0: e398 71bd 5c11 9b3d 41d2 54bd 641e 56bc
00000200: 6b71 07bd 8326 c3bb 58be 32bd ce1d af3c
00000210: 2495 9f3c 2727 f23b 12fd 8a3b a033 24bc
00000220: 85a4 443d bfb8 a5bc c3e9 463d 58c5 38bc
00000230: 2ffc 163d db7d b6ba d2fb 903d 5d80 853c
00000240: db4a b5bc 0599 2ebc f110 42bd 1757 6b3c
00000250: fee6 05bd a160 61bc a3d9 383d c382 9bbd
00000260: e40c 773b 44f6 02bc 88bf fbbc 4963 773c
00000270: af8c e83d 3c0d d23d f217 933b ffb2 453d
00000280: 50f0 b73c f2d2 d53d 79e2 d9bc f8e1 a53d
00000290: f368 ab3d e7b6 943c 5040 893d 7fa4 bc3d
000002a0: b723 d6bc fe33 753c fd69 9cbc ea27 0d3c
000002b0: 1972 173d ccc8 92bd 4e4b dc3c 03bd 4cbd
000002c0: f00f 9dbd 58db 50bd 3920 e53c ea4c d13c
000002d0: a8c2 b3bc aabb a33b 3359 263d e81b ab3d
000002e0: c999 e23c 019b 453d a92e d53d 819e b3bc
000002f0: 3e53 47bc 6ad8 85bd 880a a0bd 8401 4ebd
00000300: d851 be3a b4e8 c8bd b21d 1cbc 4e9b 76bd
00000310: bcee 43bc 1564 c23c 56bc afbb fa19 c33b
00000320: fb87 c53d e5a7 29bd bb6f e53d e0b2 6a3c
00000330: f40e 873d 5bc8 ac3d a745 e13c 78ea 1f3d
00000340: 8a48 29bd e030 143d 69db 2d3d 89c8 28bb
00000350: a023 9c3d ce36 643c 37df 98bc 96d4 543b
00000360: 50f4 abbb 1de7 943d 4668 76bc 2218 f13c
00000370: 5c07 6c3d dfa8 753d f11e c7bb 1938 703d
00000380: e840 3c3c c20a b63c f30a a03d a714 203d
00000390: 2c63 3d3d 297d 943c 08aa fb39 d220 a2bd
000003a0: 1aa2 abbc eb23 dbbc 10e2 003d 0487 6fbd
000003b0: c5f1 f63c 836c 5dbd c08d b8bd a26e 42bd
000003c0: 6e68 c9bd e73e 5bbc 75bc 7dbd 308b 54bd
000003d0: 3661 e7bc 9d55 883c 614b 213d 3142 053d
000003e0: 7a92 4dbc c76e ac3c 865a 693c 5676 a13c
000003f0: 1fe0 8fbb 28ab 4abb b4a7 a83b 9a24 9ebd

decoder.3.bias f4 [16]
-0.024468442 -0.009998621 -0.034503177 0.0013024313 0.08335036 0.039419077 0.07529001 -0.057583876
0.04625077 0.016908744 -0.039348442 0.023987949 0.0067178826 0.015397532 0.033627305 -0.01426733
00000000: 0b72 c8bc 42d1 23bc 3453 0dbd 58b6 aa3a
00000010: 98b3 aa3d e675 213d a631 9a3d 12dd 6bbd
00000020: 7371 3d3d 3584 8a3c d52b 21bd 6082 c43c
00000030: af21 dc3b ee45 7c3c c9bc 093d 85c1 69bc

decoder.4.weight f4 [16]
1.0567425 1.0683532 1.1024319 1.0813845 1.0841608 1.1116774 1.0833209 1.0719963
1.0956368 1.0921729 1.0938159 1.1532085 1.0874329 1.097497 1.1008797 1.108494
00000000: 5743 873f ccbf 883f 7d1c 8d3f cf6a 8a3f
00000010: c8c5 8a3f 724b 8e3f 42aa 8a3f 2d37 893f
00000020: d43d 8c3f 52cc 8b3f 2902 8c3f 569c 933f
00000030: 0031 8b3f c87a 8c3f a0e9 8c3f 22e3 8d3f

decoder.4.bias f4 [16]
0.05341 0.055429067 0.10927273 0.086384274 0.100521445 0.115187615 0.08958324 0.08411831
0.105552204 0.09843519 0.094933145 0.18147722 0.10453185 0.10649098 0.10076936 0.14378296
00000000: 72c4 5a3d 9709 633d 62ca df3d 3dea b03d
00000010: 30de cd3d 7ce7 eb3d 6b77 b73d 3846 ac3d
00000020: c12b d83d 6498 c93d 4f6c c23d 2ad5 393e
00000030: cb14 d63d f117 da3d 2b60 ce3d d73b 133e
