models/ae_conv_conn6.pth (torch, 203766 bytes, 32 tensors)

encoder.0.weight f4 [16, 3, 3, 3]
00000000: 9cbe 67bc 2317 72bd 7830 223e 4a49 183e
00000010: d65c 153e 01e1 dc3d fb37 3c3e 286b 963d
00000020: 3911 f4bd a099 9ebd 2d39 da3c 9158 5c3d
00000030: 6cc3 ccbd 1123 9b3d 8812 01be 85f8 07be
00000040: 2b17 913b 2dd4 f03d 30f2 45be 63d1 ecbd
00000050: 7871 3e3e 9de6 93bd 6cd0 c6bd 87a6 44bd
00000060: 2713 203e 06eb 323e abc8 943d 7900 ae3c
00000070: 9b7a f23d 41bc a6bd 81e2 44be 5130 2fbd
00000080: 026c 41bd 3828 31be 73ef 033d ab5c 10be
00000090: b2f9 c8bd c7e2 01be c953 d63d f11f d1bd
000000a0: e94e 41be ae87 b33d 81d3 4fbe 6615 733d
000000b0: fc51 65bc 38ed c83c 5767 283e a331 f63d
000000c0: e252 93bc 7692 83bd 7e8e 04bd afdc 1bbe
000000d0: 6f7d 52bd bac9 6fbd 4690 143d ec60 0c3c
000000e0: 2fd1 ab3d e549 8bbd cf34 15be ded7 f5bd
000000f0: b04c 163e dfa5 58bd 9ecd 9f3d 20cb b9bd
00000100: f294 d8bd ef9d 1f3d a642 f73d 8c0c a7ba
00000110: 59b7 1cbd a783 7e3d 8e75 6ebd 8fc8 3fbe
00000120: c701 3b3e 7373 1e3e 9de1 403e f3b6 85bd
00000130: bfb3 e7bd 1631 a4bd a9f0 03bd 8ff8 8cbd
00000140: 779c 11bd bf83 c2bc 7f39 99bd 076a 1abe
00000150: ce42 dcbd 9e8a 9dbd cb6f 993d eaec 323e
00000160: 1704 f5bd 75e3 4fbe 4ab5 353e e657 03be
00000170: bd7f 043d 2b15 97bd 1d2d 50be b5bb 22be
00000180: b03b b83d 11b8 1fbe 83ba d4bd 06ba 453e
00000190: f38a 793d 930b 66bd 49bd 7e3c 0679 233e
000001a0: c203 da3d c47d 10be 4d5a 7dbd d654 0a3e
000001b0: 3a2a 3bbe bdaa 153d d8c7 033e 2b18 033e
000001c0: 456d 173e eea0 09bc 405b 4c3b 873f 1b3b
000001d0: 4fd4 013e 96ef 20be e50b 56be 4936 4c3d
000001e0: 62bc 573c 5e32 183e fbc5 7f3e 3e1e c63d
000001f0: b93d e1bd ec61 8dbd 28e3 e43b e764 b33c
00000200: c1a9 9e3d 5f13 a1bd 2603 713e 4fe5 08bd
00000210: 97d6 693d 1d1a 073e 8e93 073e 12be ca3d
00000220: a9b3 e43c 48b8 f53d 8ef5 f43d 179b cd3d
00000230: 98ce 683e c01e cdbd d8ab 733d 45ac e1bd
00000240: f762 2fbe 0c71 b3bd 2d19 a53d d90b 59bc
00000250: dd77 a2bd c661 ab3d 73cf 9c3d afa4 be3d
00000260: 6273 603e 8816 bf3d 215f 5abe c916 963b
00000270: 4919 10bc c202 7c3d be15 9f3c 8325 353b
00000280: 28b0 0e3c c359 bc3d 90a5 25be 6d33 3dbe
00000290: e9bb 94bd 4615 f8ba d911 56be 3e78 64bc
000002a0: 449c 10bd f812 02be fe3e 6cbc 401e 1bbe
000002b0: 035d 2abd f2fb ddbd 18a7 8e3d d60c e5bd
000002c0: 15f4 14be 55ba 93bd 3353 1bbe 3ba6 0dbb
000002d0: ad76 823d 6736 0cbd c4d2 443e be56 a5bd
000002e0: 1cce 9b3d e279 123e cf03 79bc 38c6 183d
000002f0: f6a6 843d b2b9 6d3d dc15 ca3d 672e b6bd
00000300: 515e 46be e57a 143c dded 01be 7006 0cbe
00000310: 7f59 d33c 0b2a 8bbd a61b 4b3c 2a07 5fbc
00000320: 5b67 8cbd 129d 45be 0174 54be 7728 4fbc
00000330: f240 39be e932 74bd 50d6 2e3d 8605 2b3e
00000340: 8279 4d3e dc1b 90bd b40d 393d d29a f13d
00000350: 2d77 26be 20ac 8dbd f483 ec3a b59b 1e3d
00000360: 1831 b3bb fb9f e1bd 57d2 1d3d f438 f5bd
00000370: 7e8e 4ebe 2b32 2c3d 911c b5bd 9300 fcbd
00000380: f41e 00be 0f59 10be e5d6 00be 5235 03be
00000390: c895 f83a 74ff 9dbd 716b 25be 89c6 a9bd
000003a0: c626 3cbd f0f5 46be 9b50 0e3e 7a90 14be
000003b0: 0500 99bd b0dd 0b3e f394 9b3d 08b6 0e3e
000003c0: d60c fe3d 19a1 89bd ff17 0c3e 6006 30be
000003d0: 9b83 e33d a3e7 933d f882 37be 7786 02be
000003e0: f425 23be be53 973d 4009 10bc 34d6 fc3d
000003f0: 6dba 453e b394 a4bd 41d1 8ebd 1027 e0bd
-0.014144566 -0.059104096 0.15838802 0.14871708 0.14586195 0.107851036 0.1838073 0.07344657
-0.119173475 -0.077441454 0.026638592 0.0537954 -0.09998211 0.07575048 -0.12604725 -0.13278396
0.0044278107 0.11759219 -0.19330668 -0.11563375 0.18597972 -0.0722172 -0.09707722 -0.048010375
0.15632306 0.17472467 0.07264837 0.02124046 0.118397914 -0.08141375 -0.1922703 -0.042770687
-0.047222145 -0.17300498 0.03221078 -0.1409785 -0.098132506 -0.12684165 0.104651995 -0.102111705
-0.18877758 0.08766113 -0.20295526 0.05934658 -0.013996597 0.024527177 0.16445671 0.12021186
-0.017983858 -0.064244196 -0.032362454 -0.15220903 -0.051389154 -0.05854199 0.036270402 0.00856803
0.08389508 -0.06801204 -0.14570926 -0.12004064 0.14677691 -0.052892562 0.0780289 -0.09071946
-0.10575284 0.038968977 0.12073259 -0.0012744828 -0.03826079 0.062137272 -0.058217578 -0.18728851
0.18262397 0.15473728 0.18836065 -0.065290354 -0.11313581 -0.08017175 -0.032211933 -0.06883346
-0.035549607 -0.023744462 -0.0748167 -0.15079509 -0.107549295 -0.07692455 0.07492026 0.17473188
-0.11963671 -0.20301612 0.17744938 -0.128265 0.032348383 -0.07377084 -0.2032971 -0.15891917
0.089957595 -0.1559756 -0.10387137 0.19309244 0.060923528 -0.05616338 0.015548059 0.15964136
0.10645248 -0.14110476 -0.061853696 0.13508925 -0.18277827 0.03653978 0.12869203 0.12802188
0.14787777 -0.008400185 0.003118232 0.0023688988 0.12678646 -0.15716395 -0.20902975 0.049856458
0.013167473 0.14862964 0.24977867 0.09673737 -0.10998101 -0.06903443 0.006985087 0.0218987
0.07747222 -0.07865023 0.23536357 -0.03342181 0.057089414 0.13193555 0.13239881 0.09899534
0.0279177 0.119980395 0.11960898 0.10039347 0.2273506 -0.10015631 0.059490055 -0.11019186
-0.17127596 -0.08761796 0.080614425 -0.013247454 -0.07933018 0.08368258 0.07656755 0.09308755
0.21919015 0.09330469 -0.21325351 0.004580353 -0.008795091 0.061526068 0.019419547 0.0027640767
0.008708991 0.09196808 -0.16176438 -0.18476649 -0.072624035 -0.0018927238 -0.20905246 -0.013944684
-0.035305277 -0.12702549 -0.014419315 -0.15148258 -0.04159261 -0.108390704 0.06965464 -0.11184089
-0.14546235 -0.072132744 -0.15168457 -0.0021613974 0.06370292 -0.03423157 0.19221026 -0.080731854
0.076076716 0.14304307 -0.015198662 0.03729841 0.06477158 0.05803842 0.098674506 -0.08895569
-0.19371916 0.009062503 -0.12688394 -0.1367433 0.025799511 -0.067951284 0.012396729 -0.013612548
-0.06855651 -0.19298199 -0.20747377 -0.012643925 -0.18091181 -0.059618864 0.042684853 0.16701326
0.20065883 -0.07036564 0.045179084 0.11797108 -0.162564 -0.06917596 0.0018044696 0.038722713
-0.005468499 -0.11016842 0.038530674 -0.119737536 -0.20171544 0.04204003 -0.08843339 -0.12304797
-0.12511808 -0.14096473 -0.12581976 -0.12813309 0.0018965537 -0.077147394 -0.16154267 -0.08289821
-0.045935415 -0.19429755 0.13897936 -0.14508238 -0.07470707 0.13658786 0.07596769 0.13936627
0.12404792 -0.0672018 0.13681029 -0.17189932 0.11109086 0.072219156 -0.17921054 -0.12746607
-0.15932447 0.073890194 -0.008791268 0.123455435 0.19309397 -0.080361746 -0.06973506 -0.109449506

encoder.0.bias f4 [16]
00000000: 6150 82bc d947 2d3e 8eac c93d ef7b 0a3e
00000010: be19 fdbd 2420 18be 3729 40bd 68a7 4dbd
00000020: 1f0c ac3c 6aa0 f3bc 2e7c 11bd a4e8 be3c
00000030: 81e1 6abd 1848 01be b473 b9bd 3f70 02be
-0.015907468 0.16921939 0.09847365 0.1352384 -0.123584256 -0.1485601 -0.046914306 -0.05020848
0.021001874 -0.029739577 -0.035518818 0.023304291 -0.057343964 -0.12625158 -0.09055272 -0.12738131

encoder.1.weight f4 [16]
00000000: 070a 7c3f eac0 7a3f 12b7 7a3f 0bbc 7b3f
00000010: c6e8 813f c3fa 813f bfb8 7d3f ea05 7f3f
00000020: b50b 7c3f e180 7f3f a0c3 7c3f eb75 833f
00000030: b722 853f aea2 803f 3de3 773f a059 7f3f
0.984528 0.97950613 0.97935593 0.98333806 1.0149162 1.0154651 0.99110025 0.996184
0.98455364 0.9980603 0.98736 1.0270361 1.0401219 1.0049646 0.96831113 0.9974613

encoder.1.bias f4 [16]
00000000: 589f 4abc 39d3 e8bb 0f5d 483c dd43 993b
00000010: ea87 a13c 5e6d be3c 5253 8f3d 5c05 183d
00000020: eecf 3ebc 7b2f cf3c 3442 883d 2afa 633d
00000030: 73d4 a33c 9317 1d3d c291 083d 88a1 033c
-0.012367092 -0.007105258 0.012229218 0.0046772794 0.01971813 0.02324551 0.06998314 0.037114486
-0.011646254 0.025291195 0.06653252 0.055658497 0.019998765 0.03835256 0.03334213 0.0080341175

encoder.1.running_mean f4 [16]
00000000: 48b1 753e fa06 aebe cfc5 7d3c 0cfc 23be
00000010: 2681 a63e c0f6 6f3e 9280 10bf fac4 e0be
00000020: 2d9a 0bbf 5b8b 3bbe cecc 94be 816a 923e
00000030: fb3e 3e3e 10dc dcbe a8b2 a9be 1b5d d4be
0.23993409 -0.33989698 0.015489056 -0.16014117 0.32520407 0.23433971 -0.5644618 -0.4390028
-0.5453213 -0.18314879 -0.29062504 0.2859688 0.18578713 -0.43136644 -0.33144116 -0.41477284

encoder.1.running_var f4 [16]
00000000: 74e6 c33c 7780 c43d d78e b33b 102e 033d
00000010: a328 943d 74f7 513d 2fcf c13d 628c 5e3d
00000020: 5a84 e33d 581a 183c e2e8 cb3c d512 cb3c
00000030: 8217 c83c 123b 163d 78a1 b83c 2569 fc3c
0.0239136 0.09594815 0.0054796743 0.03202635 0.07234313 0.05126138 0.09463345 0.0543331
0.111092284 0.009283625 0.02489132 0.024789253 0.024425272 0.036677428 0.022537932 0.030811856

encoder.3.weight f4 [32, 16, 3, 3]
00000000: 1ace 82bd cc8f 94bd 3838 113c ec51 acbd
00000010: 6b46 bcbd 086c 463d eeac 9ebd 9374 94bc
00000020: 52ed 533c a138 aebd 870f e3bc a6a4 4e3b
00000030: fe96 de3c 76d6 b9bc 8e29 babc de1c 0abd
00000040: 6612 62bd e779 903d baf5 843c 247a 963b
00000050: cc63 61bd e243 ad3d 6058 c53d cc40 983b
00000060: 725b e1bb b10e 133d e91b 33ba 4f58 dc3b
00000070: bf04 7fbd 130b 6abd 3f41 803c b60f 423d
00000080: 0968 80bd 657b 24bd 2b04 d03c e2f7 253d
00000090: 8599 493d 1f09 c6bc 08f8 b9bc 4782 92bc
000000a0: b776 fbbc 8589 34bd c45d 96bc dde6 35bd
000000b0: 3215 ce3c 920a 6dbd 6286 a2bd 26e0 a03d
000000c0: bae3 893b f104 cc3b 074f 64bb eb87 843d
000000d0: eb33 59bd 786a 5e3d 56d2 5f3d 7acd 903d
000000e0: 132d 103c 028c 373c c8eb 933d 7dcf ca3c
000000f0: 54be 94bd 01ab 27bd 468e dabc 9e64 21bd
00000100: 5644 3abd 5ce9 6f3d 58fc 05bd 2307 5b3d
00000110: 6b75 3abd c811 6bbd be0b 0bbd cb35 55bc
00000120: a047 30bd 2f84 843d 22e6 503d 4a30 163d
00000130: 4f5c ecbb f9d2 52bd 31b6 7d3d 505d 903d
00000140: 0174 97bd 70f4 75bd 4f71 283c c2d4 c1bd
00000150: 5ae6 e0bc af62 d33d fcfc 01bd ecca 14bd
00000160: 2019 db3c 900c 9fbd 2bea 0cbc bba5 81bd
00000170: 5286 7abd 33a4 22bc 8387 f9bc 2e41 463d
00000180: 85eb 4a3c ea42 4dbb c086 fcbb 2ccf e3bb
00000190: 2a6e 443d 6bad c93d 728b bf3c f64f ecbd
000001a0: f8c1 963d 1d47 f2bc f61a b4bd 7655 cfbc
000001b0: 5dd1 953d f2f4 8a3d a096 6cbc 76e7 8d3c
000001c0: b928 bfbd f43e 8dbd a877 723d 4af2 35bd
000001d0: 86fb 943d 6d94 82bd e6d3 d53d ea55 1e3d
000001e0: 6c92 8ebc 912a 22bb 7b02 153c 9b17 d0bd
000001f0: 19f3 25bd 1f50 5e3d 695c 5b3d 91f4 e53c
00000200: 8e08 76bc 0f21 933c d35a 85bd cda8 fb3c
00000210: 6238 a63c be1c 47bd caa5 1bbd 96b7 0f3d
00000220: b83e 153c 5d36 92bd 7fec 223d 3a0e 61bd
00000230: 6380 833d a631 05bd 68c9 523d 994a 183d
00000240: 2fa6 963c 91f8 5d3d 0d85 dcbc 57a6 c6bc
00000250: 5c1b da3d ab9b a23d 5bd1 cbbc 462e eabc
00000260: 99bd 433c a607 093d 6491 3bbc 3c3a 3fbd
00000270: 1bc6 8a3d 33fd 81bd 649d 973a edce 3dbd
00000280: b2a7 26bb 823d 64bd c820 0a3d bc55 72bc
00000290: 3d23 843d 87f0 473d 048d 7fbc a231 e6bc
000002a0: 38df 883d 695f d13c 5c46 3c3d 10f4 fcbc
000002b0: a6f7 343d 5f34 72bc a0c9 71bb 5af9 04bd
000002c0: 4240 54bd aa3d 183d 1f76 d8bc f027 c43d
000002d0: bf92 8dbc c990 26bd 2ec9 e33c 53eb 9bbc
000002e0: acbc 823d 1cce b33d 6081 82bc 0d5f 573d
000002f0: de3e 77bd 4dea 41bd 85ad d23c cd89 043d
00000300: 5a15 113d 4da7 223d 2b08 89bd 3e2c 463c
00000310: 8965 943d 988c cbbc d27b 693d 4889 debc
00000320: d88f babc 4edc 3fbc e034 833d 28c4 ff3c
00000330: e848 913d 8b26 84bc e652 80bd b599 383d
00000340: 06c3 79bd cffd 3cbc 6f0f f0bc 72cd 0fba
00000350: e2a6 2ebb 57ed 733c c83b 87bd bbdd df3b
00000360: c636 90bc 1d03 843d 072d b53d 3dc1 9bbc
00000370: 58f1 8dbd 0ae6 b4bc 0331 7cbd 9d29 4ebd
00000380: 4ac8 1fbd d45f 66bd 4a9e 9bbc 84ad 31bc
00000390: beda 2e3d 2c65 a6bc 03ca b23c c56b 423d
000003a0: 62e9 a8bc 1e3b a6bc 5781 8d3d a0b8 b0bb
000003b0: 3c5b 843d 5b03 eb3c 7ae6 e43b 9f25 193d
000003c0: 3dd2 46bd 1e02 873c 3d67 873d 9697 393d
000003d0: 03d9 98bd 44b3 99bd 3d44 763c b656 623d
000003e0: cbc7 d0ba 723c 55bd de4c 383d 1e43 ac3d
000003f0: 70e8 533d 05d7 cc3d 62b6 94bd 72ad 81bc
-0.06386967 -0.072539896 0.008863501 -0.08414063 -0.09193119 0.04844287 -0.077478275 -0.018121993
0.012935 -0.08506895 -0.027717365 0.0031531244 0.027171608 -0.02268527 -0.022724893 -0.033718936
-0.055193327 0.07054501 0.016230453 0.004592197 -0.055026814 0.08460213 0.09635997 0.0046463963
-0.006877356 0.035902683 -0.0006832467 0.0067243944 -0.062260386 -0.057139467 0.015656112 0.047378264
-0.06269843 -0.04015674 0.025392612 0.040519603 0.049218673 -0.024174271 -0.022701278 -0.017884387
-0.030696256 -0.04407646 -0.018355258 -0.04440962 0.025156591 -0.05787141 -0.07935788 0.07855253
0.0042080553 0.006226175 -0.0034837143 0.06471237 -0.05302803 0.054300755 0.05464395 0.070704415
0.008799809 0.011202814 0.07222706 0.024757141 -0.07262865 -0.040934566 -0.02667917 -0.039402597
-0.045475326 0.05857216 -0.032711357 0.053473603 -0.045522135 -0.057390004 -0.033946745 -0.0130133135
-0.043037057 0.064705245 0.05100072 0.036667146 -0.0072131525 -0.05147073 0.06194133 0.07049048
-0.07395173 -0.060047567 0.010280921 -0.094644085 -0.02745359 0.10321557 -0.031735405 -0.036326334
0.026745379 -0.07766068 -0.008600752 -0.06330439 -0.061163254 -0.009926843 -0.030460125 0.048402004
0.012385254 -0.0031320401 -0.007706493 -0.006952187 0.047956623 0.0984753 0.023381922 -0.11538689
0.07361215 -0.029574925 -0.08794205 -0.025309306 0.073153235 0.06785001 -0.014440209 0.017322283
-0.09333939 -0.06896773 0.059196144 -0.044420518 0.07274537 -0.06375966 0.10440807 0.038656153
-0.017403804 -0.002474461 0.00909483 -0.101607524 -0.04051504 0.05427563 0.053554926 0.02807072
-0.015016688 0.0179601 -0.06511464 0.030720139 0.020290557 -0.048611395 -0.037999906 0.03508719
0.009109192 -0.07139275 0.03977632 -0.054945208 0.06420972 -0.03251805 0.051461607 0.037180517
0.01838979 0.05419213 -0.026918912 -0.024249239 0.1064975 0.079398476 -0.024880102 -0.028586518
0.011947059 0.03345456 -0.011448238 -0.046686396 0.06776067 -0.06347122 0.0011567292 -0.046339918
-0.0025429544 -0.05572272 0.03372267 -0.0147909485 0.06452034 0.04881337 -0.015597586 -0.028099839
0.066832006 0.02555819 0.045965537 -0.030878097 0.04418149 -0.014782994 -0.003689386 -0.032464363
-0.051819094 0.037168182 -0.026423512 0.0957793 -0.017281888 -0.04066542 0.02780589 -0.01903311
0.063836426 0.087795466 -0.015930831 0.052580882 -0.06036269 -0.047342587 0.025717506 0.03235798
0.035420753 0.03971033 -0.06691011 0.012095509 0.07245929 -0.024847314 0.05700285 -0.02716507
-0.022773668 -0.01171024 0.064065695 0.031221464 0.07093984 -0.01613166 -0.062658116 0.04506846
-0.060977004 -0.011535122 -0.029304234 -0.0005485631 -0.0026649763 0.014888129 -0.06603199 0.0068318523
-0.017604243 0.06445906 0.08846479 -0.019013042 -0.06930798 -0.022082347 -0.06157018 -0.050332654
-0.03900937 -0.056243733 -0.018996377 -0.010844592 0.042689078 -0.020311914 0.021824842 0.04746606
-0.020619098 -0.020291861 0.06909435 -0.0053931028 0.06462714 0.028688123 0.0069854828 0.037389394
-0.048540343 0.016480502 0.06611488 0.04531058 -0.07463267 -0.07504895 0.015030918 0.055258475
-0.0015928684 -0.0520596 0.04499518 0.08411239 0.05173534 0.10001949 -0.07261349 -0.015829775

encoder.3.bias f4 [32]
00000000: 19f2 923d 7190 73bd 88f5 72bd a3a4 9d39
00000010: 5d9e 6e3d a2d3 7c3d f228 9d3d a0d9 273d
00000020: 4556 563d 8554 9d3d e35e 64bd 2f90 a6bd
00000030: 438a c9bc f6e2 8ebd 28c2 5ebc b95b 343d
00000040: 40f9 7c3d 5ec4 64bd 7d6e a6bd c790 7c3c
00000050: 9f05 a4bd 45c0 9b3d 51d7 c5bb d3f0 cd3c
00000060: ae52 613d b236 8a3d 4e79 28bb 0060 80bd
00000070: c4b3 94bd 1c01 793d e0a1 6abd 4c90 a8bd
0.07175083 -0.059463922 -0.059316188 0.00030068037 0.058256496 0.061725266 0.07673825 0.040979028
0.052328367 0.076821364 -0.055754554 -0.081329696 -0.024602061 -0.06976883 -0.013596095 0.044032786
0.06176114 -0.055851333 -0.08126543 0.015415377 -0.08008885 0.07605032 -0.0060376306 0.025139248
0.05501049 0.067487136 -0.002570707 -0.062683105 -0.0726085 0.060792074 -0.057283282 -0.082306474

encoder.4.weight f4 [32]
00000000: 95f1 7a3f a357 833f 7246 803f bf05 7c3f
00000010: b866 7c3f 300e 823f c439 813f c58f 7e3f
00000020: 083e 803f 9705 823f 0194 813f 9c30 7f3f
00000030: c266 803f 2498 7e3f f352 783f 6a91 7e3f
00000040: 996f 7f3f 8d2c 813f 7a74 813f 620d 813f
00000050: fe59 7e3f 5234 803f 193d 7c3f 9b6a 823f
00000060: d2e6 7d3f 4079 7f3f c3c6 7b3f c64a 763f
00000070: 55ee 813f a114 7b3f df4d 823f f9a5 7a3f
0.98024875 1.026112 1.0021498 0.9844627 0.98594236 1.016058 1.0095754 0.99438125
1.001893 1.0157956 1.0123292 0.9968355 1.0031359 0.994509 0.9700157 0.99440634
0.9977966 1.0091721 1.0113671 1.0082209 0.9935607 1.0015967 0.9853073 1.0188783
0.9918033 0.9979439 0.9835016 0.96207845 1.0150858 0.9807835 1.0180014 0.97909504

encoder.4.bias f4 [32]
00000000: 877f bf3d 7f5c a43c 6f70 84bb 460d 73ba
00000010: c51e 5d3c 39e1 663d 30ee f13c d9b0 84ba
00000020: 779d c93c 9090 ba3c af8d 273b 3fcd f73c
00000030: 25d3 bd3b 4c5c 0cbc cca3 23bb 8bad 653c
00000040: b862 fc3c a542 9e3c 8259 a33c b5b5 153c
00000050: b0ab 5dbb 9a29 d73a 15ac 243c 258e 5a3b
00000060: 24cd fe3c 8d07 b3bb 0228 4f3d 0203 5dbc
00000070: 7e53 b23d 71f6 99bc 3ef7 8f3d da7e 023c
0.09350496 0.020063637 -0.0040417234 -0.0009271692 0.013496106 0.056367133 0.029532522 -0.0010123505
0.024611218 0.02277401 0.0025566628 0.030249236 0.0057929927 -0.008566927 -0.0024969457 0.014018427
0.030808792 0.019318888 0.019940142 0.009137561 -0.0033824258 0.0016415596 0.010050793 0.0033348885
0.031103678 -0.0054635466 0.050575264 -0.013489487 0.08707331 -0.01879427 0.070295796 0.007964814

encoder.4.running_mean f4 [32]
00000000: dbc8 6bbe 054e 033f 1872 813f badd c83d
00000010: 1407 c23e 2823 093e 0cf0 2c3e a336 7ebe
00000020: 973a 123d 5c96 aabe a4b9 6abe f64d f2bd
00000030: 1388 60bc 68a2 adbe 3220 b4be 5a30 e03e
00000040: fb19 8bbd 21ef 57be 72f4 21bd 1ad7 813c
00000050: 0f92 aa3d 44a5 04bd 1db9 78bd efc6 633f
00000060: 7b43 3a3e 1dd3 2cbe b673 6bbd 8f76 96bd
00000070: 6d23 f2be 23c1 c53e 50cc 21be 01d9 a3bd
-0.23025839 0.51290923 1.0112944 0.09807916 0.37896025 0.13392317 0.16888446 -0.2482553
0.035700407 -0.3331784 -0.22922379 -0.11831276 -0.013704318 -0.3391297 -0.35180813 0.4378689
-0.06792065 -0.21087314 -0.03953976 0.015849639 0.0832864 -0.032384172 -0.060723413 0.88975424
0.18189804 -0.16877408 -0.057483397 -0.07346832 -0.47292653 0.38623914 -0.15800595 -0.080003746

encoder.4.running_var f4 [32]
00000000: 8f3c 913d 2c66 e53d fb96 7d3e c64c 053e
00000010: 8dbc 1e3f 61de 003e e164 093f 877d 9f3e
00000020: e776 713f 797c 023f 5f4a 003f 0581 053e
00000030: f109 6d3e da8a bf3e da2b c33e 68c6 2c3f
00000040: e7ac d23e 07a2 bb3f 2e55 bc3e f54d 263f
00000050: 752c 943d 5955 c33e 3893 033e 0e2c 963e
00000060: 1e50 763f 9b58 4c3e 8ad0 633d 894f 963e
00000070: 3049 5e3e 0f43 013f 803a 933e 82fa 9c3e
0.07091629 0.11201128 0.24764626 0.13017568 0.62006456 0.12584831 0.53669554 0.31150457
0.94322056 0.5097118 0.5011348 0.13037498 0.23148324 0.37410623 0.38119394 0.67490244
0.4114754 1.4658822 0.36783737 0.64962703 0.07235042 0.38151053 0.12849128 0.29330486
0.96216 0.19955675 0.0556188 0.29357556 0.21707606 0.5049295 0.2875557 0.30659872

encoder.6.weight f4 [64, 32, 3, 3]
00000000: 9fdf b43c 78e3 b2bc 4f20 d7bb 6c9c 433d
00000010: b004 9d3d 3902 57bd b3c0 00bd 7e48 f13c
00000020: 2df4 b9bc f3b0 2ebc fe6e 72bc b1b5 e3bb
00000030: 60cc 9d39 f373 3fbd d86f 6f3d 2994 ac3d
00000040: 971d 203c 5958 5e3d d080 943c 1f89 113d
00000050: a103 743d 71b7 bdbc 1381 1b3c 7889 213c
00000060: 1300 1d3d 3217 a3bc d04b bb3c ac04 f3bc
00000070: 8877 23bd 6886 d33c be67 96bd 478e ba3b
00000080: 649c bcbc f925 233c 067d cabd f107 933d
00000090: 8dcc 0cbb b493 4a3d 79d4 d2bb 876b c13c
000000a0: 2401 043b 2271 e8bc 2b2f 13bd 2d63 273d
000000b0: 26e1 bd3c 60cd 053d c9c0 aebd 94d0 723c
000000c0: e806 4fbc efbf 7bbc 9cfb 30bc 895c d6bc
000000d0: 0290 e1bc 4d54 32bd 70b0 04bd 33f4 7b3b
000000e0: 967e 223d 0a17 65bd 4f2c fdbc 8813 913d
000000f0: 2b21 94bc 0393 393d b2ac 13bd 237e 15bd
00000100: 912d 063d 4351 04bd a712 513d 8ebd 69bc
00000110: b283 55bd b32d 1fbd 82e5 25bb 3f69 7ebd
00000120: 1b92 63bc 58c1 30bd dc20 41bc 8b65 6abd
00000130: 97eb 54bd 9eb2 9dbc 3a58 8c3c 25a8 0b3d
00000140: 7def 05bd a2ff 11bd 12a6 153b 1347 9c3b
00000150: c12e ef3c 00d3 d73c a043 a7bd 2f0a 143d
00000160: c6ac 863c c870 b93c 4dfd 52bd e969 d73c
00000170: 2039 32bd 96ca c43c f8aa 39bd 689e d1bc
00000180: 8331 50bd cdf0 64bd 239d a13c 198d 5c3c
00000190: cce5 293d 7d2a a0bc 63aa 83b8 3716 313c
000001a0: 05db 40bc 18bf 973d 424b bebc 25c1 953b
000001b0: 4ae1 05bd 8826 58bd 52b5 dd3c ccf3 8cbd
000001c0: c579 1dbd a0ef 8d3c 4c59 553c 913e 50bd
000001d0: fc2c 043d a0fc 78bd a2ac 27bd f03e 10bd
000001e0: 7970 023d f4b5 c4bd bf2f fbbc 8fae 00bd
000001f0: 1ff8 babc 2fd3 15bd e157 263d 9e35 1fbd
00000200: 47b6 c5bc b9c8 7c3b 9ef8 643c ec85 2fbc
00000210: b479 c6b8 c460 0c3d 6dcb cfba 5e46 483b
00000220: 9b50 86bd 7663 07bd c88f 57bc 8bd1 683c
00000230: 0a8a ee3a 0c1c 4a3b e747 3c3d c581 09bd
00000240: 7d4e ddbc d2c3 4ebd 2904 fbbc 3da0 ac3d
00000250: 71ae 8cbc 12ad b1bd 9a5e b3bc fcc9 7abc
00000260: 1719 f6bc 119c 0cbc 23d4 36bd 3490 bb3c
00000270: d062 263c 4a8a abbc 29ec cb3c 173d 05bd
00000280: a55f 153d a3c2 73bd 1987 06bc d587 843c
00000290: bda7 363d f0a1 e2bc c4fc e8bc a2be 90bd
000002a0: edba c0bb 95c0 343d 9e31 523a 35e4 65bd
000002b0: f891 6e3a 6471 05bc 9539 b2bc 697c 84bd
000002c0: 8275 04bd 194c 4d3c 55f0 14bd fd9b 193d
000002d0: 31f5 8bbd 63e6 573b 1d29 2e3d ebb6 04bc
000002e0: 9aea a6bd 5d84 40bd 6cf3 db3c 8306 cd3c
000002f0: da28 51bd 45de b9bb 631c b5bc 3c39 563b
00000300: f028 54bc 2ff2 773c 78c5 793d 0d42 2fbd
00000310: 7f82 763c 3022 0dbd caf5 0dbd 5358 faba
00000320: 0ef8 54bc 91a9 7abd d856 f9bc 93da b73a
00000330: 6a42 9bbc b9fd 103d 92aa 19bd 5e5e 673d
00000340: 8f5f f7bc eb93 873c c1b9 2e3d a3d5 08bd
00000350: fd39 33bd 382f 67bd 89ac 80bc e11d c83c
00000360: 5558 15bd f1b0 543b 843b 443d 088f 653d
00000370: 2b86 f23c 3db8 84bd 5b31 2fbc 2ffb 863a
00000380: 8ec9 d23b 1947 aebc aa8a 83bc 2ffb a9bc
00000390: 62b2 43bd 8703 113d 5037 693d 63d8 7abc
000003a0: 6a68 a63c 4f7f 903c 1830 53bd a113 4e3d
000003b0: 5fb5 15bd a273 5abb bcc3 57bd 4728 6e3d
000003c0: 4a0c 87bc 859f 1b3d e103 66bd 1828 94bc
000003d0: 752d 3cbd 49f4 19bd 36b3 5ebd a472 d2bc
000003e0: ea2b 633c 2daa 593c b29b 82bc b99f 7f3c
000003f0: 9dfe 563c 7c35 de3a dd39 33bc d11f dd3c
0.022079287 -0.021836981 -0.006565131 0.047756597 0.0766691 -0.052492354 -0.031433772 0.029453512
-0.02269944 -0.010662305 -0.01479697 -0.0069491495 0.00030097645 -0.046741437 0.058456272 0.08426697
0.00977268 0.054283474 0.018127829 0.03553116 0.059573773 -0.02315876 0.009491223 0.009859435
0.03833015 -0.019908521 0.022863299 -0.029665314 -0.039908916 0.025820926 -0.07344006 0.0056932303
-0.023023792 0.009957784 -0.098871276 0.07179249 -0.0021484226 0.049457267 -0.00643402 0.023610843
0.0020142281 -0.028374258 -0.035933655 0.040866066 0.023178648 0.032666564 -0.085328646 0.014820237
-0.012635924 -0.015365585 -0.010802176 -0.026167171 -0.027534489 -0.043537427 -0.032394826 0.0038445115
0.039671503 -0.055930175 -0.030904917 0.070838034 -0.018082222 0.045306217 -0.036053367 -0.036497246
0.0327583 -0.03230406 0.05104318 -0.014266385 -0.052127548 -0.03886194 -0.00253138 -0.06211209
-0.013889815 -0.043153137 -0.011787619 -0.057225745 -0.05198249 -0.01925021 0.017131913 0.034095902
-0.032699097 -0.03564418 0.0022834581 0.004769215 0.029197099 0.02634573 -0.08167195 0.036142524
0.016439807 0.022636786 -0.051511098 0.02629562 -0.04351151 0.024022382 -0.045329064 -0.02558823
-0.050828468 -0.055893708 0.019728249 0.013461375 0.041478917 -0.01955151 -6.278304e-05 0.010808519
-0.011770968 0.07409495 -0.023229245 0.0045701438 -0.032685556 -0.05277112 0.027064 -0.06882438
-0.038446207 0.017326176 0.013021778 -0.050840918 0.032269463 -0.060787797 -0.04093612 -0.035216272
0.031845544 -0.09605017 -0.030662416 -0.031416472 -0.022823391 -0.036578353 0.04061115 -0.038869493
-0.024134768 0.0038571788 0.013975291 -0.010713082 -9.464045e-05 0.03427197 -0.0015853472 0.003055952
-0.06558343 -0.033053838 -0.013156839 0.014210115 0.0018199098 0.003083947 0.04596701 -0.033571023
-0.027014965 -0.050479718 -0.030641632 0.084290005 -0.017173024 -0.08675589 -0.021895695 -0.015306946
-0.03004126 -0.008582131 -0.044635903 0.02289591 0.010155395 -0.020939965 0.024892883 -0.032528963
0.036468167 -0.059511792 -0.008210921 0.016178051 0.04459356 -0.027665108 -0.02844084 -0.0706761
-0.0058816583 0.044128973 0.0008018258 -0.05612584 0.00091007305 -0.00814471 -0.021755973 -0.06469042
-0.032338627 0.01253035 -0.03636201 0.037502278 -0.06833876 0.0032943718 0.042519677 -0.008100252
-0.081502154 -0.04700123 0.026849471 0.02502752 -0.05106435 -0.0056722485 -0.022108262 0.0032687923
-0.012949213 0.015133425 0.060979337 -0.0427876 0.015045761 -0.034456432 -0.03465823 -0.0019099809
-0.012998594 -0.061196867 -0.030436918 0.0014026932 -0.018952567 0.03539822 -0.037516184 0.05648648
-0.030196933 0.016550025 0.042657617 -0.033406865 -0.043756474 -0.056441516 -0.015707271 0.02442831
-0.036461193 0.0032454098 0.04790832 0.05604461 0.029604992 -0.06480453 -0.01069292 0.0010298247
0.0064327186 -0.021274136 -0.016057331 -0.020749656 -0.04777754 0.035403755 0.056937516 -0.01531038
0.02031346 0.01763883 -0.051559538 0.05031169 -0.036549922 -0.0033333083 -0.0526769 0.05814388
-0.016485352 0.037993927 -0.056156043 -0.018085524 -0.04594179 -0.037586484 -0.054370128 -0.02568943
0.01386545 0.013285202 -0.015943382 0.015602046 0.013122228 0.0016953195 -0.010939089 0.02699271

encoder.6.bias f4 [64]
00000000: 7752 6f3d 84b9 4f3d 89c0 82bc d874 103d
00000010: 17fb 1bbc 3970 3abc 36aa bd3b cf94 24bd
00000020: 985c 333c 0bea 373c 24a9 8e3b c576 12bd
00000030: 1df0 1f3d 70dc 46bd 612d 13bc 07f4 ddbc
00000040: b6be 24bd 073b f5bb 5f20 553d 3c4e 1d3d
00000050: f62d 55b8 d152 df3c 7389 dbbc ca20 213d
00000060: 3ca7 563d ee38 c83c 80b9 f73c 53ef 5c3d
00000070: ac30 8bbb 628f 893b b9cb 05bd 646c 0b3c
00000080: 633f 26bd d25f 2bbd c0d4 6e3d 295b ccbc
00000090: f896 373d 3662 d0bc 65f3 09bd 78dd 823b
000000a0: f9dd 003d 5c8c 7a3b 9c48 6bbd e404 9c3c
000000b0: a0a7 24bd e37b 983c b45f 0ebd aacb 61bd
000000c0: 0bc7 a23a db32 6abd 0ceb 6cbd 4789 7e3c
000000d0: fa3d 393d 47dd 0cbd e0bd cabb 25f5 363d
000000e0: a2f6 8a3c 8c87 cc3c 2a74 7ebc f266 303d
000000f0: 099e 4cbc cfe8 81bc 80ee bf3c 3909 4dbc
0.058428254 0.05071403 -0.015960949 0.03526768 -0.009520314 -0.011379295 0.005788113 -0.040180977
0.010947369 0.011225234 0.004353659 -0.0357578 0.03904735 -0.04855007 -0.008982987 -0.0270939
-0.04022094 -0.0074838432 0.052032825 0.03840469 -5.082596e-05 0.02726117 -0.02679894 0.03933791
0.05240558 0.024441209 0.03023982 0.053939175 -0.0042477455 0.0041980008 -0.03266499 0.008509729
-0.040587794 -0.04183943 0.058308363 -0.024945812 0.04482171 -0.025437456 -0.033679385 0.0039936863
0.03146169 0.0038230633 -0.057442293 0.0190453 -0.040198922 0.018613761 -0.03475924 -0.05512587
0.0012418939 -0.057177406 -0.057841346 0.015535659 0.04522512 -0.034390714 -0.0061871856 0.04466738
0.016963307 0.024966978 -0.015530625 0.043066926 -0.01248885 -0.015858082 0.023429155 -0.012514406

encoder.7.weight f4 [64]
00000000: f51c 7d3f b690 803f 0374 763f 93b2 7e3f
00000010: 0a97 7e3f b271 7e3f dce8 753f 61cf 763f
00000020: 3327 803f 5552 823f ed4b 823f d2e1 7d3f
00000030: e3ec 843f ca58 7e3f 23db 813f 26ee 7d3f
00000040: 7784 803f 2203 803f 8a0e 803f e161 7b3f
00000050: cd53 793f 5864 803f ebd5 7a3f 3e79 803f
00000060: 301e 803f b74c 7c3f 9784 7b3f c376 7f3f
00000070: 385f 853f c5b7 7d3f a846 7e3f dc01 853f
00000080: 32c9 7d3f c4fe 813f 1bff 7d3f 5368 803f
00000090: 91e9 803f 9b84 823f e98b 7c3f 9033 7f3f
000000a0: 8f97 803f adcd 793f 7e54 7c3f 02ff 7c3f
000000b0: f91d 7c3f 7376 803f 52c3 813f 2f65 853f
000000c0: 6a7d 7d3f a799 7e3f b0c9 803f d9d8 823f
000000d0: 976c 7f3f e891 7b3f 997e 7d3f ae1e 7d3f
000000e0: cd34 7f3f 5d48 7c3f 209f 803f a4d5 803f
000000f0: 95a4 863f b8f2 823f bbff 7d3f 7f3f 7c3f
0.9887231 1.0044162 0.9627077 0.9949123 0.9944922 0.99392235 0.9605844 0.96410185
1.0011963 1.0181376 1.0179421 0.991727 1.0384792 0.9935423 1.0145 0.9919151
1.0040425 1.0000956 1.0004437 0.98196226 0.97393495 1.0030622 0.9798266 1.0037
1.0009212 0.9855456 0.9824919 0.9979059 1.0419683 0.99108535 0.9932656 1.0391192
0.99135125 1.0155873 0.99217385 1.0031837 1.0071279 1.0196718 0.98650986 0.99688053
1.0046252 0.9757946 0.98566425 0.9882661 0.98483235 1.0036148 1.0137732 1.0421504
0.9901949 0.99453205 1.006155 1.0222427 0.9977507 0.9826951 0.990213 0.9887494
0.9968994 0.9854792 1.0048561 1.0065198 1.0518976 1.0230322 0.9921834 0.9853439

encoder.7.bias f4 [64]
00000000: bbc3 1d3d 1bab ba3b 2486 cd3d ed5b b73c
00000010: f559 943c af27 533d 3927 63bd 6bf1 4f3d
00000020: 3da0 9a3b d3cf fe3c 5944 5b3d dc13 893b
00000030: 7790 8a3d e211 ef3c 624f 333d 8d5a a73c
00000040: c8eb 2f3d 31ff 133d 1686 f43c 9ee9 dc3d
00000050: 96ed 5bbc 1789 323d af4f 163d 0741 983c
00000060: 46f9 583d 08ba e03c 871f 813d 7610 38bc
00000070: 9fff 9a3d 482e 8c3d 7e7b ad3c a182 f53d
00000080: 79fa 303d 0a2a 183d 3ff1 3d3c e88f 953c
00000090: 1af8 8e3b 4c75 bc3d e3c0 c2bc e059 133c
000000a0: f80d ac3c 5979 d0bc ee01 8abb fa3b a139
000000b0: a040 a53b 82ca 1e3d 3418 973d a279 053e
000000c0: 9df0 51bc 6972 19bc 8c3c 4fbb 1743 ad3d
000000d0: 2cae 013c 133a 9c3c 8624 1abc 8afa abba
000000e0: bac1 da3c fa6a 4a3c 1c98 963c 5011 bd3c
000000f0: 3977 c53d 7d37 623d 1c60 8a3c 5cee a53c
0.03851674 0.005696667 0.10035351 0.0223827 0.018109301 0.051551517 -0.055457328 0.050767343
0.004718809 0.031104958 0.05353198 0.0041832756 0.06765836 0.029183332 0.043776877 0.02042892
0.042949468 0.03613204 0.029849093 0.107867464 -0.013423344 0.04358777 0.036697086 0.018585695
0.0529721 0.027432457 0.063048415 -0.011234393 0.07568287 0.06844765 0.02117705 0.11987806
0.04320762 0.037149467 0.011593162 0.018257096 0.004363072 0.0920206 -0.023773616 0.008993596
0.021002755 -0.025448488 -0.004211656 0.00030753 0.0050431043 0.038767345 0.07377663 0.1303468
-0.012813714 -0.009365656 -0.0031621782 0.08460062 0.007915061 0.01907066 -0.009408122 -0.0013120931
0.026703704 0.012354607 0.018383078 0.023079544 0.096418805 0.0552287 0.016891532 0.02025526

encoder.7.running_mean f4 [64]
00000000: bc4d 22bf 9bf4 b23d bd23 05bf dcf1 31bd
00000010: a27d 5e3d a58e 6fbe 43ec a63e b977 22be
00000020: 096b 89be cce8 7fbe 754f a5be 7c24 15be
00000030: fc74 553d 4c67 b93c 8be9 e83e 3235 b1be
00000040: f08c 723d 33d1 9abd 2195 923e 2601 94be
00000050: a6f2 a7be a713 66be 9182 ccbe 7d54 0dbf
00000060: df80 433e be51 f8bd a882 dc3e 1361 f3bd
00000070: f15c 19bf cce0 72be 1d70 b13e 865e dabe
00000080: 5d1a 8cbe 99b6 fabc 3774 2a3f 42c6 edbd
00000090: 7fde 213f d3b8 3dbf f2e7 373f e01a 343d
000000a0: ec62 08bf 3853 23be a8be a53d fa00 2ebc
000000b0: 5f72 dcbd 1943 debe 623e b1be 488b 3e3d
000000c0: 970e a33e 4883 883e 3685 7dbe d499 ecbe
000000d0: 7792 cebd b841 04bf f132 763f 29db a8bd
000000e0: 4fe9 973e d256 04bf 1553 69bf 1f33 d2be
000000f0: fc37 fabe 2c51 703e 0477 ab3d 476f c93e
-0.63399863 0.08738061 -0.5200766 -0.043443546 0.05431903 -0.23394258 0.32602128 -0.15865983
-0.26839474 -0.24991149 -0.32287183 -0.14564699 0.052113518 0.022632264 0.4549068 -0.34610897
0.05921644 -0.07559433 0.286294 -0.28907126 -0.32802314 -0.22468434 -0.39943364 -0.55207044
0.19092129 -0.12124966 0.43068433 -0.1188375 -0.5990744 -0.23718566 0.34655848 -0.4265024
-0.27363864 -0.030604647 0.6658358 -0.1161008 0.6323013 -0.74110144 0.71838295 0.043970942
-0.5327594 -0.15949714 0.080930054 -0.01062035 -0.10764002 -0.43410566 -0.34617907 0.046519548
0.3184707 0.2666266 -0.24757847 -0.46211112 -0.1008653 -0.5166278 0.9617148 -0.082449265
0.29670188 -0.5169498 -0.911424 -0.41054627 -0.48870838 0.23468465 0.0837231 0.3934271

encoder.7.running_var f4 [64]
00000000: c1e2 163f ba06 963f 0327 aa3e 9d07 ab3e
00000010: 5467 5d3f b810 ce3e 000c 143f a356 653e
00000020: 2930 313f 47bf ad3e 7c6b c83e fb8d 173f
00000030: 941b be3e d00f 013f fb3e 4c3f 117c 5c3f
00000040: 376a 933e 5d6f 823f 13af 613e c850 1f3e
00000050: 14fc 453f 02cd 073e 6e40 da3e 8176 773f
00000060: 4556 143f b1a0 e93e 2240 923e c8fb 623f
00000070: b685 8d3e 1c11 863e 6bbe c73e 862c af3e
00000080: 7dfd de3e ad7d 563f ba43 0a3f b4bd 203f
00000090: b76a df3e 9345 0e3e 313b 8a3f 7a1e 9e3f
000000a0: c7de 893e 5bf8 8e3f 7008 fe3e ab49 963f
000000b0: def5 3f3e c1ea c43e 6339 c43e b70f c43e
000000c0: ccfe 843f 1f35 6a3f 0ce7 443f 4d9b b93e
000000d0: ffdf 613f eb47 ea3e 041b ba3e 14a4 043f
000000e0: 6f57 bb3e 79f1 3e3f 47c3 983f 33be ef3e
000000f0: 0ae2 3e3f 1ba6 1f3f bc53 b93e 764c be3e
0.5893975 1.1720803 0.3323289 0.33404246 0.8648579 0.4024713 0.5783081 0.2239633
0.6921411 0.33934996 0.39144504 0.5920102 0.37130415 0.5041475 0.797836 0.8612681
0.28791973 1.0190235 0.22039442 0.1555816 0.77337766 0.13261798 0.4262728 0.966652
0.57944137 0.4563041 0.28564554 0.8866544 0.27641076 0.26184928 0.39012465 0.34213656
0.4355277 0.83785516 0.5400959 0.62789464 0.43636104 0.13893728 1.0799314 1.2353051
0.26927778 1.1169542 0.49615812 1.1741232 0.18746135 0.38460353 0.38325033 0.3829324
1.0390258 0.91487306 0.7691505 0.36251298 0.88232416 0.45757994 0.36348736 0.51812863
0.36590144 0.7458721 1.1934594 0.46824798 0.7456366 0.6236283 0.36196697 0.3716771

decoder.0.weight f4 [64, 32, 3, 3]
00000000: 62c0 00bd 39e5 e13b 9acf 4b3b 3375 03bd
00000010: 40b8 ecbb 6194 743c 98d2 97bc 7b3f 0cbd
00000020: f4e2 453d 6fa7 80bd 92f1 973c a955 e3bc
00000030: d3ae b13b 1a18 66bc 673e 713b 276a 423d
00000040: 725a 11bd 8cba 05bd 23a2 55bd de76 73bd
00000050: bf1a 173d 362f fcbc 7b5e 5dbd b47f 94bb
00000060: 0d46 063d a572 8ab9 2c25 6dbc 15f1 e1bc
00000070: 4fd1 1cbd a786 6dbd e190 17bd 2122 20bd
00000080: c334 d73d b85e 8bbd 82fc 1c3d 5cfe d73c
00000090: c8f6 aa3c 2e83 85bc 6898 173d 64f1 ca3b
000000a0: 6759 2dbd ca47 653d 6c67 3a3d aa6c 153c
000000b0: 19a7 4f3d 4cdd 00bc 38c3 d0bc 44f0 f9bb
000000c0: 05a2 f6bc ef50 903c 7909 bf3b 0434 2f3d
000000d0: f9f3 5f3d 4c9f 683d 985c 4fbc 437e 34bc
000000e0: 4cc6 ce3c ce00 c13d 5386 d5bb 10ae bbbd
000000f0: b1dc c6bc 6cc3 73bd 3090 22bd d42d d23b
00000100: d1a5 0abd da88 3d3d 16ce c2bd f7e0 c4bb
00000110: 9649 bd3d 7f7b 95bc ae50 c9bb 0da0 643d
00000120: 086e 55bb baf8 2dbd f5de 2a3c 2ae8 c33b
00000130: 88c8 87bc c380 b23d 2a3b 10bc 8986 b73c
00000140: 2754 5f3d 8599 c1bc bd2f 05bd af57 49bd
00000150: 32c3 e23c 58b9 b93c e2da af3d efd8 fabc
00000160: a231 babc d163 7b3c 12b0 44bc 7b17 853c
00000170: 9e93 32bd f500 35bd 9dcc be3c a2b8 43bd
00000180: 753a fb3c 388a 8fbc e11f 24bd 4f03 91bc
00000190: a3e6 3c3c f4a0 cd3c d3b7 59bd 5073 e1bb
000001a0: 7777 803b 5dcd 3bbd aac4 28bd cbf9 fa3c
000001b0: 512e 7bbc 47b8 f53c 508b 5cbb 57b0 a0bd
000001c0: 16ab 4bbb 8deb 783c 5ec8 9f3c f3c2 5e3c
000001d0: dfc4 ebbc 2511 1b3d a9ed 963c 85aa c9bc
000001e0: 4305 fabc 7719 52bd 0d3d 603d 9f57 2d3b
000001f0: 0e83 543b a1b7 cbbc 558d 02bb c863 1ebd
00000200: 3087 b63d db43 d43b f627 d7bc 6b40 873d
00000210: d432 013c 6cde 443c 65a7 3b3c 8f20 37bc
00000220: bc19 1dbc 85f9 583c 0720 2b3d 22f3 03ba
00000230: d088 1b3d f385 e13a 4c12 943d 0889 61bc
00000240: 4d03 143d b381 6a3d f761 2e3d cff3 7abd
00000250: 6c11 97bd 64f3 31bc 7b98 223d d4b4 473c
00000260: f3fd d63c 5c83 2cbd 76f2 103d 6b76 913d
00000270: 7b19 5ebd 3bcb 2d3d cf7c fdbc 58a6 633c
00000280: 4e19 a2bd 49d4 b83d eb6a 48bd ac71 38bd
00000290: 65fe 12bc ece5 d2bd ea9f c2bd f25c ab3c
000002a0: 2e3f 473d 095a d13c 864c b8bc 3d5e cf3a
000002b0: 2d61 853c cbb0 74bc 9620 c93c d74f 7a3d
000002c0: 5882 8cbd 35dd 12bd b3cf 573d 3e4d 8ebb
000002d0: 8ad4 53bb ee00 5bbd aeb7 693d c06c 3abd
000002e0: 7433 9bbd eb1f 393d ba56 8f3d e0ef bd3c
000002f0: a2a9 e23c 951c 07bc 6734 f43c 46ff 10bd
00000300: ec1b f73c 753b fbbc 1670 49bc f73d 513c
00000310: 784b 96bb 83d6 2bbd ae6f dd3c 652a ffbb
00000320: 470c fbbc fa61 2dbb 0b5b cc3b 92fe 32bd
00000330: 702f 9abd 3291 6a3c 1f78 c93c 08bc 4dbd
00000340: 1c65 aabd bd9a 80bb 7d95 e83c 0767 113c
00000350: 979a 61bc 990d ccbc 24f9 a9bc 72de a83c
00000360: fa85 023c ec6a 95bc f848 aa3c b565 3fba
00000370: fa9f 8bbb bbf4 debd 41c5 293d 6810 5d3d
00000380: 9cf8 1bbc 8e2b b13c 9027 86bb 070b c5bc
00000390: 2683 15bd 2fab 113d a563 7e3d a18b 273d
000003a0: 94cb cebd d843 983c abb3 c03c d35a 89bd
000003b0: 58cd d8bc 2175 953b 7dd9 febc 6787 50bd
000003c0: 9ca0 4ebd 4b6c f23d eb1b 21bd 81c3 ecbc
000003d0: b426 b13b 0f6b f73c 6f77 a6bd cfec 83bd
000003e0: cdc4 e53c d227 39bb b21c cabc 5c5a 3f3c
000003f0: 0e5c 92bb d9cf abbd 0a5c fbbb e624 d9bc
-0.03143347 0.0068937805 0.0031099082 -0.03209419 -0.0072241127 0.014927954 -0.018533036 -0.034240227
0.048312142 -0.062819354 0.018547807 -0.027750807 0.005422452 -0.014043832 0.0036810876 0.047464516
-0.035486646 -0.032648608 -0.05215658 -0.059439532 0.03689074 -0.03078423 -0.05404518 -0.004531825
0.03278165 -0.00026406828 -0.0144741945 -0.027580777 -0.03828555 -0.057989743 -0.0370034 -0.039095048
0.105081104 -0.068051755 0.038326748 0.026366405 0.020869628 -0.016297903 0.03701058 0.006193327
-0.04232159 0.055976667 0.045508787 0.009120146 0.050696466 -0.007865261 -0.025483713 -0.007627519
-0.030106554 0.017616717 0.0058299867 0.042774215 0.05467603 0.056792542 -0.012656353 -0.011016431
0.02524104 0.094239816 -0.006516257 -0.09164059 -0.024275156 -0.05951254 -0.03968829 0.0064141545
-0.03384954 0.04627309 -0.09511964 -0.006008263 0.09242551 -0.018247364 -0.006143651 0.0558167
-0.0032566804 -0.042473532 0.010429134 0.005978604 -0.016575113 0.087159656 -0.008803168 0.022403019
0.054523613 -0.023632774 -0.03251623 -0.049155887 0.027680967 0.022671387 0.085866705 -0.03062102
-0.022728745 0.015343622 -0.012004869 0.016246548 -0.04359781 -0.044190366 0.023290927 -0.0477835
0.030667523 -0.017521963 -0.040069465 -0.017701773 0.011529597 0.025101162 -0.053153824 -0.0068802014
0.0039204913 -0.045850147 -0.04120318 0.030636689 -0.015330867 0.029995097 -0.0033652373 -0.07846134
-0.0031077317 0.015192878 0.019504722 0.013596284 -0.028780399 0.037858147 0.018423872 -0.024617443
-0.030520087 -0.051293816 0.054745723 0.0026449931 0.0032426747 -0.024867835 -0.0019920666 -0.038669378
0.08912504 0.0064778156 -0.026264172 0.066040836 0.0078856535 0.01201592 0.011453484 -0.011177196
-0.009588655 0.013243084 0.04177859 -0.0005033483 0.03797227 0.0017206058 0.07230052 -0.013765581
0.03613596 0.057252597 0.042573895 -0.06126767 -0.0737637 -0.0108612515 0.039696198 0.012189109
0.02624414 -0.04211746 0.03538748 0.071026646 -0.05422352 0.042430144 -0.030943302 0.01389464
-0.07914983 0.09024865 -0.04893009 -0.04503028 -0.008971785 -0.1029776 -0.095031574 0.020918343
0.048644237 0.025555627 -0.022497427 0.0015820932 0.016281689 -0.014934729 0.024551671 0.061111297
-0.068607986 -0.03585549 0.05268831 -0.004342704 -0.0032322728 -0.053467683 0.057059936 -0.04551387
-0.07578173 0.045196455 0.06998964 0.02318567 0.027668778 -0.008246561 0.029810144 -0.035399698
0.030164681 -0.030668 -0.01229479 0.012771121 -0.0045866333 -0.04195262 0.027030792 -0.0077870362
-0.030645503 -0.0026456104 0.006236439 -0.04369981 -0.07528579 0.014316844 0.024593411 -0.05022815
-0.08320066 -0.0039246962 0.028391594 0.008874661 -0.013769767 -0.024908828 -0.020748682 0.020613883
0.007966513 -0.01823946 0.020786747 -0.00073012273 -0.004261014 -0.108865224 0.04144788 0.053970724
-0.009519722 0.021627214 -0.0040940717 -0.02405311 -0.036502026 0.035563644 0.062106747 0.040904645
-0.10097423 0.018587038 0.023523172 -0.067067765 -0.026465103 0.004561082 -0.031109566 -0.05091038
-0.050446138 0.118370615 -0.039333265 -0.028901817 0.005406225 0.030202417 -0.08128249 -0.06441652
0.028047943 -0.0028252495 -0.024671886 0.011679258 -0.00446654 -0.08389253 -0.007670884 -0.026506852

decoder.0.bias f4 [32]
00000000: b2c9 523d 56e8 2cbd 2be2 7e3c 92cc 78bc
00000010: bb4e 4b3d 07a5 16bd 779b 46bd f37c d5bb
00000020: 986f 4f3d 232b f13b b893 583d f8b1 583d
00000030: 2c90 c5bc 3cc5 cc3a dbd3 133d 4598 803c
00000040: 4fa1 4cbd 469f fbbc fdb6 1c3c 6fe4 33bd
00000050: 1575 b2bb 1cc1 a0bb 2fe3 913c 06ff dfbc
00000060: 5939 9dbc 86fa 96bc 1ab6 bfbc c342 66bc
00000070: 637f 563d e690 4abd 959a bbbc 454f 6c3c
0.051461883 -0.04221376 0.015556852 -0.015185492 0.04963563 -0.036778476 -0.048488107 -0.0065151392
0.050643533 0.0073598786 0.05287525 0.0529041 -0.024116598 0.0015622745 0.036090713 0.015697608
-0.049958523 -0.030715596 0.009565112 -0.043919023 -0.005446086 -0.004905833 0.017808525 -0.027343284
-0.019192385 -0.018430006 -0.023402262 -0.014054003 0.05236758 -0.049454592 -0.022900859 0.014423196

decoder.1.weight f4 [32]
00000000: 016f 843f 9491 7f3f 1897 7c3f e4ec 7c3f
00000010: e96f 863f e9da 833f 7cad 7b3f ff38 813f
00000020: 9298 783f dc9b 7b3f d5f6 783f 3221 763f
00000030: 027a 753f fc91 783f 36ca 743f 29ef 753f
00000040: 36d8 7f3f b5f4 743f f0d7 7a3f ee88 803f
00000050: 2c7d 833f a5bf 713f c891 833f ae8a 833f
00000060: 9f1b 833f c39d 843f 4e00 803f d7a5 773f
00000070: b28b 7c3f 5743 813f bb6d 833f 904c 753f
1.0346376 0.9983151 0.9866805 0.98798966 1.0502902 1.0301181 0.9831159 1.0095519
0.97107804 0.982847 0.97251636 0.961444 0.95889294 0.97097754 0.9562105 0.96068054
0.99939287 0.95685893 0.97985744 1.0041788 1.0272574 0.9443305 1.0278864 1.0276697
1.0242804 1.0360645 1.0000093 0.96737427 0.9865066 1.0098675 1.0267862 0.9581995

decoder.1.bias f4 [32]
00000000: 977d 123d 37ff 963c c14e aabb c876 c4bc
00000010: 2136 833d c9ca 993d 819f 2abc 2c9e d73b
00000020: bba6 f03a 3b8f efbc 53f9 bebc b5fb 0cbb
00000030: 612b ffbc b077 6bbc 6c2f 4ebd 023a 2ebd
00000040: 1d5b fe3c 8ede 2fbd 8228 a5bb 1e37 0e3d
00000050: 8a57 5a3d c35a e3bc d19b 773d dd90 bc3c
00000060: 6fd6 903d 65f9 833d d515 403d ca79 e33b
00000070: e569 c93c bac5 3a3d f96d 6a3d a514 ebbc
0.035764303 0.018432243 -0.0051973765 -0.02398242 0.06406809 0.07509381 -0.010414005 0.006580135
0.0018360236 -0.029243102 -0.023312246 -0.0021512334 -0.031148614 -0.014371797 -0.050338194 -0.04253579
0.031049306 -0.042936854 -0.0050402293 0.034720533 0.05330614 -0.02775324 0.060451332 0.023018295
0.0707215 0.064440526 0.04689582 0.0069420086 0.024586627 0.045598723 0.057233784 -0.028696368

decoder.1.running_mean f4 [32]
00000000: 86b9 003e e644 6ebe 9934 9ebe 63c0 98bd
00000010: 849e 8e3d 9ac2 19be 1001 c2be 9c1a 81be
00000020: 74e6 90be f558 783e 1256 2bbe e9c9 15be
00000030: 0f8b 76bd c289 d7be 3e81 a3be 79e7 413e
00000040: 251d a6be f105 05be 9071 9ebe 7bd5 70be
00000050: c945 8dbe ad5e 7dbe e11b 77be e161 75be
00000060: 980b 57be 3fa0 6fbe aacc edbe 2a0a cbbd
00000070: 0d4b 62be 0a44 c9bd cfa2 b2bd 4132 07bc
0.12570772 -0.2326847 -0.30899504 -0.0745857 0.06963828 -0.15015641 -0.37891436 -0.25215614
-0.28300822 0.24252684 -0.16732052 -0.14627804 -0.06019121 -0.42097288 -0.3193454 0.18935956
-0.3244411 -0.12990548 -0.30946016 -0.23518936 -0.27592304 -0.24743147 -0.24131729 -0.23963119
-0.21000516 -0.23400973 -0.4644521 -0.09914048 -0.22098942 -0.098274305 -0.087224595 -0.008251728

decoder.1.running_var f4 [32]
00000000: 46a3 923e eed2 343e 080c b83e c9bd f43e
00000010: 4289 293f d574 823e c030 c33e 6489 953e
00000020: 09f2 a03e c96b 783e a69a 4e3f 1f25 3d3f
00000030: 639b 963f 9173 083f 2f41 233f 2fbc 0f3f
00000040: 1c0e d23e 3079 823f 432f 9c3e 5913 db3e
00000050: 1edb 063f 0f5b f93e 731d 7b3e 0c35 f43e
00000060: 8f91 943e 28b5 a93e 8d65 d23e 4d58 cc3e
00000070: a38b 2c3f 26e4 733e 0b92 c53e b963 6c3f
0.28640193 0.17658588 0.3594668 0.47801045 0.66225064 0.2547976 0.3812313 0.29206383
0.31434658 0.24259867 0.80704725 0.7388477 1.176617 0.5330134 0.6377134 0.5614652
0.4102639 1.0193233 0.30504808 0.427882 0.52678096 0.48702285 0.24522953 0.47696722
0.29017302 0.33146024 0.41093102 0.39911118 0.6740057 0.238175 0.38587984 0.92339665

decoder.3.weight f4 [32, 16, 3, 3]
00000000: ecdb cabc 1c2d 9a3d ff80 523d 112a 743d
00000010: dafd 013e f3a2 8a3c abcb 93bc 4085 c2bc
00000020: d39d b63d 26be a23c 2d77 f13c 0fcd 1d3d
00000030: 75e1 c43d e9d5 003e a88f 80bc cc15 b23d
00000040: e30a 283d 93a1 183b 0c05 563d 1d07 073d
00000050: 0786 0c3d 7156 3c3c e2b6 12bd 7c7f 2a3d
00000060: e612 80bb d16a 8cbc 9751 8bbd 9b2c 873b
00000070: f013 a8bc f69f 4bbc 15b5 81bc 51bf 88bc
00000080: 849e f53c 6519 d43c 00fd 8c3d d3f6 143d
00000090: 21c4 6ebd 367f 85bd 6980 4cbd 55cc d8bc
000000a0: c88f 783c 51ce f73c a1ac 5bbd 8a56 f8bb
000000b0: 239e bbba 0c88 1b3c bd8a 393c 734b aa3c
000000c0: 34e1 fa3c 43fe c53d 52b4 c83d dc87 6b3d
000000d0: 9eb6 1e3d 5c90 7e3d a265 853d feef 8a3b
000000e0: d181 3abd e5d1 de3c 347c f43d d583 0d3d
000000f0: 6405 3f3d 46db 923d 2cef 933b 3aca 643d
00000100: 1b33 1a3b f03e ca3c a608 dabc 7765 9bbd
00000110: 7f34 af3d c289 9c3c 2b11 ccbc fe83 c3bb
00000120: f704 943c d8b0 d13b 687d dbbc 1d42 863d
00000130: 07b1 a63d bffb aabc 4552 c8bc 45bf 5bbb
00000140: 2d0e b93d 94c0 e3bc a79b 89bd 0cbf af3c
00000150: b09d 9b3d a07d cabd b588 453d 759f 563a
00000160: 4e1c f0bb 5b57 d43c c94a ae3c 9c12 783d
00000170: 15b0 49bd c335 5d3d 1ea5 a6bd 89dd 1dbd
00000180: 7253 45bd c90e 193d 0586 0fbd 1f98 39bc
00000190: 3b0a 783d f1e9 21bc f325 c7ba c926 b6bd
000001a0: 9e19 5f3d 9ad2 ebbc ddf5 893d cc05 b03d
000001b0: 502c 8d3d ce73 cd3c 4472 203d 19f6 ffbb
000001c0: 5a38 e03d e6d1 e03d e71a e63c afbc eabc
000001d0: f89b 873d a9e9 71bb 4769 663c 41b8 d43b
000001e0: e7b2 6a3d c3fe 47bd 836f 63bc 1aa4 40bd
000001f0: f635 8f3d 3d28 003d 738c 8dbc 9d76 223d
00000200: 305c 6d3d 7fc1 b5bb 5bf7 a2bd ce43 643d
00000210: a451 d73c 4e42 323d bb7c 86bd 33db 873d
00000220: 7c02 993b 612f 0ebd 1166 983c 38d3 bc3d
00000230: 68f5 193d 8f88 503d d3ee 373d 4bc6 493d
00000240: 6b3b ebbc 4146 79bd c06e 98bd 8a2b b73c
00000250: 0d78 0c3c 92d1 353d b385 743d 89b2 d43d
00000260: d210 e2bb aaea 613d 1a87 d63c 62cc 273d
00000270: a902 30bc d5ae 8abb 0c20 993d 6d93 a83c
00000280: 9a2b 153e 83a6 b63c 72cb 613c 90a7 02bd
00000290: 8444 043d b3f3 fbbc a11e 66bd aadb 5cbd
000002a0: 6e29 6d3d 4890 803d 670b 483d a6df 86bc
000002b0: e4e8 51bc d818 4b3d f5f7 b9bc aab0 e53c
000002c0: ab35 3fbd 2c4a 45bd 3d21 70bc ec57 56bd
000002d0: 9518 a9bb a772 5dbb c97e 95bb 4425 8cba
000002e0: a0b4 153b 13da 8fbb 2e70 3fbd 7e84 efbb
000002f0: 41ae 3abc 974a 2ebd 62a8 173c d82e b63d
00000300: 5d18 f93c bcab 61bc 9793 8c3d e097 523d
00000310: b601 d93d 2419 7b3d 2e82 aabd 4ccb 93bc
00000320: 642c 84bc 257a 5e3d 1f27 2c3d 501f 993d
00000330: 9af2 bd3d 2e60 a73d 9f85 c23c 5c2b 9abd
00000340: 0522 cfbc 8a93 1d3d b5f9 87bd fca1 9eba
00000350: 1d23 8fbd 6129 2e3d 7bf6 793d 3688 df3c
00000360: ddc4 a9bc d7be 55bd 22a4 873b 910d 493d
00000370: ee6e 0c3d 3dd3 f83c b569 4f3c c898 e23d
00000380: f298 ad3d 015e 773d 9c09 a13c c3ff 8abd
00000390: 530e 92bd b473 85bd 68ab a63c 62fb b6bc
000003a0: 9ff0 3bbc 6170 833b 77a4 81bb 9c39 1a3d
000003b0: 1012 4bbd 1af2 b23b 4c1d 893d ef10 3d3d
000003c0: 650c a13b 86dc dbbc 6d65 9bbb 7d74 7e3d
000003d0: 3e82 953c 6fe9 02bc a3f8 c63c a7ab 08bd
000003e0: 17a3 4a3d 2db3 df3d a772 033e 683a 5e3d
000003f0: 77e1 6cbd dc0e 6abd 66ef 003d 5baf 573d
-0.02476307 0.07528135 0.05139255 0.05961043 0.12694493 0.016923403 -0.018041452 -0.02374518
0.08916821 0.01986606 0.029475773 0.038525637 0.09613315 0.125816 -0.0156935 0.08695564
0.041026007 0.0023289665 0.052250907 0.032965768 0.034307506 0.011495219 -0.035818942 0.041625485
-0.003908503 -0.017140778 -0.068026714 0.0041251904 -0.02051732 -0.012428274 -0.015833417 -0.01669279
0.029982813 0.025891015 0.068841934 0.036368202 -0.05829251 -0.06518404 -0.04992715 -0.02646462
0.015170999 0.030249747 -0.05363143 -0.0075786756 -0.0014314096 0.009492885 0.011324582 0.02078793
0.030624963 0.09667637 0.09800018 0.057502612 0.038748376 0.06214939 0.065135255 0.004240035
-0.04553396 0.027199695 0.11937752 0.034549553 0.046636 0.07170729 0.0045145955 0.05585692
0.0023528996 0.024688214 -0.026615452 -0.07587712 0.08554935 0.019108657 -0.02491053 -0.0059666624
0.018068774 0.0063992552 -0.026793197 0.06555579 0.08139234 -0.020871995 -0.024453292 -0.0033530754
0.09035907 -0.02780179 -0.067191415 0.021453403 0.07598436 -0.09887242 0.048226077 0.0008187213
-0.007327593 0.02592056 0.021275895 0.060564622 -0.04924019 0.05400635 -0.08136962 -0.03854135
-0.048175283 0.037367616 -0.03503992 -0.011327772 0.06055663 -0.009882436 -0.0015193805 -0.088941164
0.05446779 -0.028786946 0.06736348 0.08594856 0.068932176 0.025079634 0.039171472 -0.0078113195
0.10948248 0.10977535 0.028089 -0.028654424 0.066215456 -0.0036912954 0.014063186 0.0064916913
0.05729952 -0.048826944 -0.013881567 -0.0470315 0.06992714 0.031288374 -0.017278885 0.0396639
0.057949245 -0.005546748 -0.079573356 0.055728726 0.026284046 0.043520264 -0.06566759 0.06633606
0.0046694856 -0.034713153 0.018603357 0.09219974 0.037587553 0.050911482 0.044905495 0.049261373
-0.028714856 -0.060858015 -0.07442999 0.022359628 0.008573544 0.044389315 0.059697818 0.103856154
-0.006898978 0.055155434 0.026187468 0.0409664 -0.010742822 -0.0042322674 0.074768156 0.02057811
0.14567414 0.022296196 0.013781415 -0.03189808 0.032291904 -0.030755853 -0.056181554 -0.053920425
0.05790084 0.062775195 0.048839 -0.016464066 -0.012811873 0.04958424 -0.022701243 0.028038342
-0.04668204 -0.04816644 -0.014656362 -0.052329943 -0.005160401 -0.0033790262 -0.004562233 -0.0010692258
0.0022843257 -0.00439001 -0.046737842 -0.0073094955 -0.011394084 -0.042551603 0.009256454 0.088956535
0.030407125 -0.013773855 0.06864088 0.05141437 0.105960295 0.061303273 -0.08325611 -0.018041275
-0.016134448 0.054315705 0.042029496 0.074766755 0.09274788 0.08172642 0.023745356 -0.075278014
-0.025284776 0.038470782 -0.06639425 -0.0012102718 -0.06989119 0.04251993 0.061026078 0.02728663
-0.020723755 -0.052183952 0.004139439 0.049085204 0.03428548 0.030374164 0.01265948 0.11064297
0.08476438 0.060392383 0.019657902 -0.06787064 -0.071316384 -0.06516209 0.020345405 -0.022336666
-0.011470943 0.0040111993 -0.0039563733 0.037652597 -0.049577773 0.0054609897 0.06695041 0.046158727
0.0049148076 -0.026838552 -0.0047423155 0.06212281 0.01825058 -0.007990225 0.024288481 -0.033366825
0.04947194 0.10922847 0.12836705 0.05425492 -0.057832208 -0.057143077 0.03147831 0.052657466

decoder.3.bias f4 [16]
00000000: e6c0 913d 1d1e 823d fbcb 633d 0a34 d9bc
00000010: 91c0 c6bc a7f1 6d3d e250 b43c 1039 323b
00000020: 0626 7bbc 71fe a4bd b192 62bc 8c4c bcbc
00000030: c063 0c3d e876 923d 8d80 993d 1c65 a83c
0.071168706 0.063534 0.055614453 -0.026514072 -0.024261745 0.058091786 0.022011224 0.0027194656
-0.01532889 -0.08056343 -0.013828919 -0.02298572 0.034274817 0.07151586 0.07495222 0.020556025

decoder.4.weight f4 [16]
00000000: d6a5 8b3f 0bda 823f 36a2 8c3f a5d3 8c3f
00000010: 42ad 8b3f ef84 8b3f f1a6 8e3f 9113 8a3f
00000020: 53c5 8c3f 44ca 893f 60f9 8c3f 3941 7c3f
00000030: 5bae 8a3f b2fa 8d3f f2dc 8e3f 0d82 8d3f
1.0909984 1.0222791 1.0987003 1.1002089 1.0912249 1.0899943 1.1144696 1.0787221
1.0997719 1.0764852 1.1013603 0.9853702 1.0834459 1.1092131 1.1161177 1.1055313

decoder.4.bias f4 [16]
00000000: fa0a a03d f662 2bbc ee74 d13d 9509 cf3d
00000010: 4aff a83d d865 be3d 601c e73d b74b fe3d
00000020: 67f4 023e f295 a63d 24a0 b93d 859e f4bc
00000030: f430 9d3d 87ee ec3d 470a e63d e70e ce3d
0.078145936 -0.010460606 0.10227381 0.101092495 0.082518175 0.09296769 0.11284709 0.12416785
0.12788545 0.081340685 0.090637475 -0.029860744 0.07675353 0.11568933 0.11232429 0.10061436
