models/ae_conv_conn5.pth (torch, 203766 bytes, 32 tensors)

encoder.0.weight f4 [16, 3, 3, 3]
-0.07203471 0.18583062 0.14517412 0.07791681 0.01542816 0.038039193 0.18753079 0.00020892877
-0.11213646 -0.029886633 -0.045632668 -0.102557935 -0.11590763 -0.004208452 0.12221376 0.004726492
0.14903086 0.028056184 0.041405354 0.13307755 0.18393247 -0.15983859 -0.05243761 -0.16771343
0.13967492 -0.028327338 0.059187956 0.14210562 0.086475976 0.16120172 0.043633122 0.05867382
-0.08006289 0.15670991 -0.011245435 -0.15618515 -0.031055538 -0.025380783 0.055529103 -0.015901713
-0.008232302 0.06441164 0.13763177 0.16982003 0.06667719 0.066997334 0.12493764 0.002789779
-0.07650694 -0.120570004 0.17674462 0.07711369 0.12046463 0.04403145 0.055818528 -0.09196355
0.054330178 0.15734819 -0.093113825 0.030369846 -0.0035513449 0.09711351 0.16752416 0.06398091
0.08624617 -0.18028173 -0.05276937 -0.054446746 0.112900205 0.065261714 0.0058693597 -0.118604995
0.030754996 -0.1512907 0.012653695 0.036750216 -0.15823781 -0.14704324 0.1641469 -0.07643367
-0.016130693 0.05344859 -0.092389144 0.028118884 0.17202118 0.15252335 0.091974355 -0.1978526
-0.105304435 0.124852024 -0.1589809 0.008304538 0.01664749 -0.16992873 -0.14949001 -0.056245435
0.09754185 0.08907686 -0.086673915 -0.11045049 0.13521244 -0.1046596 0.08368804 0.1383395
0.102915585 0.112794615 0.013962387 -0.0038323512 -0.14799727 -0.051938824 -0.1572804 0.10610908
-0.19902386 -0.121325746 -0.15051256 -0.10998933 0.0012526219 0.061198078 0.0051598256 0.11251229
0.10188746 0.040746585 -0.082353525 -0.12370576 -0.020758307 0.0027883651 0.18804418 0.15606096
-0.02016917 -0.15884721 -0.029193928 -0.06608724 0.22913398 -0.02257468 0.13692917 -0.024496851
-0.16558093 0.14215274 0.14775586 0.15428008 0.02164242 -0.08467092 0.12288976 0.13782957
0.06967395 -0.03314398 0.11905779 0.055577204 0.21490966 -0.0079753315 0.13001312 -0.18244004
-0.024344502 -0.048695277 -0.025152108 -0.039476443 -0.22314592 0.054893915 0.15241385 -0.083938226
-0.016673667 -0.08083312 -0.08328069 0.049763624 0.105286464 -0.06521099 0.12528478 -0.09470956
-0.14292084 -0.039575532 0.09837381 0.19236186 0.052209012 -0.12740988 -0.105394974 -0.25229305
0.14839731 0.035271756 -0.11744942 -0.041997388 0.013104897 -0.095040984 -0.019641314 0.093510784
-0.10065394 0.017847313 0.07069066 -0.041501958 0.03395299 0.14477743 0.16291806 -0.044680715
0.069373064 -0.11605864 -0.103583686 -0.09310043 0.002061087 0.020580249 -0.22305414 -0.06903896
-0.12947603 -0.18614024 0.08324523 0.12864895 -0.15913752 0.18415964 -0.025117356 -0.00851701
-0.026660526 0.19329917 0.08293689 0.21122211 -0.09145962 0.07377905 0.10546828 0.11470576
0.044938777 0.13292757 0.20737916 0.13546935 0.103163436 0.0011007861 -0.1594492 -0.22968087
0.0964237 -0.1417272 0.0404697 0.14104919 -0.08234053 -0.19674627 0.080155954 0.026906708
-0.009588467 0.0864114 0.087602966 -0.12289515 -0.1614283 -0.1651489 0.14636092 -0.08992253
-0.06762331 -0.1571198 -0.066347726 -0.018797893 0.13272285 0.1275835 0.16077055 0.0644529
0.20902306 -0.14020783 0.12730883 -0.006297956 -0.11332156 0.1376539 0.10186022 0.20111246
00000000: ef86 93bd 624a 3e3e 86a8 143e d992 9f3d
00000010: 65c6 7c3c fcce 1b3d 1208 403e e413 5b39
00000020: cda7 e5bd d0d4 f4bc 52e9 3abd e509 d2bd
00000030: fb60 edbd 0ee7 89bb 354b fa3d b0e0 9a3b
00000040: 8c9b 183e 15d6 e53c a998 293d 7b45 083e
00000050: cb58 3c3e baac 23be d2c8 56bd 12bd 2bbe
00000060: f106 0f3e bc0e e8bc 126f 723d 2384 113e
00000070: 511a b13d 1012 253e a5b8 323d f653 703d
00000080: 03f8 a3bd 9078 203e c63e 38bc 00ef 1fbe
00000090: 2f68 febc 5ceb cfbc 7c72 633d 4f44 82bc
000000a0: c7e0 06bc 40ea 833d 58ef 0c3e 4de5 2d3e
000000b0: 0d8e 883d e635 893d 4edf ff3d bad4 363b
000000c0: acaf 9cbd 68ed f6bd 8bfc 343e c8ed 9d3d
000000d0: 29b6 f63d 525a 343d f8a1 643d 6357 bcbd
000000e0: 5289 5e3d e21f 213e 76b2 bebd 2fca f83c
000000f0: aebd 68bb 73e3 c63d 748b 2b3e 6c08 833d
00000100: d5a1 b03d c69b 38be b224 58bd 8d03 5fbd
00000110: 3938 e73d efa7 853d c253 c03b 2de7 f2bd
00000120: e7f1 fb3c f3eb 1abe 7251 4f3c 6587 163d
00000130: 1809 22be 8192 16be 2016 283e 4289 9cbd
00000140: 8424 84bc e9ec 5a3d 8536 bdbd 9359 e63c
00000150: 5226 303e 152f 1c3e 0d5d bc3d df99 4abe
00000160: daa9 d7bd 6bb2 ff3d e4cb 22be c20f 083c
00000170: 5160 883c cc01 2ebe e913 19be 9d61 66bd
00000180: 05c4 c73d ee6d b63d 1882 b1bd de33 e2bd
00000190: 2175 0a3e c657 d6bd a364 ab3d dfa8 0d3e
000001a0: 68c5 d23d dd00 e73d 7fc2 643c 2f28 7bbb
000001b0: 998c 17be cebd 54bd 1d0e 21be b84f d93d
000001c0: e9cc 4bbe a279 f8bd f71f 1abe 1642 e1bd
000001d0: 042f a43a d6aa 7a3d c113 a93b d86c e63d
000001e0: 5faa d03d e4e5 263d f7a8 a8bd 7259 fdbd
000001f0: 530d aabc 01bd 363b a78e 403e 72ce 1f3e
00000200: d139 a5bc d8a8 22be 1b28 efbc bf58 87bd
00000210: 19a2 6a3e 89ee b8bc 2937 0c3e 9fad c8bc
00000220: 0c8e 29be 7d90 113e 504d 173e 99fb 1d3e
00000230: 724b b13c f367 adbd a0ad fb3d 3223 0d3e
00000240: 37b1 8e3d fbc1 07bd 92d4 f33d eca4 633d
00000250: 4711 5c3e f7aa 02bc 2922 053e 90d1 3abe
00000260: 1f6e c7bc b374 47bd cb0b cebc 0db2 21bd
00000270: 5d80 64be 71d8 603d 6012 1c3e cee7 abbd
00000280: 3797 88bc d68b a5bd 118f aabd f1d4 4b3d
00000290: 6ea0 d73d 578d 85bd a74a 003e 16f7 c1bd
000002a0: d759 12be f419 22bd 3578 c93d 82fa 443e
000002b0: 1ed9 553d bc77 02be 52d9 d7bd 8e2c 81be
000002c0: 77f5 173e 1e79 103d 5289 f0bd 7405 2cbd
000002d0: ecb5 563c d9a4 c2bd d2e6 a0bc 9582 bf3d
000002e0: a723 cebd 8734 923c 44c6 903d f5fd 29bd
000002f0: 4a12 0b3d 8940 143e fed3 263e 2003 37bd
00000300: 7713 8e3d 27b0 edbd af23 d4bd 70ab bebd
00000310: 4d13 073b e997 a83c 4e68 64be 4c64 8dbd
00000320: 5d95 04be 8c9b 3ebe 7a7c aa3d 8dbc 033e
00000330: f2f4 22be 5894 3c3e eac2 cdbc ee8a 0bbc
00000340: 2d67 dabc 38f0 453e d1da a93d 9c4a 583e
00000350: 2e4f bbbd 7819 973d c1ff d73d daea ea3d
00000360: b911 383d 2a1e 083e 345b 543e 7ab8 0a3e
00000370: 5a47 d33d 4148 903a a746 23be 7631 6bbe
00000380: ca79 c53d ef20 11be 8ec3 253d 336f 103e
00000390: 27a2 a8bd db77 49be ce28 a43d 756b dc3c
000003a0: f218 1dbc 76f8 b03d 2f69 b33d 74b0 fbbd
000003b0: 764d 25be cb1c 29be a3df 153e 4e29 b8bd
000003c0: 177e 8abd 03e4 20be 51e1 87bd 0afe 99bc
000003d0: 80e8 073e 40a5 023e 09a1 243e e2ff 833d
000003e0: 240a 563e a492 0fbe 3f5d 023e 165f cebb
000003f0: 2215 e8bd 25f5 0c3e 179c d03d 6df0 4d3e

encoder.0.bias f4 [16]
-0.0032993255 -0.15293823 0.13218503 0.010646198 -0.1536473 -0.17853577 -0.1798291 0.041870963
-0.08997376 -0.026263526 -0.086852536 -0.038908694 0.035944503 0.07941393 0.09323727 0.007504908
00000000: 7f39 58bb d79b 1cbe 835b 073e 646d 2e3c
00000010: b855 1dbe 15d2 36be 1f25 38be e380 2b3d
00000020: 2a44 b8bd 9b26 d7bc bedf b1bd b95e 1fbd
00000030: 8b3a 133d c5a3 a23d 2ff3 be3d bbeb f53b

encoder.1.weight f4 [16]
0.97832125 1.0013995 0.9313108 0.99689394 1.0040332 1.0047925 1.0217863 0.999479
1.0181956 0.994132 1.0101357 1.0007665 0.9900451 1.0109595 1.0097089 1.0104278
00000000: 4373 7a3f dc2d 803f 626a 6e3f 7134 7f3f
00000010: 2984 803f 0a9d 803f e5c9 823f dbdd 7f3f
00000020: 3c54 823f 6f7f 7e3f 204c 813f 1e19 803f
00000030: 9873 7d3f 1f67 813f 243e 813f b355 813f

encoder.1.bias f4 [16]
-0.025261233 0.009585566 0.068035215 0.027346948 0.03638294 -0.003016739 0.034803137 0.028861908
0.05763892 0.017205657 0.02428677 0.04075288 0.034754086 0.040986873 0.058534563 0.021723038
00000000: a5f0 cebc c70c 1d3c 0c56 8b3d b506 e03c
00000010: 4706 153d 7bb4 45bb bc8d 0e3d cf6f ec3c
00000020: ca16 6c3d e1f2 8c3c 0cf5 c63c 7eec 263d
00000030: 4d5a 0e3d dae1 273d f0c1 6f3d 83f4 b13c

encoder.1.running_mean f4 [16]
0.32936496 0.5019391 0.1287267 0.110968746 -0.32309446 0.07842313 -0.33946264 0.20314404
-0.26419926 0.682134 -0.28087685 0.1899326 -0.38069108 0.39917147 -0.10627103 -0.70095867
00000000: 86a2 a83e 157f 003f efd0 033e 9543 e33d
00000010: a36c a5be 4e9c a03d 0cce adbe fe04 503e
00000020: 2045 87be 55a0 2e3f 17cf 8fbe b17d 423e
00000030: f1e9 c2be 3460 cc3e a0a4 d9bd 0772 33bf

encoder.1.running_var f4 [16]
0.019517487 0.075857855 0.0023338217 0.002380283 0.0056789867 0.012535812 0.0049035223 0.0052402485
0.008093163 0.09120115 0.0077220215 0.01205629 0.030999575 0.018635193 0.009272759 0.09165905
00000000: 23e3 9f3c 5d5b 9b3d 08f3 183b 86fe 1b3b
00000010: cb16 ba3b 0263 4d3c baad a03b 64b6 ab3b
00000020: 3099 043c abc7 ba3d 0309 fd3b bf87 453c
00000030: d2f2 fd3c d5a8 983c c5ec 173c bdb7 bb3d

encoder.3.weight f4 [32, 16, 3, 3]
0.020716457 0.0504365 -0.020419447 -0.023737172 0.044417206 -0.08183547 0.0063690087 0.058741484
-0.050975386 -0.095692955 0.007005644 0.02804036 -0.048840173 -0.044956673 0.04047845 -0.06360235
-0.046520427 0.049759015 0.0071927044 0.021809876 0.039014343 -0.077290684 -0.024646645 0.019061929
-0.049894247 0.04229227 -0.027093932 -0.025586016 -0.034810934 0.033726677 0.06553525 0.110381365
-0.059297018 0.04507014 -0.07197864 -0.035338674 -0.05302064 -0.092041664 -0.031123657 -0.055108573
-0.08225575 0.06587755 0.0009245601 -0.06344429 0.034164067 0.017143823 0.018244468 0.0036371031
0.021028684 0.026863547 0.014392887 -0.034216266 0.061867088 0.05139765 0.043452226 0.053835943
0.03291538 0.01710023 -0.026481733 -0.04444296 -0.077133834 0.036898203 0.06954611 0.021875935
0.06921523 -0.0154856285 -0.0026708934 0.07795786 -0.05635012 0.043863866 -0.016320297 -0.017723305
-0.008104737 -0.014536863 -0.006441259 0.090786785 -0.06638234 -0.03859721 0.025872841 0.030618517
0.023267876 -0.0771767 0.04917504 -0.10017803 -0.015958736 -0.05990909 0.03384897 0.017485667
0.061192065 0.0056982366 -0.090074465 0.014899322 0.01664331 -0.051341373 -0.03014215 0.011976197
-0.06751346 -0.059570137 0.023083545 0.0066971285 0.08192709 -0.05335158 -0.06631338 0.07408153
0.05574662 -0.11585585 0.033072256 -0.02367124 -0.059585124 -0.051713277 0.038212687 -0.050054446
0.0675022 -0.034311123 -0.10031067 0.02302303 0.022220096 0.031268504 0.05257293 -0.071237125
-0.026844954 0.014273933 -0.038114987 0.04221578 0.07245741 -0.05513267 0.084696285 -0.010601338
0.032764792 -0.040155675 -0.056324337 -0.06901788 0.032825302 -0.036306553 0.040807564 0.09264163
0.030493906 -0.006968794 -0.032278612 0.01923028 -0.036459792 0.007273794 -0.048869483 0.043863315
-0.041751664 -0.0870528 -0.05678488 0.038432963 -0.07290596 -0.07313454 -0.06408222 0.056126263
-0.019981256 0.024657588 0.03489718 -0.0693919 0.04155532 0.051257715 -0.01822718 -0.01841435
0.02297958 -0.05399006 -0.06369282 -0.055392396 -0.04845018 0.033947404 -0.05346305 0.050422296
-0.05697066 -0.0263024 0.04357163 0.053107485 -0.027627738 -0.03340888 -0.071928985 -0.033874754
0.062607236 0.053773645 -0.0848871 0.04851418 0.022579316 -0.06394782 -0.053049892 0.0020186766
0.06141181 0.078209326 0.0040179733 0.121832855 0.0664981 0.016011015 0.07944588 -0.075381465
0.061152317 -0.06721136 -0.0750155 -0.077018745 -0.094111934 0.012041908 -0.08744 -0.08836593
-0.04795538 0.02810876 0.05876873 0.08104301 -0.046153445 -0.008306552 0.04061497 0.031505737
-0.03474369 0.0062623434 -0.049903594 -0.06944772 0.056500178 0.078863546 -0.030440848 0.029047815
0.009591318 0.045562245 -0.06781286 -0.03600682 0.05929238 0.10595107 -0.0012332731 0.017270522
-0.012894857 0.0044573126 -0.06348862 -0.02086319 -0.017950848 -0.020497149 -0.069278784 0.034841403
0.013776045 -0.049959607 -0.020251708 -0.044977114 0.082601786 -0.0023990134 0.0437724 0.0129159605
0.07008643 0.020874754 0.023250168 -0.014586546 -0.0632457 -0.011952335 -0.03220326 -0.06822306
-0.019942869 0.015985597 -0.02934209 -0.09355417 -0.022633854 0.05040715 0.028325014 -0.01675184
00000000: 8fb5 a93c 8196 4e3d af46 a7bc 7574 c2bc
00000010: d1ee 353d 5b99 a7bd 1eb3 d03b e99a 703d
00000020: 91cb 50bd abfa c3bd 9a8f e53b e6b4 e53c
00000030: a20c 48bd 7d24 38bd bbcc 253d f341 82bd
00000040: 348c 3ebd 1cd0 4b3d c7b0 eb3b a0aa b23c
00000050: 81cd 1f3d 944a 9ebd c3e7 c9bc c327 9c3c
00000060: e95d 4cbd a93a 2d3d 18f4 ddbc c499 d1bc
00000070: e995 0ebd fc24 0a3d 5837 863d a00f e23d
00000080: 6ee1 72bd 789b 383d 8a69 93bd 49bf 10bd
00000090: 2c2c 59bd 5780 bcbd 0af7 febc 87b9 61bd
000000a0: b475 a8bd cfea 863d 2e5e 723a 14ef 81bd
000000b0: 9fef 0b3d 3471 8c3c 6c75 953c 775c 6e3b
000000c0: 5944 ac3c f110 dc3c 25d0 6b3c 5b26 0cbd
000000d0: 5868 7d3d 5886 523d f6fa 313d 1483 5c3d
000000e0: 47d2 063d c815 8c3c 38f0 d8bc d209 36bd
000000f0: 58f8 9dbd 9222 173d 316e 8e3d 2935 b33c
00000100: b7c0 8d3d 6fb7 7dbc 280a 2fbb 5fa8 9f3d
00000110: 62cf 66bd 99aa 333d 25b2 85bc 7730 91bc
00000120: bbc9 04bc 062c 6ebc 3211 d3bb 6cee b93d
00000130: 77f3 87bd 1c18 1ebd 48f3 d33c afd3 fa3c
00000140: 469c be3c d10e 9ebd c46b 493d 242a cdbd
00000150: e5bb 82bc 3c63 75bd 38a5 0a3d 1a3e 8f3c
00000160: 88a4 7a3d 46b8 ba3b f678 b8bd 491c 743c
00000170: 8d57 883c 554b 52bd acec f6bc d037 443c
00000180: 7f44 8abd d1ff 73bd b419 bd3c 9673 db3b
00000190: 64c9 a73d 3087 5abd 4fcf 87bd 0fb8 973d
000001a0: 9156 643d d545 edbd c676 073d 30ea c1bc
000001b0: 880f 74bd 4dd1 53bd e884 1c3d e405 4dbd
000001c0: 983e 8a3d d289 0cbd ae6f cdbd cb9a bc3c
000001d0: eb06 b63c 6713 003d b656 573d c5e4 91bd
000001e0: f3e9 dbbc 37dd 693c 761e 1cbd 74ea 2c3d
000001f0: 8d64 943d cbd2 61bd 3f75 ad3d 3cb1 2dbc
00000200: 6034 063d 477a 24bd 59b4 66bd 3f59 8dbd
00000210: d373 063d 2eb6 14bd d525 273d e5ba bd3d
00000220: 5bce f93c 7b5a e4bb 9436 04bd d288 9d3c
00000230: dd56 15bd 0259 ee3b 5e2b 48bd 05aa 333d
00000240: cb03 2bbd bd48 b2bd 4397 68bd e26b 1d3d
00000250: b84f 95bd 90c7 95bd 8a3d 83bd a7e4 653d
00000260: bbaf a3bc b6fe c93c 58f0 0e3d 571d 8ebd
00000270: e935 2a3d 9cf3 513d 2b51 95bc b1d9 96bc
00000280: ac3f bc3c ae24 5dbd 6271 82bd 23e3 62bd
00000290: b273 46bd 6f0c 0b3d 12fc 5abd 9c87 4e3d
000002a0: 115a 69bd 2178 d7bc 2a78 323d 3c87 593d
000002b0: 9153 e2bc c0d7 08bd 814f 93bd 41c0 0abd
000002c0: 3938 803d c141 5c3d 4ad9 adbd ceb6 463d
000002d0: 42f8 b83c 13f7 82bd d84a 59bd c64b 043b
000002e0: f38a 7b3d 362c a03d 34a9 833b 8183 f93d
000002f0: 2830 883d 8829 833c 86b4 a23d 9961 9abd
00000300: da7a 7a3d 1ca6 89bd baa1 99bd 01bc 9dbd
00000310: c2bd c0bd 6c4b 453c be13 b3bd 32f9 b4bd
00000320: dc6c 44bd 5844 e63c 7bb7 703d e1f9 a53d
00000330: 650b 3dbd 3418 08bc e25b 263d 290c 013d
00000340: 664f 0ebd 5834 cd3b b667 4cbd 9b3a 8ebd
00000350: bb6c 673d 3683 a13d 165f f9bc aff5 ed3c
00000360: e724 1d3c 7a9f 3a3d 78e1 8abd e37b 13bd
00000370: 91dc 723d e0fc d83d c7a5 a1ba e97a 8d3c
00000380: f344 53bc a60e 923b 5206 82bd 48e9 aabc
00000390: a80d 93bc a3e9 a7bc 09e2 8dbd dcb5 0e3d
000003a0: ecb4 613c 72a2 4cbd e9e6 a5bc ec39 38bd
000003b0: 202b a93d c438 1dbb b04a 333d 779d 533c
000003c0: 7989 8f3d 8801 ab3c 2377 be3c 69fc 6ebc
000003d0: f686 81bd bad3 43bc 91e7 03bd 88b8 8bbd
000003e0: 3a5f a3bc 3af4 823c d35e f0bc 5499 bfbd
000003f0: a26a b9bc ba77 4e3d dc09 e83c 283b 89bc

encoder.3.bias f4 [32]
0.05244175 -0.04495729 -0.024775377 -0.07503097 0.019511558 -0.028898753 0.01916909 -0.029079039
0.06889987 -0.06676198 0.050721206 0.06079471 -0.073705904 -0.03033651 -0.02331217 -0.041923434
0.050383367 0.044385176 0.074233614 0.06962035 0.022794526 -0.025515035 0.024271527 0.032008685
0.011018952 -0.04904862 -0.062233478 0.018832298 -0.046455372 -0.038062707 -0.06183129 -0.0038463443
00000000: 29cd 563d 2325 38bd bbf5 cabc d6a9 99bd
00000010: b4d6 9f3c 14bd ecbc 7f08 9d3c 2a37 eebc
00000020: 601b 8d3d 81ba 88bd 0ac1 4f3d e003 793d
00000030: 1ff3 96bd 4684 f8bc 2af9 bebc e8b7 2bbd
00000040: ca5e 4e3d 3bcd 353d cb07 983d 1d95 8e3d
00000050: 96bb ba3c e804 d1bc 15d5 c63c 8a1b 033d
00000060: d688 343c 35e7 48bd 88e8 7ebd 3146 9a3c
00000070: fd47 3ebd a4e7 1bbd cf42 7dbd f312 7cbb

encoder.4.weight f4 [32]
1.019657 0.9808442 1.0066342 1.0490801 0.9947589 0.97552276 1.0143409 0.9989033
1.0025408 1.0104975 0.98061097 1.0181999 1.0034286 1.0203387 0.96469134 0.95052046
0.99996734 0.99320406 0.9780715 1.0221725 1.0063087 0.9911716 1.0022528 0.9878044
0.97742444 1.0248252 1.0121604 1.0172948 1.0109487 0.96280694 1.0060514 0.99419993
00000000: 1f84 823f 9b18 7b3f 64d9 803f 4248 863f
00000010: 85a8 7e3f dcbb 793f ecd5 813f 20b8 7f3f
00000020: 4253 803f fb57 813f 5209 7b3f 6054 823f
00000030: 5970 803f 759a 823f 03f6 763f 4f55 733f
00000040: dcfd 7f3f 9f42 7e3f e562 7a3f 8cd6 823f
00000050: b9ce 803f 6cbd 7d3f d249 803f c0e0 7c3f
00000060: 7d38 7a3f 792d 833f 798e 813f b736 823f
00000070: c466 813f 847a 763f 4bc6 803f e383 7e3f

encoder.4.bias f4 [32]
0.06264705 0.008832914 0.005492882 0.094806716 -0.00040762097 -0.02527006 0.0772246 0.056592975
0.019147921 0.047808297 -0.0053705415 0.04711232 0.016892634 0.039290655 -0.0013516392 0.088411085
-0.014262649 0.025225472 -0.026807059 0.035069022 0.13238862 0.08790828 0.00831235 0.022113018
-0.026330292 0.036849126 0.109085776 0.09506956 0.01662919 -0.0036055818 0.04245292 0.009676308
00000000: 194d 803d edb7 103c a2fd b33b 062a c23d
00000010: f6b5 d5b9 2803 cfbc ee27 9e3d 09ce 673d
00000020: 1adc 9c3c a2d2 433d 5efb afbb d9f8 403d
00000030: 6c62 8a3c 3def 203d 7c29 b1ba df10 b53d
00000040: e3ad 69bc a6a5 ce3c 7a9a dbbc 89a4 0f3d
00000050: e290 073e 4209 b43d 8630 083c 5c26 b53c
00000060: a0b2 d7bc 1cef 163d 5d68 df3d d4b3 c23d
00000070: f039 883c a04b 6cbb 1de3 2d3d 6189 1e3c

encoder.4.running_mean f4 [32]
-0.13879499 -0.18786259 -0.6052581 -0.28163585 -0.14422034 0.5186856 -0.32206795 0.19618614
0.0905913 -0.44920123 -0.29675135 0.066901445 0.102126256 -0.23653203 -0.07869569 0.1281461
-0.28771725 0.48536563 0.42352942 0.043346185 0.07561463 0.07780514 0.06629134 0.018866673
0.5329884 -0.24954304 -0.42310715 0.27555317 -0.36778525 -0.3488695 0.3993796 0.086973555
00000000: 4620 0ebe 0d5f 40be 32f2 1abf 9332 90be
00000010: 7fae 13be 94c8 043f 17e6 a4be 05e5 483e
00000020: ee87 b93d b4fd e5be cbef 97be a003 893d
00000030: 9227 d13d 7435 72be 352b a1bd bb38 033e
00000040: ad4f 93be d881 f83e d9d8 d83e c58b 313d
00000050: d8db 9a3d 4d58 9f3d c1c3 873d 488e 9a3c
00000060: ee71 083f 3688 7fbe 80a1 d8be 4e15 8d3e
00000070: 594e bcbe 069f b2be 7c7b cc3e 311f b23d

encoder.4.running_var f4 [32]
0.19892862 1.2885268 1.475591 0.4399145 0.36167288 0.5060381 0.5908089 0.29198027
0.58269787 0.33915108 0.65872836 0.24629301 0.6977076 0.6274242 0.559268 0.15196453
0.9238614 0.15360826 0.2986667 0.42732933 0.13128257 0.1350773 0.8875873 0.16879702
1.3654191 0.20810758 0.26908034 0.15845852 0.6111472 0.885418 0.30648735 0.7796868
00000000: f2b3 4b3e 72ee a43f 2ae0 bc3f 793c e13e
00000010: 302d b93e b78b 013f 413f 173f 707e 953e
00000020: b02b 153f 36a5 ad3e 6ca2 283f 3c34 7c3e
00000030: f79c 323f df9e 203f 302c 0f3f 979c 1b3e
00000040: 2e82 6c3f 7c4b 1d3e d7ea 983e e9ca da3e
00000050: f06e 063e b451 0a3e ec38 633f 20d9 2c3e
00000060: 0ec6 ae3f 271a 553e e6c4 893e f342 223e
00000070: 2574 1c3f c1aa 623f e9eb 9c3e 8e99 473f

encoder.6.weight f4 [64, 32, 3, 3]
-0.0032642924 0.04222501 -0.006167146 -0.0887248 0.02830696 0.033100855 0.0026549336 0.06754947
0.012064828 0.050731935 0.04454249 0.054661386 0.04506889 0.031911723 0.005697098 -0.07277897
-0.015472543 -0.034240413 -0.032934498 0.056208175 0.030534519 -0.008365027 0.052131742 -0.036913663
0.028696192 0.07145439 0.015834164 -0.045115277 0.04119937 0.0020508813 0.0082489895 0.015779711
-0.014489772 -0.058031537 -0.03715492 -0.04922892 -0.0534146 -0.032762073 0.037361436 -0.017490264
0.021372892 0.053147744 -0.055150613 -0.040213823 -0.060057044 -0.008358324 -0.0053126975 0.01169557
-0.0033378392 0.026192358 -0.042258635 -0.0341422 0.020265875 0.0048642457 -0.032509398 0.0084807575
0.011673517 -0.034534026 -0.014742269 0.0104025155 0.001362307 -0.008487252 -0.014728184 0.04508016
0.038455036 -0.041279674 -0.011633232 -0.008487902 0.078373805 -0.012226795 -0.03925308 0.022708118
-0.02465048 -0.027545402 0.018543368 -0.015714582 0.04447964 0.01884104 -0.041912407 -0.0021302947
-0.05489132 -0.026063424 -0.07183153 0.015531991 0.0029274584 -0.0053101936 0.036989227 0.0111667905
0.033105772 -0.050595812 -0.011632748 -0.023009771 -0.052395366 -0.037836283 0.058158733 0.050588418
0.023320835 0.060694396 -0.04494254 -0.0010402045 -0.071525216 -0.0010542334 -0.008149962 -0.047904506
0.008621492 0.03873986 -0.0024247807 -0.032880526 0.05665418 0.04626821 -0.032355838 0.005955557
0.021823307 -0.01947542 -0.06743053 -0.0065692975 0.036592823 -0.05385638 0.06646638 0.059352
0.018013278 -0.01599988 -0.0436068 -0.074215025 -0.0010449606 -0.058759402 0.010668553 0.005302992
0.010018918 0.011602932 -0.012338352 0.041675143 -0.019321714 -0.010886995 -0.072169416 -0.01199638
0.007505292 0.00254659 0.0010812242 0.04663598 0.02451918 -0.016378254 -0.04550893 -0.042218596
0.053926073 0.019375 -0.05421606 -0.010401205 4.8270944e-05 -0.039314758 0.05701396 0.046475545
0.024824709 -0.011201927 0.01392759 0.049284425 0.033192314 -0.01695338 0.0062164795 0.014886613
0.013150349 -0.046413224 -0.035532385 -0.0113615235 0.021235418 -0.04429553 0.046071097 0.035353445
0.045044493 -0.010414754 0.030149445 -0.05699932 0.018092858 0.058618207 0.031370178 0.0129627595
0.030984338 0.03835814 -0.07057612 0.0027397485 0.07526768 0.029233947 -0.012812771 0.0649197
0.05286992 -0.041862424 -0.034145936 0.020617766 0.044479616 -0.01988488 -0.03610581 -0.06204227
-0.031071194 -0.0051238663 0.07615294 0.018390788 0.0426947 -0.01978531 0.037063226 -0.041350007
0.043837428 0.042312138 0.04007397 -0.009339442 -0.03414895 -0.025368905 -0.006404841 0.000650703
0.016613705 0.06724537 0.034422792 0.10525785 -0.022140222 0.04154182 0.032228976 -0.007720011
-0.0132198315 -0.022157505 -0.0057463893 -0.04244669 -0.021640033 0.033212382 0.015260836 0.01977982
0.019324476 -0.07253387 -0.026602017 -0.0244069 -0.038269047 -0.0274316 0.013945045 -0.047874805
-0.007339187 0.028543064 -0.00025645312 0.008128685 -0.0804043 -0.05331354 -0.042254932 -0.02801661
0.009594366 0.004094788 -0.0141279865 -0.031992808 0.027377272 -0.005735474 0.10514221 0.026066685
0.02096836 -0.04309633 -0.00072939636 -0.040010735 -0.0060624806 -0.001398432 -0.012520836 -0.008611472
00000000: bded 55bb 22f4 2c3d c515 cabb 59b5 b5bd
00000010: ffe3 e73c c394 073d 65fe 2d3b 6057 8a3d
00000020: 8eab 453c 4acc 4f3d 3072 363d 9ee4 5f3d
00000030: 289a 383d deb5 023d b9ae ba3b 240d 95bd
00000040: 8d80 7dbc ad3f 0cbd 53e6 06bd 8b3a 663d
00000050: 8723 fa3c 770d 09bc 1888 553d c832 17bd
00000060: 4714 eb3c ae56 923d a6b6 813c ccca 38bd
00000070: acc0 283d 1468 063b c526 073c 7444 813c
00000080: 8266 6dbc 7ab2 6dbd c22f 18bd 44a4 49bd
00000090: 45c9 5abd 8631 06bd 4e08 193d be47 8fbc
000000a0: 3416 af3c 73b1 593d 9ce5 61bd 40b7 24bd
000000b0: 60fe 75bd 5af1 08bc 2316 aebb c79e 3f3c
000000c0: a6bf 5abb 5b91 d63c 6417 2dbd b1d8 0bbd
000000d0: 9f04 a63c 4064 9f3b 9328 05bd e0f2 0a3c
000000e0: 4742 3f3c 8d73 0dbd 8f89 71bc 506f 2a3c
000000f0: 708f b23a 1d0e 0bbc 7b4e 71bc f9a5 383d
00000100: 0783 1d3d e014 29bd 5099 3ebc d710 0bbc
00000110: 7282 a03d e552 48bc d6c7 20bd 6006 ba3c
00000120: ceef c9bc e5a6 e1bc 43e8 973c debb 80bc
00000130: 4830 363d 8658 9a3c 58ac 2bbd 6a9c 0bbb
00000140: b9d5 60bd f682 d5bc 691c 93bd e479 7e3c
00000150: 9ada 3f3b 2201 aebb 0482 173d eaf4 363c
00000160: eb99 073d 8e3d 4fbd 4897 3ebc fd7e bcbc
00000170: 869c 56bd 38fa 1abd da37 6e3d cd35 4f3d
00000180: 560b bf3c b09a 783d ab15 38bd 7957 88ba
00000190: d07b 92bd 342e 8aba 6b87 05bc 8437 44bd
000001a0: 2941 0d3c b0ad 1e3d 12e9 1ebb bbad 06bd
000001b0: 370e 683d bc83 3d3d 8e87 04bd d526 c33b
000001c0: cbc6 b23c ea8a 9fbc 0519 8abd 4343 d7bb
000001d0: 5be2 153d 8298 5cbd 871f 883d 151b 733d
000001e0: 9590 933c 2e12 83bc 0b9d 32bd 0cfe 97bd
000001f0: 0ff7 88ba b3ad 70bd 28cb 2e3c b9c4 ad3b
00000200: 6326 243c 391a 3e3c cd26 4abc 8eb3 2a3d
00000210: 9248 9ebc 5e5f 32bc 8fcd 93bd 778c 44bc
00000220: f4ee f53b b1e4 263b ddb7 8d3a 5f05 3f3d
00000230: 73dc c83c b02b 86bc 9267 3abd 68ed 2cbd
00000240: 96e1 5c3d 52b8 9e3c a911 5ebd d169 2abc
00000250: 8876 4a38 8308 21bd 7887 693d 245d 3e3d
00000260: 305d cb3c 4a88 37bc 8c30 643c 77de 493d
00000270: aaf4 073d d1e1 8abc 9cb3 cb3b fbe6 733c
00000280: 9074 573c cb1b 3ebd 688a 11bd af25 3abc
00000290: e6f5 ad3c 3b6f 35bd 0cb5 3c3d c6ce 103d
000002a0: 9380 383d a5a2 2abc f8fb f63c 1e78 69bd
000002b0: 7937 943c a519 703d 047e 003d c161 543c
000002c0: ded2 fd3c 6d1d 1d3d 368a 90bd 5a8d 333b
000002d0: f125 9a3d 087c ef3c a8ec 51bc 9ff4 843d
000002e0: 218e 583d ef77 2bbd 9cdc 0bbd 97e6 a83c
000002f0: 4230 363d 9ee5 a2bc b0e3 13bd 0920 7ebd
00000300: 0489 febc 1be6 a7bb 13f6 9b3d 47a8 963c
00000310: a3e0 2e3d cd14 a2bc 9ccf 173d a05e 29bd
00000320: e08e 333d 7e4f 2d3d 9a24 243d 7504 19bc
00000330: c5df 0bbd 73d2 cfbc b3df d1bb f093 2a3a
00000340: 7719 883c f1b7 893d eafe 0c3d 6d91 d73d
00000350: 695f b5bc c127 2a3d 8802 043d 25f8 fcbb
00000360: fe97 58bc a883 b5bc 354c bcbb 95dc 2dbd
00000370: 7046 b1bc b509 083d 9608 7a3c 4a09 a23c
00000380: 5d4e 9e3c a38c 94bd 79ec d9bc fbf0 c7bc
00000390: 01c0 1cbd 3cb8 e0bc c279 643c 5f18 44bd
000003a0: 907d f0bb 25d3 e93c 8e74 86b9 2d2e 053c
000003b0: 02ab a4bd 4c5f 5abd 8213 2dbd 1783 e5bc
000003c0: b031 1d3c 922d 863b 1279 67bc e40a 03bd
000003d0: 4d46 e03c a5f0 bbbb cd54 d73d cd89 d53c
000003e0: d7c5 ab3c c785 30bd f634 3fba 4ce2 23bd
000003f0: c6a7 c6bb 974b b7ba 3124 4dbc 2217 0dbc

encoder.6.bias f4 [64]
0.006857746 0.025269167 -0.04451805 -0.04043331 0.018452443 0.010321034 -0.0012569895 0.04948404
0.012125828 0.0052545043 -0.024593387 0.028527962 -0.0127387205 0.056785565 -0.026210798 -0.0011505688
-0.030585885 -0.046338756 0.0519535 0.02146748 0.00016709827 -0.0009046042 0.046298016 0.0005335652
0.013153737 -0.025995288 -0.05784724 -0.026634196 0.041644495 -0.03216277 0.048070867 0.05583679
-0.014825632 -0.054249715 -0.023659097 0.008660136 -0.035946712 0.0041125123 0.0072906986 0.0044271713
0.0053289435 -0.047337443 0.020917784 0.0470614 -0.05707313 0.045429487 -0.018451642 0.04681545
0.037193276 0.052826006 0.03272871 -0.017947283 0.021946749 -0.04854946 -0.0005754999 -0.043051258
-0.0063410606 -0.050829425 0.047014453 0.02085515 0.0043578614 0.0067051034 -0.033537008 0.006878266
00000000: f1b6 e03b 4901 cf3c 8f58 36bd 669d 25bd
00000010: 9429 973c 8e19 293c 92c1 a4ba c7af 4a3d
00000020: 69ab 463c fa2d ac3b 1278 c9bc 79b3 e93c
00000030: 11b6 50bc fb97 683d 07b8 d6bc afce 96ba
00000040: 408f fabc b5cd 3dbd 31cd 543d 92dc af3c
00000050: 1a37 2f39 f622 6dba fda2 3d3d f4de 0b3a
00000060: c682 573c 12f4 d4bc 3af1 6cbd f52f dabc
00000070: 6b93 2a3d 1cbd 03bd f5e5 443d 1eb5 643d
00000080: 35e7 72bc f334 5ebd b9d0 c1bc 3ee3 0d3c
00000090: dc3c 13bd 41c2 863b d0e6 ee3b ce11 913b
000000a0: 6b9e ae3b e8e4 41bd c65b ab3c 74c3 403d
000000b0: 84c5 69bd 4514 3a3d e627 97bc 8fc1 3f3d
000000c0: fa57 183d 1560 583d 8a0e 063d 2e06 93bc
000000d0: abc9 b33c ccdb 46bd 25dd 16ba 8456 30bd
000000e0: acc8 cfbb 8432 50bd 3a92 403d 6bd8 aa3c
000000f0: 64cc 8e3b 7cb6 db3b 1a5e 09bd 1463 e13b

encoder.7.weight f4 [64]
0.9598496 0.99052125 0.9716831 1.0045242 0.9950515 1.0024283 1.0137203 0.9698401
1.0372393 1.0330703 1.0266241 1.0035185 0.9536209 0.9679282 1.0018959 0.9960533
1.0065845 1.0151118 0.97244036 1.0217627 0.983985 0.98195976 1.0079796 0.9898096
1.004211 1.0246025 1.0097831 1.0214313 0.96832466 0.99862015 1.0090622 0.9799481
1.0053816 0.9950627 1.0251726 1.0170435 0.98909146 0.98641354 1.0022311 1.0224154
1.0364972 0.9805883 0.96284175 0.9946855 1.0019333 1.0141375 0.99214274 1.0084035
1.0110496 0.97451955 0.995846 0.9697359 0.98334664 1.0025507 0.98200405 0.998233
1.0020946 0.9905706 1.056668 0.98591137 0.9726071 1.0104985 0.9891797 1.0078301
00000000: b4b8 753f cd92 7d3f 39c0 783f 4094 803f
00000010: b2bb 7e3f 924f 803f 96c1 813f 7147 783f
00000020: 42c4 843f a63b 843f 6b68 833f 4b73 803f
00000030: 8020 743f 24ca 773f 203e 803f 59fd 7e3f
00000040: c3d7 803f 2fef 813f daf1 783f 1fc9 823f
00000050: 71e6 7b3f b761 7b3f 7a05 813f 2964 7d3f
00000060: fc89 803f 2d26 833f 9340 813f 43be 823f
00000070: 20e4 773f 92a5 7f3f f328 813f e1dd 7a3f
00000080: 58b0 803f 6ebc 7e3f db38 833f 7b2e 823f
00000090: 1935 7d3f 9985 7c3f 1c49 803f 82de 823f
000000a0: f1ab 843f d607 7b3f cc7c 763f b5a3 7e3f
000000b0: 5a3f 803f 42cf 813f 11fd 7d3f 5e13 813f
000000c0: 136a 813f 1d7a 793f c3ef 7e3f 9d40 783f
000000d0: 9bbc 7b3f 9553 803f 9e64 7b3f 338c 7f3f
000000e0: a344 803f 0996 7d3f e640 873f b064 7c3f
000000f0: c7fc 783f 0458 813f e13a 7d3f 9400 813f

encoder.7.bias f4 [64]
0.020905085 0.04354743 -0.011513989 0.05672025 0.047901012 0.047575053 0.0481816 0.094869
0.108657666 0.084621854 0.048766535 0.034938328 0.065525584 0.0055779526 0.0062897555 0.038869757
0.05279908 0.05025385 0.028459141 0.07973859 0.07552408 0.011034109 0.036673855 0.028988251
0.018693846 0.0598675 0.017694509 0.027774552 0.02326552 0.028373905 0.038130727 0.007293237
0.0342131 0.0355154 0.09257216 0.08882749 0.011355105 0.05014081 0.06455996 0.05747841
0.059594933 0.011882855 0.09008097 0.05210858 0.012040266 0.050790142 0.047299854 0.027019652
0.038865555 0.015402354 0.06358951 0.03198235 0.0051014605 0.012442714 0.031070633 0.010267455
0.01304758 0.044235963 0.06042451 0.030046893 0.049509406 0.02511079 0.056692615 0.048896156
00000000: 2441 ab3c ca5e 323d 2ca5 3cbc 7e53 683d
00000010: da33 443d 0fde 423d 125a 453d ae4a c23d
00000020: e987 de3d 394e ad3d 6bbf 473d 7e1b 0f3d
00000030: 4732 863d 42c7 b63b 4b1a ce3b e535 1f3d
00000040: d943 583d fbd6 4d3d 2523 e93c fc4d a33d
00000050: 5eac 9a3d 68c8 343c 5337 163d c578 ed3c
00000060: d623 993c a037 753d 13f4 903c 7587 e33c
00000070: 5597 be3c 6470 e83c f72e 1c3d 1bfc ee3b
00000080: 0923 0c3d 9978 113d 7996 bd3d 30eb b53d
00000090: c30a 3a3c 7360 4d3d 0338 843d 7b6e 6b3d
000000a0: d119 743d 4eb0 423c 5f7c b83d ce6f 553d
000000b0: 8944 453c 5309 503d 7ebd 413d 5158 dd3c
000000c0: 7d31 1f3d 285a 7c3c 383b 823d edff 023d
000000d0: 272a a73b 86dc 4b3c d787 fe3c d438 283c
000000e0: 84c5 553c c530 353d b17f 773d e724 f63c
000000f0: 60ca 4a3d 25b5 cd3c 8436 683d 5647 483d

encoder.7.running_mean f4 [64]
0.017556718 -0.062783554 -0.5085668 -0.040666025 -0.08954467 -0.30540836 0.27070847 -0.16588056
-0.085623726 -0.28008235 -0.19483832 -0.0898083 0.4762803 -0.20972855 -0.3949587 -0.35158753
-0.25520423 -0.6311367 -0.28132015 -0.561762 -0.19542894 0.30863616 0.036257245 -0.15220821
0.327625 0.086163335 -0.4389225 -0.3233595 -0.47098732 -0.1830436 -0.120499045 0.054501835
-0.01601393 -0.3980955 -0.24674687 0.5287402 -0.5351283 -0.03141043 -0.10477726 -0.37772742
-0.1356312 0.021510903 -0.18339705 0.4275393 -0.34416375 -0.22507426 -0.047653195 -0.20340912
-0.14975251 0.47773808 -0.13700385 0.5464199 0.1692902 -0.24503039 0.4287327 -0.39698136
0.1817131 -0.04682293 -0.056179777 0.34450755 0.43679023 0.5026244 -0.04554667 -0.028218439
00000000: 1bd3 8f3c aa94 80bd 6f31 02bf 6b91 26bd
00000010: 3263 b7bd 7c5e 9cbe 4d9a 8a3e 98dc 29be
00000020: 7e5b afbd f466 8fbe b283 47be 6aed b7bd
00000030: 03db f33e 15c3 56be 0738 cabe 4803 b4be
00000040: 21aa 82be 2d92 21bf 3209 90be a2cf 0fbf
00000050: 861e 48be 8f05 9e3e 7a82 143d 78dc 1bbe
00000060: 77be a73e 6776 b03d 73ba e0be 608f a5be
00000070: 4025 f1be c86f 3bbe 34c8 f6bd 513d 5f3d
00000080: a52f 83bc 2cd3 cbbe 36ab 7cbe 855b 073f
00000090: 2bfe 08bf 39a8 00bd 7695 d6bd 7d65 c1be
000000a0: e8e2 0abe a237 b03c 70cc 3bbe 6ee6 da3e
000000b0: 3b36 b0be de79 66be ff2f 43bd 7b4a 50be
000000c0: b958 19be 169a f43e bd4a 0cbe 2de2 0b3f
000000d0: 695a 2d3e 3fe9 7abe da82 db3e 2441 cbbe
000000e0: 0013 3a3e 67c9 3fbd c41c 66bd 4b63 b03e
000000f0: f8a2 df3e feab 003f 258f 3abd 5b2a e7bc

encoder.7.running_var f4 [64]
0.2632317 0.41097665 0.6873486 0.42173907 0.31262964 0.32283133 0.64858395 0.37589332
0.68131715 0.5206744 0.80886424 0.55089504 0.2619943 0.43642315 0.4660306 0.57289934
0.56746656 0.6081133 0.19971286 1.0786355 0.35192144 0.38867724 0.60837066 0.20307933
0.69756097 0.59046227 0.7197113 1.1573576 0.30004346 0.8462243 0.56927174 0.47975883
0.27092084 0.4365606 0.9003643 0.42911887 0.45430765 0.3360069 0.33049676 0.4454958
0.34138954 0.6948683 0.20583908 0.2373108 0.88709515 0.4368694 0.3435735 0.7571158
0.46091437 0.76079094 0.46003535 0.20913957 0.3343523 0.9716079 0.29896098 0.7850087
0.31096914 0.68570435 0.7435344 0.2194663 0.5391311 0.41489038 0.5015927 0.9111113
00000000: 4ec6 863e 886b d23e 14f6 2f3f 2fee d73e
00000010: fe10 a03e 264a a53e 9909 263f 1775 c03e
00000020: cd6a 2e3f eb4a 053f ba11 4f3f 7507 0d3f
00000030: 1e24 863e db72 df3e 909b ee3e 88a9 123f
00000040: 7d45 113f 50ad 1b3f 8781 4c3e ba10 8a3f
00000050: 0c2f b43e b400 c73e 2ebe 1b3f 07f4 4f3e
00000060: 5b93 323f 8928 173f 003f 383f 4b24 943f
00000070: 4c9f 993e 28a2 583f cbbb 113f f3a2 f53e
00000080: 23b6 8a3e df84 df3e 467e 663f 78b5 db3e
00000090: 039b e83e 1909 ac3e df36 a93e 0718 e43e
000000a0: 9cca ae3e e4e2 313f 7bc7 523e 9a01 733e
000000b0: ab18 633f 59ad df3e dee8 af3e 57d2 413f
000000c0: f8fc eb3e 32c3 423f c189 eb3e af28 563e
000000d0: 3a30 ab3e 4cbb 783f 6a11 993e 55f6 483f
000000e0: 5937 9f3e 528a 2f3f 4558 3e3f c6bb 603e
000000f0: 7f04 0a3f 836c d43e 6168 003f 973e 693f

decoder.0.weight f4 [64, 32, 3, 3]
0.042099763 0.06462871 -0.035381895 0.0009013673 -0.02865683 0.020558491 -0.006229235 -0.036106665
-0.057066448 0.044281658 -0.025351342 -0.02088342 -0.020532774 0.069003545 0.033228043 0.012746434
0.019736892 -0.022144372 0.017288752 0.06115667 -0.058319367 0.0070841243 0.025401825 0.01946341
0.0006602688 -0.019999968 -0.044967227 -0.07352401 -0.008178579 -0.015731037 -0.0072919717 -0.030004386
0.04553449 -0.03429115 0.013436255 0.038664833 0.027632097 0.053105574 0.032115664 0.014056249
0.05566946 -0.036974378 0.0037226968 -0.04997463 0.00014408275 0.046234135 0.035265118 -0.012187098
-0.035495695 0.05098388 -0.04340723 -0.0379426 -0.014730703 0.019407239 -0.042714655 0.04798811
0.046899617 0.004090889 -0.0067836046 -0.0115150185 -0.012891818 0.028404595 -0.011351804 -0.054892253
0.020568924 0.075356245 -0.019042168 0.030629607 0.005377737 -0.059552085 -0.032501217 -0.058128554
-0.047227502 -0.0059893513 0.012748463 -0.035859417 -0.020858964 0.015332398 0.020133724 0.022698017
-0.11523146 -0.028293034 -0.013226092 0.013311006 -0.056864478 0.01870401 -0.0746461 -0.03451368
0.01543294 0.054892536 0.057660814 -0.036025483 -0.014982666 -0.024724003 0.0128006255 -0.029776497
0.009770452 -0.04660689 0.043140583 -0.062692635 -0.049854014 0.024117593 -0.08642128 -0.058378506
0.033040985 0.017401727 0.025073621 -0.0546768 0.02511077 -0.0065047424 -0.039717034 -0.020285735
-0.008330486 -0.0022649185 -0.024679907 -0.0032616316 0.009349629 0.02094781 -0.06575042 -0.01371431
0.015761785 -0.00925048 0.032199256 -0.040762898 -0.06390095 -0.007948513 0.008830948 0.028480588
-0.03670725 -0.047949135 0.074785694 -0.03499177 -0.009279393 -0.03277346 0.044647645 -0.020476952
-0.03341983 -0.032258637 0.008967875 -0.05534345 -0.023838643 0.03619053 0.027128471 0.03443926
0.033397816 -0.053183813 -0.029280702 -0.051680334 0.03192654 -0.027632704 -0.05536112 -0.019836055
-0.0033957178 0.038002957 -0.0011904623 0.055787165 0.07686901 0.043508004 0.0026466066 -0.080148876
0.059351534 0.02444758 0.016186144 0.03851594 -0.04273329 -0.045181897 0.019176602 0.023729248
0.011347362 -0.037422538 -0.02951696 -0.028654736 0.062213864 0.025492672 -0.062010743 -0.028401477
0.044253886 0.007248108 0.05527759 -0.020082364 0.0005914911 0.045597978 0.04180958 0.093650304
-0.023077162 0.018456336 -0.036268145 -0.035720877 -0.07780933 0.047836967 0.013477043 -0.043964405
0.057113506 -0.040253893 -0.010378493 -0.013764616 -0.029830834 -0.04927502 0.026170427 -0.074021965
-0.055660397 -0.0655694 -0.05017217 0.021787712 0.0004656816 -0.058727536 0.01199356 -0.044049762
-0.035688546 0.025459664 0.023789154 0.050002698 -0.02474533 0.017312462 -0.039065477 -0.027944671
0.0425802 -0.04294615 0.00081864814 0.0013703589 0.027939286 -0.03561928 -0.050936803 0.006811758
0.049118273 0.05815112 -0.03429275 -0.013791923 0.034023456 -0.015753763 0.036320925 -0.023505218
-0.04440995 0.0077878735 0.017178522 -0.05284387 0.07768024 -0.063219264 0.012889081 -0.04652749
-0.05208149 -0.028334709 0.04786921 0.05359083 -0.026853675 -0.0110633345 -0.0729408 0.048338875
-0.04011906 -0.021061093 -0.08747584 0.036411624 -0.03764269 0.00045577416 0.08046941 0.074709214
00000000: cd70 2c3d 0f5c 843d 9bec 10bd bc49 6c3a
00000010: bac1 eabc 486a a83c 9c1e ccbb 95e4 13bd
00000020: 82be 69bd af60 353d 9ead cfbc b513 abbc
00000030: 5934 a8bc bb51 8d3d 211a 083d 6bd6 503c
00000040: 43af a13c 1d68 b5bc 24a1 8d3c 6b7f 7a3d
00000050: 4ae0 6ebd f121 e83b 7d17 d03c bb71 9f3c
00000060: e415 2d3a f9d6 a3bc 8e2f 38bd c293 96bd
00000070: 72ff 05bc 60de 80bc 7ef1 eebb c2cb f5bc
00000080: 6082 3a3d e074 0cbd bd23 5c3c 045f 1e3d
00000090: b55c e23c 3b85 593d b78b 033d 2e4c 663c
000000a0: a905 643d 7272 17bd 7df8 733b 33b2 4cbd
000000b0: eb14 1739 0160 3d3d 2872 103d 65ac 47bc
000000c0: ef63 11bd 79d4 503d c8cb 31bd b369 1bbd
000000d0: 0c59 71bc eefb 9e3c 90f5 2ebd 2e8f 443d
000000e0: d019 403d dd0c 863b 0049 debb 7da9 3cbc
000000f0: 3438 53bc c1b0 e83c ebfc 39bc b3d6 60bd
00000100: 2980 a83c 6054 9a3d 52fe 9bbc f1ea fa3c
00000110: ba37 b03b e3ec 73bd ff1f 05bd 3518 6ebd
00000120: a071 41bd 5242 c4bb eede 503c 53e1 12bd
00000130: 6be0 aabc bd34 7b3c 7bef a43c 31f1 b93c
00000140: 79fe ebbd cbc6 e7bc 40b2 58bc 6816 5a3c
00000150: baea 68bd 2739 993c 0ee0 98bd 375e 0dbd
00000160: 71da 7c3c ffd6 603d bf2d 6c3d 758f 13bd
00000170: db79 75bc fe89 cabc b7b9 513c d7ed f3bc
00000180: 3f14 203c dee6 3ebd 2eb4 303d ff64 80bd
00000190: b933 4cbd 4292 c53c a4fd b0bd 4d1e 6fbd
000001a0: fc55 073d 118e 8e3c 3267 cd3c c8f4 5fbd
000001b0: 1ab5 cd3c bc25 d5bb 54ae 22bd 452e a6bc
000001c0: 977c 08bc 076f 14bb 842d cabc 19c1 55bb
000001d0: 302f 193c be9a ab3c 28a8 86bd fcb1 60bc
000001e0: dc1e 813c 538f 17bc 5ee3 033d fff6 26bd
000001f0: 80de 82bd 7b3a 02bc aeaf 103c 1f50 e93c
00000200: 575a 16bd 5066 44bd 3e29 993d 8853 0fbd
00000210: 9808 18bc 773d 06bd 73e0 363d 48bf a7bc
00000220: 3be3 08bd a221 04bd feed 123c d0af 62bd
00000230: 4249 c3bc 853c 143d 873c de3c 2e10 0d3d
00000240: 26cc 083d 45d7 59bd 15de efbc c2ae 53bd
00000250: 67c5 023d fb5d e2bc 57c2 62bd 397f a2bc
00000260: b18a 5ebb fda8 1b3d 4909 9cba 1581 643d
00000270: 806d 9d3d 7335 323d b172 2d3b 1825 a4bd
00000280: 981a 733d 4b46 c83c ce98 843c e4c2 1d3d
00000290: 1a09 2fbd a710 39bd 4018 9d3c d763 c23c
000002a0: 49ea 393c 6048 19bd 8dcd f1bc 56bd eabc
000002b0: f7d3 7e3d 02d6 d03c fafe 7dbd 37aa e8bc
000002c0: 9043 353d 8981 ed3b c16a 623d c583 a4bc
000002d0: 4c0e 1b3a f2c4 3a3d 8640 2b3d bbcb bf3d
000002e0: 510c bdbc be31 973c e88d 14bd 0e50 12bd
000002f0: 7f5a 9fbd b2f0 433d d1ce 5c3c 0514 34bd
00000300: daef 693d 44e1 24bd 8e0a 2abc fc84 61bc
00000310: cb5f f4bc 9ad4 49bd 5d63 d63c d498 97bd
00000320: 28fc 63bd 4049 86bd 5581 4dbd 257c b23c
00000330: ba26 f439 498c 70bd a380 443c 866d 34bd
00000340: 272e 12bd c990 d03c 79e1 c23c a1cf 4c3d
00000350: b8b6 cabc ddd2 8d3c 1f03 20bd 39ec e4bc
00000360: 9368 2e3d 4de8 2fbd 8c9a 563a 9d9d b33a
00000370: eee0 e43c 86e5 11bd 1ca3 50bd 2b35 df3b
00000380: 3e30 493d de2f 6e3d 8e76 0cbd 85f7 61bc
00000390: 2e5c 0b3d 090e 81bc 40c5 143d 048e c0bc
000003a0: 35e7 35bd 6b31 ff3b f9b9 8c3c d072 58bd
000003b0: d116 9f3d 1a79 81bd b92c 533c 9c93 3ebd
000003c0: 6753 55bd 311e e8bc 8112 443d 0f82 5b3d
000003d0: 3dfc dbbc fd42 35bc fc61 95bd fcfe 453d
000003e0: e253 24bd 5088 acbc 8826 b3bd 5b24 153d
000003f0: 392f 1abd f9f4 ee39 25cd a43d 2501 993d

decoder.0.bias f4 [32]
-0.053185493 -0.048597254 -0.04505676 0.04610708 0.025390007 -0.039625127 0.052049603 0.03148896
0.044524353 0.006191722 -0.046166126 0.018989008 0.052631922 0.002380263 0.030947072 -0.014924634
-0.032133806 -0.0016707999 0.018619701 0.02569875 0.024696765 0.057385672 -0.004366377 0.058732986
-0.054295 -0.013717285 -0.05380048 0.025415944 0.043517612 -0.038281847 0.04262467 -0.055829704
00000000: 08d9 59bd ea0d 47bd 708d 38bd c7da 3c3d
00000010: b4fe cf3c f54d 22bd f731 553d 91fa 003d
00000020: 2b5f 363d eee3 ca3b b118 3dbd d68e 9b3c
00000030: 9294 573d 30fe 1b3b b784 fd3c 7486 74bc
00000040: bd9e 03bd befe daba 5888 983c 2f86 d23c
00000050: df50 ca3c 3d0d 6b3d d313 8fbb 0092 703d
00000060: 6f64 5ebd 77be 60bc e45d 5cbd 1935 d03c
00000070: 863f 323d 6dcd 1cbd 3597 2e3d b0ad 64bd

decoder.1.weight f4 [32]
1.0088085 0.9527247 1.0128106 0.98939586 0.9623228 1.0221599 1.0444986 0.9925111
0.99201864 0.9534535 0.9655411 0.9950017 1.0255902 0.9654734 0.9751807 1.0132387
1.0111624 1.0098562 1.0163126 1.0334952 1.0042474 0.98707837 0.9765678 0.99557465
0.9738917 1.0512916 0.983999 0.98093396 1.015285 1.0296274 0.9600824 0.95003664
00000000: a320 813f c4e5 733f c7a3 813f 0c49 7d3f
00000010: c95a 763f 23d6 823f 21b2 853f 3515 7e3f
00000020: eff4 7d3f 8715 743f b42d 773f 6eb8 7e3f
00000030: 8a46 833f 4429 773f 71a5 793f ceb1 813f
00000040: c56d 813f f842 813f 8816 823f 9249 843f
00000050: 2e8b 803f 2bb1 7c3f 5900 7a3f fbdd 7e3f
00000060: f750 793f b990 863f 5ce7 7b3f 7d1e 7b3f
00000070: dcf4 813f d5ca 833f f6c7 753f 9a35 733f

decoder.1.bias f4 [32]
0.011981196 -0.03866902 0.02189016 0.013649608 -0.04901105 0.03992291 0.07959107 -0.0068353745
-0.0048845136 -0.03636596 -0.04821919 0.0012262478 0.088325284 -0.044395357 -0.010055651 0.042351022
0.060178436 0.025541496 0.070689104 0.05005978 0.032526396 0.016201615 -0.019523842 0.023324953
-0.02203123 0.10239246 0.0063370178 -0.0054236553 0.029088601 0.039428163 -0.015852634 -0.02835013
00000000: c74c 443c 6863 1ebd fe52 b33c 9ba2 5f3c
00000010: d0bf 48bd 3586 233d a500 a33d 47fb dfbb
00000020: 450e a0bb 79f4 14bd 7c81 45bd 0cba a03a
00000030: e3e3 b43d e8d7 35bd 75c0 24bc 4478 2d3d
00000040: aa7d 763d 663c d13c 73c5 903d 7c0b 4d3d
00000050: 663a 053d 40b9 843c 77f0 9fbc f913 bf3c
00000060: d77a b4bc 23b3 d13d c2a6 cf3b ebb8 b1bb
00000070: 384b ee3c 6d7f 213d 62dd 81bc 883e e8bc

decoder.1.running_mean f4 [32]
0.078177616 -0.42456228 -0.23645632 -0.36656106 -0.01342589 -0.21969089 -0.177953 -0.052092217
0.03129219 -0.29023743 -0.038367473 -0.10858533 0.027499609 0.012275837 -0.2737427 -0.2359057
0.015084376 0.27395123 -0.29090923 0.21844451 0.06790629 0.078771636 -0.23521666 0.02138124
-0.33471206 -0.14622071 -0.41357943 -0.119891554 -0.23635906 -0.09948481 -0.17636156 -0.17797674
00000000: 961b a03d 3a60 d9be 9b21 72be e4ad bbbe
00000010: 44f8 5bbc a6f6 60be 5039 36be a65e 55bd
00000020: 3d2c 003d 009a 94be 3627 1dbd fc61 debd
00000030: dc46 e13c 9820 493c 0128 8cbe 4491 71be
00000040: 7524 773c 5643 8c3e 0ef2 94be ebaf 5f3e
00000050: 7412 8b3d 0653 a13d a3dc 70be b627 af3c
00000060: 615f abbe e2ba 15be afc0 d3be b489 f5bd
00000070: 1c08 72be b1be cbbd 2098 34be 893f 36be

decoder.1.running_var f4 [32]
0.2804879 0.73988724 0.4008325 0.63361394 0.52728325 0.67034054 0.22944783 0.52895844
0.21767217 0.7372627 0.6171429 0.19707745 0.21711071 0.9583058 0.662513 0.47787887
0.24527857 0.15887097 0.34014547 0.18041104 0.19326808 0.25935712 0.51378846 0.2171768
0.3081096 0.09457472 1.0315653 0.43828294 0.391643 0.26599655 0.29250476 0.4334647
00000000: 1c9c 8f3e 4069 3d3f eb39 cd3e 8634 223f
00000010: 09fc 063f 709b 2b3f 5ff4 6a3e d269 073f
00000020: 74e5 5e3e 40bd 3c3f 14fd 1d3f acce 493e
00000030: 4552 5e3e 8753 753f 749a 293f 8aac f43e
00000040: 4e2a 7b3e 12af 223e 8c27 ae3e acbd 383e
00000050: 11e8 453e 75ca 843e a487 033f 9863 5e3e
00000060: 8bc0 9d3e 64b0 c13d 550a 843f 9f66 e03e
00000070: 6e85 c83e b330 883e 2fc3 953e 16ef dd3e

decoder.3.weight f4 [32, 16, 3, 3]
0.021766422 -0.0709526 0.0511863 0.038538974 -0.07321542 -0.06546157 0.030090677 0.06360615
0.056544203 -0.0016195078 0.022201987 -0.02175409 -0.010327672 0.07976015 0.060298353 -0.024383046
0.013017122 0.04776829 0.019059323 0.08595571 0.078147165 0.00705743 -0.023734186 -0.011882163
-0.0010004528 0.09825185 -0.045968678 -0.014493393 0.05584883 -0.05554212 0.08176266 0.06756132
0.042037133 -0.011760829 0.013105918 -0.10066562 -0.010395281 0.055703077 -0.05608009 -0.024392173
0.06878731 0.049064796 -0.058065288 -0.022283025 -0.062888876 0.01625849 0.02283786 0.0047910316
0.08385721 0.0030204295 -0.012891 0.035817128 0.043165468 0.028536294 -0.007615964 -0.043971326
-0.013103784 -0.109680526 -0.1066639 -0.07108523 -0.066507325 0.09135271 -0.070953935 0.08014589
0.020980386 -0.04045034 0.07955534 -0.0105547765 0.029443625 -0.0047092293 0.03611212 -0.0700397
0.020832863 0.001711232 -0.042956308 0.05220224 0.09584096 0.0050564874 0.007752809 -0.03170762
-0.048537232 -0.03596983 -0.007424448 -0.06871861 0.07355799 0.057512246 0.044069532 -0.04675641
-0.07020405 -0.05889081 0.1040271 0.067732334 0.07450338 -0.05901124 0.06675123 0.04118239
0.03832817 0.010165611 -0.0051490036 0.015127253 0.02635214 0.0019468396 0.046586353 0.09454485
0.044264507 -0.0020122172 -0.013317995 -0.07839587 -0.018869966 -0.024815159 -0.0007977372 0.056264546
0.04607781 0.01808203 -0.010493241 -0.030868853 0.03250905 -0.0019147625 -0.058177862 0.03502499
-0.033569038 -0.021932889 -0.04502036 0.071390264 0.017624665 -0.031151433 0.0090201935 -0.09404168
-0.0063276035 0.036269523 0.03217037 0.017159298 -0.018242594 -0.012832755 -0.012292064 0.017255547
-0.051440768 -0.04518318 -0.039246455 0.01499642 0.045628414 0.018329743 0.11519213 -0.038248762
-0.06189493 0.08071527 0.0067594573 0.098250434 0.106764495 -0.00821977 -0.059870336 -0.017531771
0.0663408 0.028143937 -0.026361626 -0.109641865 -0.041545343 0.030900143 -0.058186717 -0.020824011
0.012579011 -0.01965994 -0.01595003 0.03236063 0.032343253 -0.053880505 -0.034541458 -0.025909599
-0.027504098 -0.014563433 0.03632213 -0.0014698686 -0.016809467 0.027054556 -0.08361457 -0.056493454
-0.05085028 -0.014461794 0.03420646 -0.056206264 0.031394593 -0.100904725 0.03206587 -0.08071281
-0.07499914 -0.0074668187 -0.014945323 -0.098856 -0.031358264 0.060065355 0.08750774 0.050197855
-0.088015825 -0.023834918 -0.06755655 0.064641915 -0.028121356 -0.0035106214 0.0011959551 0.025626415
0.075125836 -0.00063902425 -0.039383385 -0.024463093 -0.070468925 0.051083647 0.09690265 -0.00068134576
-0.079717115 -0.055420913 -0.02323656 -0.009117648 -0.018901806 0.004278569 -0.05150469 0.024717435
-0.022411868 -0.017707037 -0.05480738 -0.055062886 -0.022894887 -0.04173115 -0.06391794 -0.10813436
-0.06747215 -0.008698432 -0.01352435 -0.03183345 0.015343451 0.004428999 -0.103080235 -0.040312514
0.09877055 0.058503326 -0.030858556 -0.06466732 0.021887505 0.007972527 -0.056716226 -0.008008824
-0.01466294 -0.0427139 0.009218914 -0.033426043 0.039232228 -0.039077867 -0.028936666 -0.04144615
-0.007936142 0.051573455 -0.007643923 0.06321628 -0.08162092 -0.076401494 -0.039948728 0.016528796
00000000: 7f4f b23c 994f 91bd baa8 513d 0bdb 1d3d
00000010: f7f1 95bd b710 86bd b980 f63c f143 823d
00000020: e59a 673d aa45 d4ba f1e0 b53c a235 b2bc
00000030: 6535 29bc 4a59 a33d 68fb 763d f4be c7bc
00000040: c445 553c afa8 433d 4c22 9c3c 8c09 b03d
00000050: 9f0b a03d 0442 e73b 326e c2bc 67ad 42bc
00000060: a021 83ba 4438 c93d a749 3cbd b275 6dbc
00000070: bec1 643d 2280 63bd 2e73 a73d 975d 8a3d
00000080: 212f 2c3d 7eb0 40bc 34ba 563c c729 cebd
00000090: f850 2abc e928 643d 3db4 65bd 18d2 c7bc
000000a0: 5ce0 8c3d 2bf8 483d ded5 6dbd e48a b6bc
000000b0: e2cb 80bd 8630 853c 7716 bb3c 16fe 9c3b
000000c0: 54bd ab3d 66f2 453b c634 53bc fbb4 123d
000000d0: 46ce 303d f2c4 e93c 568f f9bb 471b 34bd
000000e0: 41b1 56bc 2fa0 e0bd 9a72 dabd 2295 91bd
000000f0: fe34 88bd 2117 bb3d 4c50 91bd 8723 a43d
00000100: 0fdf ab3c 41af 25bd e9ed a23d f1ed 2cbc
00000110: c233 f13c e14f 9abb 4dea 133d f970 8fbd
00000120: aea9 aa3c 6b4b e03a f4f2 2fbd 04d2 553d
00000130: 4448 c43d e4b0 a53b 470b fe3b d9df 01bd
00000140: face 46bd 1a55 13bd c948 f3bb 58bc 8cbd
00000150: 92a5 963d f691 6b3d 4182 343d a683 3fbd
00000160: 24c7 8fbd 7d37 71bd 290c d53d 40b7 8a3d
00000170: 3a95 983d c5b5 71bd deb4 883d deae 283d
00000180: 00fe 1c3d aa8d 263c f9b8 a8bb 4cd8 773c
00000190: 71e0 d73c 192d ff3a 55d1 3e3d bba0 c13d
000001a0: b34e 353d 67df 03bb b833 5abc 048e a0bd
000001b0: 3095 9abc 2949 cbbc 3d1f 51ba a775 663d
000001c0: 16bc 3c3d c420 943c d8eb 2bbc ade0 fcbc
000001d0: 3628 053d c5f8 faba e94b 6ebd 5d76 0f3d
000001e0: b07f 09bd 9aac b3bc 4567 38bd 0f35 923d
000001f0: 9a61 903c 4a31 ffbc 6fc9 133c ed98 c0bd
00000200: c957 cfbb 5a8f 143d 14c5 033d a891 8c3c
00000210: 7e71 95bc 7a40 52bc a764 49bc 815b 8d3c
00000220: 8eb3 52bd 0012 39bd e4c0 20bd 8bb3 753c
00000230: dce4 3a3d 4228 963c dae9 eb3d bcaa 1cbd
00000240: 8a85 7dbd 0c4e a53d 707e dd3b 8637 c93d
00000250: 58a7 da3d 37ac 06bc 993a 75bd ca9e 8fbc
00000260: afdd 873d 1d8e e63c 56f4 d7bc ea8b e0bd
00000270: 732b 2abd 4c22 fd3c 3255 6ebd 1e97 aabc
00000280: 3218 4e3c e20d a1bc a3a9 82bc 948c 043d
00000290: 5c7a 043d ceb1 5cbd 587b 0dbd 5e40 d4bc
000002a0: 4650 e1bc 779b 6ebc 84c6 143d 9ba8 c0ba
000002b0: 02b4 89bc 84a1 dd3c 1e3e abbd ae65 67bd
000002c0: 6248 50bd 29f1 6cbc 131c 0c3d 8a38 66bd
000002d0: 9e97 003d 23a7 cebd 8057 033d c24c a5bd
000002e0: 2699 99bd 37ac f4bb 3add 74bc 0475 cabd
000002f0: 8671 00bd 1707 763d 4237 b33d 449c 4d3d
00000300: a441 b4bd 7241 c3bc 175b 8abd fb62 843d
00000310: c25e e6bc 7412 66bb 98c1 9c3a 7dee d13c
00000320: 93db 993d 3184 27ba 7950 21bd d366 c8bc
00000330: 0352 90bd 163d 513d e674 c63d 579c 32ba
00000340: ba42 a3bd 0a01 63bd 995a bebc 3062 15bc
00000350: f6d7 9abc 3d33 8c3b 95f6 52bd 387c ca3c
00000360: 1899 b7bc 590e 91bc b47d 60bd 9f89 61bd
00000370: 0f8e bbbc 48ee 2abd 69e7 82bd 8c75 ddbd
00000380: d72e 8abd de83 0ebc 3c95 5dbc cb63 02bd
00000390: 1963 7b3c 2321 913b bb1b d3bd bc1e 25bd
000003a0: 3748 ca3d 2fa1 6f3d 15cb fcbc 4d70 84bd
000003b0: 6d4d b33c 349f 023c 464f 68bd 7137 03bc
000003c0: d43c 70bc c5f4 2ebd ee0a 173c bfe9 08bd
000003d0: f9b1 203d 1d10 20bd 960c edbc 70c3 29bd
000003e0: 9806 02bc b03e 533d e079 fabb 8977 813d
000003f0: de28 a7bd 6378 9cbd 47a1 23bd 6667 873c

decoder.3.bias f4 [16]
0.071688026 0.06452368 0.072518036 -0.068999164 -0.059776235 -0.07415643 0.069711134 0.029653024
-0.0718835 0.022841945 -0.046678428 0.022330487 -0.06110261 0.012542437 0.04729504 -0.021279965
00000000: 2cd1 923d fe24 843d 5684 943d 6f4f 8dbd
00000010: edd7 74bd 54df 97bd b6c4 8e3d e6ea f23c
00000020: a837 93bd 081f bb3c e131 3fbd 6dee b63c
00000030: bb46 7abd cb7e 4d3c 72b8 413d 5253 aebc

decoder.4.weight f4 [16]
1.0671655 0.98895824 0.97017604 1.0397841 1.0864649 1.0940318 1.0706458 1.0920278
1.0494953 0.9853449 0.9923691 1.0615678 1.0438008 1.1002452 1.0807811 1.0797819
00000000: e198 883f 5e2c 7d3f 755d 783f a517 853f
00000010: 4811 8b3f 3c09 8c3f ec0a 893f 91c7 8b3f
00000020: dd55 863f 903f 7c3f e70b 7e3f 74e1 873f
00000030: 449b 853f d6d4 8c3f 0957 8a3f 4b36 8a3f

decoder.4.bias f4 [16]
0.06436951 -0.03305252 -0.03193626 0.041970503 0.09356971 0.09273696 0.0876456 0.10828576
0.047230642 -0.012575539 -0.014153496 0.058742344 0.027163764 0.12380779 0.07104799 0.07868829
00000000: 29d4 833d 1462 07bd 99cf 02bd 43e9 2b3d
00000010: 7aa1 bf3d e0ec bd3d 897f b33d edc4 dd3d
00000020: eb74 413d a209 4ebc 11e4 67bc d09b 703d
00000030: 8b86 de3c f08e fd3d 9c81 913d 5427 a13d
